time,model,comment,mean_squared_error,mean_absolute_percentage_error,r2_score
44:10.5,"LSTMBaseline(
  (lstm): LSTM(5, 64, batch_first=True)
  (dense): Linear(in_features=64, out_features=1, bias=True)
)",lstm_woattn_ohlcv_AMARAJABAT.NS,12763.57012,0.087488965,-0.314685873
44:10.5,"LSTMBaseline(
  (lstm): LSTM(5, 64, batch_first=True)
  (dense): Linear(in_features=64, out_features=1, bias=True)
)",lstm_woattn_ohlcv_AMARAJABAT.NS,12763.57012,0.087488965,-0.314685873
48:00.6,"LSTMBaseline(
  (lstm): LSTM(5, 64, batch_first=True)
  (dense): Linear(in_features=64, out_features=1, bias=True)
)",lstm_woattn_ohlcv_ASHOKLEY.NS,141.572825,0.104258659,0.825198009
44:10.5,"LSTMBaseline(
  (lstm): LSTM(5, 64, batch_first=True)
  (dense): Linear(in_features=64, out_features=1, bias=True)
)",lstm_woattn_ohlcv_AMARAJABAT.NS,12763.57012,0.087488965,-0.314685873
48:00.6,"LSTMBaseline(
  (lstm): LSTM(5, 64, batch_first=True)
  (dense): Linear(in_features=64, out_features=1, bias=True)
)",lstm_woattn_ohlcv_ASHOKLEY.NS,141.572825,0.104258659,0.825198009
51:59.5,"LSTMBaseline(
  (lstm): LSTM(5, 64, batch_first=True)
  (dense): Linear(in_features=64, out_features=1, bias=True)
)",lstm_woattn_ohlcv_BAJAJ-AUTO.NS,792254.7915,0.175112274,-3.115046749
44:10.5,"LSTMBaseline(
  (lstm): LSTM(5, 64, batch_first=True)
  (dense): Linear(in_features=64, out_features=1, bias=True)
)",lstm_woattn_ohlcv_AMARAJABAT.NS,12763.57012,0.087488965,-0.314685873
48:00.6,"LSTMBaseline(
  (lstm): LSTM(5, 64, batch_first=True)
  (dense): Linear(in_features=64, out_features=1, bias=True)
)",lstm_woattn_ohlcv_ASHOKLEY.NS,141.572825,0.104258659,0.825198009
51:59.5,"LSTMBaseline(
  (lstm): LSTM(5, 64, batch_first=True)
  (dense): Linear(in_features=64, out_features=1, bias=True)
)",lstm_woattn_ohlcv_BAJAJ-AUTO.NS,792254.7915,0.175112274,-3.115046749
55:52.7,"LSTMBaseline(
  (lstm): LSTM(5, 64, batch_first=True)
  (dense): Linear(in_features=64, out_features=1, bias=True)
)",lstm_woattn_ohlcv_BALKRISIND.NS,23165.02617,0.096186862,0.91877476
44:10.5,"LSTMBaseline(
  (lstm): LSTM(5, 64, batch_first=True)
  (dense): Linear(in_features=64, out_features=1, bias=True)
)",lstm_woattn_ohlcv_AMARAJABAT.NS,12763.57012,0.087488965,-0.314685873
48:00.6,"LSTMBaseline(
  (lstm): LSTM(5, 64, batch_first=True)
  (dense): Linear(in_features=64, out_features=1, bias=True)
)",lstm_woattn_ohlcv_ASHOKLEY.NS,141.572825,0.104258659,0.825198009
51:59.5,"LSTMBaseline(
  (lstm): LSTM(5, 64, batch_first=True)
  (dense): Linear(in_features=64, out_features=1, bias=True)
)",lstm_woattn_ohlcv_BAJAJ-AUTO.NS,792254.7915,0.175112274,-3.115046749
55:52.7,"LSTMBaseline(
  (lstm): LSTM(5, 64, batch_first=True)
  (dense): Linear(in_features=64, out_features=1, bias=True)
)",lstm_woattn_ohlcv_BALKRISIND.NS,23165.02617,0.096186862,0.91877476
59:49.7,"LSTMBaseline(
  (lstm): LSTM(5, 64, batch_first=True)
  (dense): Linear(in_features=64, out_features=1, bias=True)
)",lstm_woattn_ohlcv_BHARATFORG.NS,4523.989557,0.093626832,0.748507764
44:10.5,"LSTMBaseline(
  (lstm): LSTM(5, 64, batch_first=True)
  (dense): Linear(in_features=64, out_features=1, bias=True)
)",lstm_woattn_ohlcv_AMARAJABAT.NS,12763.57012,0.087488965,-0.314685873
48:00.6,"LSTMBaseline(
  (lstm): LSTM(5, 64, batch_first=True)
  (dense): Linear(in_features=64, out_features=1, bias=True)
)",lstm_woattn_ohlcv_ASHOKLEY.NS,141.572825,0.104258659,0.825198009
51:59.5,"LSTMBaseline(
  (lstm): LSTM(5, 64, batch_first=True)
  (dense): Linear(in_features=64, out_features=1, bias=True)
)",lstm_woattn_ohlcv_BAJAJ-AUTO.NS,792254.7915,0.175112274,-3.115046749
55:52.7,"LSTMBaseline(
  (lstm): LSTM(5, 64, batch_first=True)
  (dense): Linear(in_features=64, out_features=1, bias=True)
)",lstm_woattn_ohlcv_BALKRISIND.NS,23165.02617,0.096186862,0.91877476
59:49.7,"LSTMBaseline(
  (lstm): LSTM(5, 64, batch_first=True)
  (dense): Linear(in_features=64, out_features=1, bias=True)
)",lstm_woattn_ohlcv_BHARATFORG.NS,4523.989557,0.093626832,0.748507764
03:48.2,"LSTMBaseline(
  (lstm): LSTM(5, 64, batch_first=True)
  (dense): Linear(in_features=64, out_features=1, bias=True)
)",lstm_woattn_ohlcv_BOSCHLTD.NS,114242726.6,0.401646749,-8.537891793
44:10.5,"LSTMBaseline(
  (lstm): LSTM(5, 64, batch_first=True)
  (dense): Linear(in_features=64, out_features=1, bias=True)
)",lstm_woattn_ohlcv_AMARAJABAT.NS,12763.57012,0.087488965,-0.314685873
48:00.6,"LSTMBaseline(
  (lstm): LSTM(5, 64, batch_first=True)
  (dense): Linear(in_features=64, out_features=1, bias=True)
)",lstm_woattn_ohlcv_ASHOKLEY.NS,141.572825,0.104258659,0.825198009
51:59.5,"LSTMBaseline(
  (lstm): LSTM(5, 64, batch_first=True)
  (dense): Linear(in_features=64, out_features=1, bias=True)
)",lstm_woattn_ohlcv_BAJAJ-AUTO.NS,792254.7915,0.175112274,-3.115046749
55:52.7,"LSTMBaseline(
  (lstm): LSTM(5, 64, batch_first=True)
  (dense): Linear(in_features=64, out_features=1, bias=True)
)",lstm_woattn_ohlcv_BALKRISIND.NS,23165.02617,0.096186862,0.91877476
59:49.7,"LSTMBaseline(
  (lstm): LSTM(5, 64, batch_first=True)
  (dense): Linear(in_features=64, out_features=1, bias=True)
)",lstm_woattn_ohlcv_BHARATFORG.NS,4523.989557,0.093626832,0.748507764
03:48.2,"LSTMBaseline(
  (lstm): LSTM(5, 64, batch_first=True)
  (dense): Linear(in_features=64, out_features=1, bias=True)
)",lstm_woattn_ohlcv_BOSCHLTD.NS,114242726.6,0.401646749,-8.537891793
08:05.5,"LSTMBaseline(
  (lstm): LSTM(5, 64, batch_first=True)
  (dense): Linear(in_features=64, out_features=1, bias=True)
)",lstm_woattn_ohlcv_EICHERMOT.NS,585879.5079,0.166861606,-1.744605215
44:10.5,"LSTMBaseline(
  (lstm): LSTM(5, 64, batch_first=True)
  (dense): Linear(in_features=64, out_features=1, bias=True)
)",lstm_woattn_ohlcv_AMARAJABAT.NS,12763.57012,0.087488965,-0.314685873
48:00.6,"LSTMBaseline(
  (lstm): LSTM(5, 64, batch_first=True)
  (dense): Linear(in_features=64, out_features=1, bias=True)
)",lstm_woattn_ohlcv_ASHOKLEY.NS,141.572825,0.104258659,0.825198009
51:59.5,"LSTMBaseline(
  (lstm): LSTM(5, 64, batch_first=True)
  (dense): Linear(in_features=64, out_features=1, bias=True)
)",lstm_woattn_ohlcv_BAJAJ-AUTO.NS,792254.7915,0.175112274,-3.115046749
55:52.7,"LSTMBaseline(
  (lstm): LSTM(5, 64, batch_first=True)
  (dense): Linear(in_features=64, out_features=1, bias=True)
)",lstm_woattn_ohlcv_BALKRISIND.NS,23165.02617,0.096186862,0.91877476
59:49.7,"LSTMBaseline(
  (lstm): LSTM(5, 64, batch_first=True)
  (dense): Linear(in_features=64, out_features=1, bias=True)
)",lstm_woattn_ohlcv_BHARATFORG.NS,4523.989557,0.093626832,0.748507764
03:48.2,"LSTMBaseline(
  (lstm): LSTM(5, 64, batch_first=True)
  (dense): Linear(in_features=64, out_features=1, bias=True)
)",lstm_woattn_ohlcv_BOSCHLTD.NS,114242726.6,0.401646749,-8.537891793
08:05.5,"LSTMBaseline(
  (lstm): LSTM(5, 64, batch_first=True)
  (dense): Linear(in_features=64, out_features=1, bias=True)
)",lstm_woattn_ohlcv_EICHERMOT.NS,585879.5079,0.166861606,-1.744605215
12:23.1,"LSTMBaseline(
  (lstm): LSTM(5, 64, batch_first=True)
  (dense): Linear(in_features=64, out_features=1, bias=True)
)",lstm_woattn_ohlcv_EXIDEIND.NS,262.9093343,0.059307736,0.78468271
44:10.5,"LSTMBaseline(
  (lstm): LSTM(5, 64, batch_first=True)
  (dense): Linear(in_features=64, out_features=1, bias=True)
)",lstm_woattn_ohlcv_AMARAJABAT.NS,12763.57012,0.087488965,-0.314685873
48:00.6,"LSTMBaseline(
  (lstm): LSTM(5, 64, batch_first=True)
  (dense): Linear(in_features=64, out_features=1, bias=True)
)",lstm_woattn_ohlcv_ASHOKLEY.NS,141.572825,0.104258659,0.825198009
51:59.5,"LSTMBaseline(
  (lstm): LSTM(5, 64, batch_first=True)
  (dense): Linear(in_features=64, out_features=1, bias=True)
)",lstm_woattn_ohlcv_BAJAJ-AUTO.NS,792254.7915,0.175112274,-3.115046749
55:52.7,"LSTMBaseline(
  (lstm): LSTM(5, 64, batch_first=True)
  (dense): Linear(in_features=64, out_features=1, bias=True)
)",lstm_woattn_ohlcv_BALKRISIND.NS,23165.02617,0.096186862,0.91877476
59:49.7,"LSTMBaseline(
  (lstm): LSTM(5, 64, batch_first=True)
  (dense): Linear(in_features=64, out_features=1, bias=True)
)",lstm_woattn_ohlcv_BHARATFORG.NS,4523.989557,0.093626832,0.748507764
03:48.2,"LSTMBaseline(
  (lstm): LSTM(5, 64, batch_first=True)
  (dense): Linear(in_features=64, out_features=1, bias=True)
)",lstm_woattn_ohlcv_BOSCHLTD.NS,114242726.6,0.401646749,-8.537891793
08:05.5,"LSTMBaseline(
  (lstm): LSTM(5, 64, batch_first=True)
  (dense): Linear(in_features=64, out_features=1, bias=True)
)",lstm_woattn_ohlcv_EICHERMOT.NS,585879.5079,0.166861606,-1.744605215
12:23.1,"LSTMBaseline(
  (lstm): LSTM(5, 64, batch_first=True)
  (dense): Linear(in_features=64, out_features=1, bias=True)
)",lstm_woattn_ohlcv_EXIDEIND.NS,262.9093343,0.059307736,0.78468271
16:34.5,"LSTMBaseline(
  (lstm): LSTM(5, 64, batch_first=True)
  (dense): Linear(in_features=64, out_features=1, bias=True)
)",lstm_woattn_ohlcv_HEROMOTOCO.NS,1470434.683,0.207698857,-4.592897299
26:50.1,"LSTMBaseline(
  (lstm): LSTM(5, 64, batch_first=True)
  (dense): Linear(in_features=64, out_features=1, bias=True)
)",lstm_woattn_ohlcv_MRF.NS,3444923299,0.843396207,-42.85241101
26:50.1,"LSTMBaseline(
  (lstm): LSTM(5, 64, batch_first=True)
  (dense): Linear(in_features=64, out_features=1, bias=True)
)",lstm_woattn_ohlcv_MRF.NS,3444923299,0.843396207,-42.85241101
31:39.4,"LSTMBaseline(
  (lstm): LSTM(5, 64, batch_first=True)
  (dense): Linear(in_features=64, out_features=1, bias=True)
)",lstm_woattn_ohlcv_M&M.NS,5828.232359,0.08421327,0.690355528
26:50.1,"LSTMBaseline(
  (lstm): LSTM(5, 64, batch_first=True)
  (dense): Linear(in_features=64, out_features=1, bias=True)
)",lstm_woattn_ohlcv_MRF.NS,3444923299,0.843396207,-42.85241101
31:39.4,"LSTMBaseline(
  (lstm): LSTM(5, 64, batch_first=True)
  (dense): Linear(in_features=64, out_features=1, bias=True)
)",lstm_woattn_ohlcv_M&M.NS,5828.232359,0.08421327,0.690355528
35:56.7,"LSTMBaseline(
  (lstm): LSTM(5, 64, batch_first=True)
  (dense): Linear(in_features=64, out_features=1, bias=True)
)",lstm_woattn_ohlcv_MARUTI.NS,9785411.183,0.262082507,-8.063990826
26:50.1,"LSTMBaseline(
  (lstm): LSTM(5, 64, batch_first=True)
  (dense): Linear(in_features=64, out_features=1, bias=True)
)",lstm_woattn_ohlcv_MRF.NS,3444923299,0.843396207,-42.85241101
31:39.4,"LSTMBaseline(
  (lstm): LSTM(5, 64, batch_first=True)
  (dense): Linear(in_features=64, out_features=1, bias=True)
)",lstm_woattn_ohlcv_M&M.NS,5828.232359,0.08421327,0.690355528
35:56.7,"LSTMBaseline(
  (lstm): LSTM(5, 64, batch_first=True)
  (dense): Linear(in_features=64, out_features=1, bias=True)
)",lstm_woattn_ohlcv_MARUTI.NS,9785411.183,0.262082507,-8.063990826
39:59.6,"LSTMBaseline(
  (lstm): LSTM(5, 64, batch_first=True)
  (dense): Linear(in_features=64, out_features=1, bias=True)
)",lstm_woattn_ohlcv_TVSMOTOR.NS,4412.004077,0.09151167,0.603498453
26:50.1,"LSTMBaseline(
  (lstm): LSTM(5, 64, batch_first=True)
  (dense): Linear(in_features=64, out_features=1, bias=True)
)",lstm_woattn_ohlcv_MRF.NS,3444923299,0.843396207,-42.85241101
31:39.4,"LSTMBaseline(
  (lstm): LSTM(5, 64, batch_first=True)
  (dense): Linear(in_features=64, out_features=1, bias=True)
)",lstm_woattn_ohlcv_M&M.NS,5828.232359,0.08421327,0.690355528
35:56.7,"LSTMBaseline(
  (lstm): LSTM(5, 64, batch_first=True)
  (dense): Linear(in_features=64, out_features=1, bias=True)
)",lstm_woattn_ohlcv_MARUTI.NS,9785411.183,0.262082507,-8.063990826
39:59.6,"LSTMBaseline(
  (lstm): LSTM(5, 64, batch_first=True)
  (dense): Linear(in_features=64, out_features=1, bias=True)
)",lstm_woattn_ohlcv_TVSMOTOR.NS,4412.004077,0.09151167,0.603498453
44:07.0,"LSTMBaseline(
  (lstm): LSTM(5, 64, batch_first=True)
  (dense): Linear(in_features=64, out_features=1, bias=True)
)",lstm_woattn_ohlcv_TATAMOTORS.NS,2867.38355,0.148498865,0.822878019
26:50.1,"LSTMBaseline(
  (lstm): LSTM(5, 64, batch_first=True)
  (dense): Linear(in_features=64, out_features=1, bias=True)
)",lstm_woattn_ohlcv_MRF.NS,3444923299,0.843396207,-42.85241101
31:39.4,"LSTMBaseline(
  (lstm): LSTM(5, 64, batch_first=True)
  (dense): Linear(in_features=64, out_features=1, bias=True)
)",lstm_woattn_ohlcv_M&M.NS,5828.232359,0.08421327,0.690355528
35:56.7,"LSTMBaseline(
  (lstm): LSTM(5, 64, batch_first=True)
  (dense): Linear(in_features=64, out_features=1, bias=True)
)",lstm_woattn_ohlcv_MARUTI.NS,9785411.183,0.262082507,-8.063990826
39:59.6,"LSTMBaseline(
  (lstm): LSTM(5, 64, batch_first=True)
  (dense): Linear(in_features=64, out_features=1, bias=True)
)",lstm_woattn_ohlcv_TVSMOTOR.NS,4412.004077,0.09151167,0.603498453
44:07.0,"LSTMBaseline(
  (lstm): LSTM(5, 64, batch_first=True)
  (dense): Linear(in_features=64, out_features=1, bias=True)
)",lstm_woattn_ohlcv_TATAMOTORS.NS,2867.38355,0.148498865,0.822878019
47:20.8,"LSTMBaseline(
  (lstm): LSTM(5, 64, batch_first=True)
  (dense): Linear(in_features=64, out_features=1, bias=True)
)",lstm_woattn_ohlcv_TIINDIA.NS,9336.356899,0.105631935,0.95676411
26:50.1,"LSTMBaseline(
  (lstm): LSTM(5, 64, batch_first=True)
  (dense): Linear(in_features=64, out_features=1, bias=True)
)",lstm_woattn_ohlcv_MRF.NS,3444923299,0.843396207,-42.85241101
31:39.4,"LSTMBaseline(
  (lstm): LSTM(5, 64, batch_first=True)
  (dense): Linear(in_features=64, out_features=1, bias=True)
)",lstm_woattn_ohlcv_M&M.NS,5828.232359,0.08421327,0.690355528
35:56.7,"LSTMBaseline(
  (lstm): LSTM(5, 64, batch_first=True)
  (dense): Linear(in_features=64, out_features=1, bias=True)
)",lstm_woattn_ohlcv_MARUTI.NS,9785411.183,0.262082507,-8.063990826
39:59.6,"LSTMBaseline(
  (lstm): LSTM(5, 64, batch_first=True)
  (dense): Linear(in_features=64, out_features=1, bias=True)
)",lstm_woattn_ohlcv_TVSMOTOR.NS,4412.004077,0.09151167,0.603498453
44:07.0,"LSTMBaseline(
  (lstm): LSTM(5, 64, batch_first=True)
  (dense): Linear(in_features=64, out_features=1, bias=True)
)",lstm_woattn_ohlcv_TATAMOTORS.NS,2867.38355,0.148498865,0.822878019
47:20.8,"LSTMBaseline(
  (lstm): LSTM(5, 64, batch_first=True)
  (dense): Linear(in_features=64, out_features=1, bias=True)
)",lstm_woattn_ohlcv_TIINDIA.NS,9336.356899,0.105631935,0.95676411
50:43.8,"LSTMBaseline(
  (lstm): LSTM(5, 64, batch_first=True)
  (dense): Linear(in_features=64, out_features=1, bias=True)
)",lstm_woattn_ohlcv_AUBANK.NS,19256.20066,0.133954329,0.670722616
26:50.1,"LSTMBaseline(
  (lstm): LSTM(5, 64, batch_first=True)
  (dense): Linear(in_features=64, out_features=1, bias=True)
)",lstm_woattn_ohlcv_MRF.NS,3444923299,0.843396207,-42.85241101
31:39.4,"LSTMBaseline(
  (lstm): LSTM(5, 64, batch_first=True)
  (dense): Linear(in_features=64, out_features=1, bias=True)
)",lstm_woattn_ohlcv_M&M.NS,5828.232359,0.08421327,0.690355528
35:56.7,"LSTMBaseline(
  (lstm): LSTM(5, 64, batch_first=True)
  (dense): Linear(in_features=64, out_features=1, bias=True)
)",lstm_woattn_ohlcv_MARUTI.NS,9785411.183,0.262082507,-8.063990826
39:59.6,"LSTMBaseline(
  (lstm): LSTM(5, 64, batch_first=True)
  (dense): Linear(in_features=64, out_features=1, bias=True)
)",lstm_woattn_ohlcv_TVSMOTOR.NS,4412.004077,0.09151167,0.603498453
44:07.0,"LSTMBaseline(
  (lstm): LSTM(5, 64, batch_first=True)
  (dense): Linear(in_features=64, out_features=1, bias=True)
)",lstm_woattn_ohlcv_TATAMOTORS.NS,2867.38355,0.148498865,0.822878019
47:20.8,"LSTMBaseline(
  (lstm): LSTM(5, 64, batch_first=True)
  (dense): Linear(in_features=64, out_features=1, bias=True)
)",lstm_woattn_ohlcv_TIINDIA.NS,9336.356899,0.105631935,0.95676411
50:43.8,"LSTMBaseline(
  (lstm): LSTM(5, 64, batch_first=True)
  (dense): Linear(in_features=64, out_features=1, bias=True)
)",lstm_woattn_ohlcv_AUBANK.NS,19256.20066,0.133954329,0.670722616
54:29.6,"LSTMBaseline(
  (lstm): LSTM(5, 64, batch_first=True)
  (dense): Linear(in_features=64, out_features=1, bias=True)
)",lstm_woattn_ohlcv_AXISBANK.NS,5095.520402,0.083460666,0.645779125
26:50.1,"LSTMBaseline(
  (lstm): LSTM(5, 64, batch_first=True)
  (dense): Linear(in_features=64, out_features=1, bias=True)
)",lstm_woattn_ohlcv_MRF.NS,3444923299,0.843396207,-42.85241101
31:39.4,"LSTMBaseline(
  (lstm): LSTM(5, 64, batch_first=True)
  (dense): Linear(in_features=64, out_features=1, bias=True)
)",lstm_woattn_ohlcv_M&M.NS,5828.232359,0.08421327,0.690355528
35:56.7,"LSTMBaseline(
  (lstm): LSTM(5, 64, batch_first=True)
  (dense): Linear(in_features=64, out_features=1, bias=True)
)",lstm_woattn_ohlcv_MARUTI.NS,9785411.183,0.262082507,-8.063990826
39:59.6,"LSTMBaseline(
  (lstm): LSTM(5, 64, batch_first=True)
  (dense): Linear(in_features=64, out_features=1, bias=True)
)",lstm_woattn_ohlcv_TVSMOTOR.NS,4412.004077,0.09151167,0.603498453
44:07.0,"LSTMBaseline(
  (lstm): LSTM(5, 64, batch_first=True)
  (dense): Linear(in_features=64, out_features=1, bias=True)
)",lstm_woattn_ohlcv_TATAMOTORS.NS,2867.38355,0.148498865,0.822878019
47:20.8,"LSTMBaseline(
  (lstm): LSTM(5, 64, batch_first=True)
  (dense): Linear(in_features=64, out_features=1, bias=True)
)",lstm_woattn_ohlcv_TIINDIA.NS,9336.356899,0.105631935,0.95676411
50:43.8,"LSTMBaseline(
  (lstm): LSTM(5, 64, batch_first=True)
  (dense): Linear(in_features=64, out_features=1, bias=True)
)",lstm_woattn_ohlcv_AUBANK.NS,19256.20066,0.133954329,0.670722616
54:29.6,"LSTMBaseline(
  (lstm): LSTM(5, 64, batch_first=True)
  (dense): Linear(in_features=64, out_features=1, bias=True)
)",lstm_woattn_ohlcv_AXISBANK.NS,5095.520402,0.083460666,0.645779125
57:21.9,"LSTMBaseline(
  (lstm): LSTM(5, 64, batch_first=True)
  (dense): Linear(in_features=64, out_features=1, bias=True)
)",lstm_woattn_ohlcv_BANDHANBNK.NS,7262.12421,0.144733409,0.520330667
51:01.3,"LSTMBaseline(
  (lstm): LSTM(5, 64, batch_first=True)
  (dense): Linear(in_features=64, out_features=1, bias=True)
)",lstm_woattn_ohlcv_FEDERALBNK.NS,95.17834242,0.095817366,0.735954314
51:01.3,"LSTMBaseline(
  (lstm): LSTM(5, 64, batch_first=True)
  (dense): Linear(in_features=64, out_features=1, bias=True)
)",lstm_woattn_ohlcv_FEDERALBNK.NS,95.17834242,0.095817366,0.735954314
54:41.7,"LSTMBaseline(
  (lstm): LSTM(5, 64, batch_first=True)
  (dense): Linear(in_features=64, out_features=1, bias=True)
)",lstm_woattn_ohlcv_HDFCBANK.NS,11551.23105,0.067488155,0.793994822
51:01.3,"LSTMBaseline(
  (lstm): LSTM(5, 64, batch_first=True)
  (dense): Linear(in_features=64, out_features=1, bias=True)
)",lstm_woattn_ohlcv_FEDERALBNK.NS,95.17834242,0.095817366,0.735954314
54:41.7,"LSTMBaseline(
  (lstm): LSTM(5, 64, batch_first=True)
  (dense): Linear(in_features=64, out_features=1, bias=True)
)",lstm_woattn_ohlcv_HDFCBANK.NS,11551.23105,0.067488155,0.793994822
58:27.1,"LSTMBaseline(
  (lstm): LSTM(5, 64, batch_first=True)
  (dense): Linear(in_features=64, out_features=1, bias=True)
)",lstm_woattn_ohlcv_ICICIBANK.NS,1947.041511,0.075597674,0.91947065
51:01.3,"LSTMBaseline(
  (lstm): LSTM(5, 64, batch_first=True)
  (dense): Linear(in_features=64, out_features=1, bias=True)
)",lstm_woattn_ohlcv_FEDERALBNK.NS,95.17834242,0.095817366,0.735954314
54:41.7,"LSTMBaseline(
  (lstm): LSTM(5, 64, batch_first=True)
  (dense): Linear(in_features=64, out_features=1, bias=True)
)",lstm_woattn_ohlcv_HDFCBANK.NS,11551.23105,0.067488155,0.793994822
58:27.1,"LSTMBaseline(
  (lstm): LSTM(5, 64, batch_first=True)
  (dense): Linear(in_features=64, out_features=1, bias=True)
)",lstm_woattn_ohlcv_ICICIBANK.NS,1947.041511,0.075597674,0.91947065
01:56.4,"LSTMBaseline(
  (lstm): LSTM(5, 64, batch_first=True)
  (dense): Linear(in_features=64, out_features=1, bias=True)
)",lstm_woattn_ohlcv_IDFCFIRSTB.NS,29.84874388,0.102690621,0.725750058
51:01.3,"LSTMBaseline(
  (lstm): LSTM(5, 64, batch_first=True)
  (dense): Linear(in_features=64, out_features=1, bias=True)
)",lstm_woattn_ohlcv_FEDERALBNK.NS,95.17834242,0.095817366,0.735954314
54:41.7,"LSTMBaseline(
  (lstm): LSTM(5, 64, batch_first=True)
  (dense): Linear(in_features=64, out_features=1, bias=True)
)",lstm_woattn_ohlcv_HDFCBANK.NS,11551.23105,0.067488155,0.793994822
58:27.1,"LSTMBaseline(
  (lstm): LSTM(5, 64, batch_first=True)
  (dense): Linear(in_features=64, out_features=1, bias=True)
)",lstm_woattn_ohlcv_ICICIBANK.NS,1947.041511,0.075597674,0.91947065
01:56.4,"LSTMBaseline(
  (lstm): LSTM(5, 64, batch_first=True)
  (dense): Linear(in_features=64, out_features=1, bias=True)
)",lstm_woattn_ohlcv_IDFCFIRSTB.NS,29.84874388,0.102690621,0.725750058
05:57.6,"LSTMBaseline(
  (lstm): LSTM(5, 64, batch_first=True)
  (dense): Linear(in_features=64, out_features=1, bias=True)
)",lstm_woattn_ohlcv_INDUSINDBK.NS,86014.44048,0.165772921,0.549791079
51:01.3,"LSTMBaseline(
  (lstm): LSTM(5, 64, batch_first=True)
  (dense): Linear(in_features=64, out_features=1, bias=True)
)",lstm_woattn_ohlcv_FEDERALBNK.NS,95.17834242,0.095817366,0.735954314
54:41.7,"LSTMBaseline(
  (lstm): LSTM(5, 64, batch_first=True)
  (dense): Linear(in_features=64, out_features=1, bias=True)
)",lstm_woattn_ohlcv_HDFCBANK.NS,11551.23105,0.067488155,0.793994822
58:27.1,"LSTMBaseline(
  (lstm): LSTM(5, 64, batch_first=True)
  (dense): Linear(in_features=64, out_features=1, bias=True)
)",lstm_woattn_ohlcv_ICICIBANK.NS,1947.041511,0.075597674,0.91947065
01:56.4,"LSTMBaseline(
  (lstm): LSTM(5, 64, batch_first=True)
  (dense): Linear(in_features=64, out_features=1, bias=True)
)",lstm_woattn_ohlcv_IDFCFIRSTB.NS,29.84874388,0.102690621,0.725750058
05:57.6,"LSTMBaseline(
  (lstm): LSTM(5, 64, batch_first=True)
  (dense): Linear(in_features=64, out_features=1, bias=True)
)",lstm_woattn_ohlcv_INDUSINDBK.NS,86014.44048,0.165772921,0.549791079
09:40.0,"LSTMBaseline(
  (lstm): LSTM(5, 64, batch_first=True)
  (dense): Linear(in_features=64, out_features=1, bias=True)
)",lstm_woattn_ohlcv_KOTAKBANK.NS,25608.51463,0.079098194,0.75602559
51:01.3,"LSTMBaseline(
  (lstm): LSTM(5, 64, batch_first=True)
  (dense): Linear(in_features=64, out_features=1, bias=True)
)",lstm_woattn_ohlcv_FEDERALBNK.NS,95.17834242,0.095817366,0.735954314
54:41.7,"LSTMBaseline(
  (lstm): LSTM(5, 64, batch_first=True)
  (dense): Linear(in_features=64, out_features=1, bias=True)
)",lstm_woattn_ohlcv_HDFCBANK.NS,11551.23105,0.067488155,0.793994822
58:27.1,"LSTMBaseline(
  (lstm): LSTM(5, 64, batch_first=True)
  (dense): Linear(in_features=64, out_features=1, bias=True)
)",lstm_woattn_ohlcv_ICICIBANK.NS,1947.041511,0.075597674,0.91947065
01:56.4,"LSTMBaseline(
  (lstm): LSTM(5, 64, batch_first=True)
  (dense): Linear(in_features=64, out_features=1, bias=True)
)",lstm_woattn_ohlcv_IDFCFIRSTB.NS,29.84874388,0.102690621,0.725750058
05:57.6,"LSTMBaseline(
  (lstm): LSTM(5, 64, batch_first=True)
  (dense): Linear(in_features=64, out_features=1, bias=True)
)",lstm_woattn_ohlcv_INDUSINDBK.NS,86014.44048,0.165772921,0.549791079
09:40.0,"LSTMBaseline(
  (lstm): LSTM(5, 64, batch_first=True)
  (dense): Linear(in_features=64, out_features=1, bias=True)
)",lstm_woattn_ohlcv_KOTAKBANK.NS,25608.51463,0.079098194,0.75602559
13:44.2,"LSTMBaseline(
  (lstm): LSTM(5, 64, batch_first=True)
  (dense): Linear(in_features=64, out_features=1, bias=True)
)",lstm_woattn_ohlcv_PNB.NS,196.8007723,0.114847362,0.901438631
51:01.3,"LSTMBaseline(
  (lstm): LSTM(5, 64, batch_first=True)
  (dense): Linear(in_features=64, out_features=1, bias=True)
)",lstm_woattn_ohlcv_FEDERALBNK.NS,95.17834242,0.095817366,0.735954314
54:41.7,"LSTMBaseline(
  (lstm): LSTM(5, 64, batch_first=True)
  (dense): Linear(in_features=64, out_features=1, bias=True)
)",lstm_woattn_ohlcv_HDFCBANK.NS,11551.23105,0.067488155,0.793994822
58:27.1,"LSTMBaseline(
  (lstm): LSTM(5, 64, batch_first=True)
  (dense): Linear(in_features=64, out_features=1, bias=True)
)",lstm_woattn_ohlcv_ICICIBANK.NS,1947.041511,0.075597674,0.91947065
01:56.4,"LSTMBaseline(
  (lstm): LSTM(5, 64, batch_first=True)
  (dense): Linear(in_features=64, out_features=1, bias=True)
)",lstm_woattn_ohlcv_IDFCFIRSTB.NS,29.84874388,0.102690621,0.725750058
05:57.6,"LSTMBaseline(
  (lstm): LSTM(5, 64, batch_first=True)
  (dense): Linear(in_features=64, out_features=1, bias=True)
)",lstm_woattn_ohlcv_INDUSINDBK.NS,86014.44048,0.165772921,0.549791079
09:40.0,"LSTMBaseline(
  (lstm): LSTM(5, 64, batch_first=True)
  (dense): Linear(in_features=64, out_features=1, bias=True)
)",lstm_woattn_ohlcv_KOTAKBANK.NS,25608.51463,0.079098194,0.75602559
13:44.2,"LSTMBaseline(
  (lstm): LSTM(5, 64, batch_first=True)
  (dense): Linear(in_features=64, out_features=1, bias=True)
)",lstm_woattn_ohlcv_PNB.NS,196.8007723,0.114847362,0.901438631
18:20.9,"LSTMBaseline(
  (lstm): LSTM(5, 64, batch_first=True)
  (dense): Linear(in_features=64, out_features=1, bias=True)
)",lstm_woattn_ohlcv_RBLBANK.NS,4465.370298,0.138120472,0.859027804
51:01.3,"LSTMBaseline(
  (lstm): LSTM(5, 64, batch_first=True)
  (dense): Linear(in_features=64, out_features=1, bias=True)
)",lstm_woattn_ohlcv_FEDERALBNK.NS,95.17834242,0.095817366,0.735954314
54:41.7,"LSTMBaseline(
  (lstm): LSTM(5, 64, batch_first=True)
  (dense): Linear(in_features=64, out_features=1, bias=True)
)",lstm_woattn_ohlcv_HDFCBANK.NS,11551.23105,0.067488155,0.793994822
58:27.1,"LSTMBaseline(
  (lstm): LSTM(5, 64, batch_first=True)
  (dense): Linear(in_features=64, out_features=1, bias=True)
)",lstm_woattn_ohlcv_ICICIBANK.NS,1947.041511,0.075597674,0.91947065
01:56.4,"LSTMBaseline(
  (lstm): LSTM(5, 64, batch_first=True)
  (dense): Linear(in_features=64, out_features=1, bias=True)
)",lstm_woattn_ohlcv_IDFCFIRSTB.NS,29.84874388,0.102690621,0.725750058
05:57.6,"LSTMBaseline(
  (lstm): LSTM(5, 64, batch_first=True)
  (dense): Linear(in_features=64, out_features=1, bias=True)
)",lstm_woattn_ohlcv_INDUSINDBK.NS,86014.44048,0.165772921,0.549791079
09:40.0,"LSTMBaseline(
  (lstm): LSTM(5, 64, batch_first=True)
  (dense): Linear(in_features=64, out_features=1, bias=True)
)",lstm_woattn_ohlcv_KOTAKBANK.NS,25608.51463,0.079098194,0.75602559
13:44.2,"LSTMBaseline(
  (lstm): LSTM(5, 64, batch_first=True)
  (dense): Linear(in_features=64, out_features=1, bias=True)
)",lstm_woattn_ohlcv_PNB.NS,196.8007723,0.114847362,0.901438631
18:20.9,"LSTMBaseline(
  (lstm): LSTM(5, 64, batch_first=True)
  (dense): Linear(in_features=64, out_features=1, bias=True)
)",lstm_woattn_ohlcv_RBLBANK.NS,4465.370298,0.138120472,0.859027804
22:29.3,"LSTMBaseline(
  (lstm): LSTM(5, 64, batch_first=True)
  (dense): Linear(in_features=64, out_features=1, bias=True)
)",lstm_woattn_ohlcv_SBIN.NS,1402.867271,0.095702004,0.806072019
,,,,,
,,,,,
,,,avg,0.172309542,
,,,min,0.059307736,
,,,max,0.843396207,
,,,std,0.192111176,
