time,model,comment,mean_squared_error,mean_absolute_percentage_error,r2_score
43:02.8,"LSTMBaseline(
  (lstm): LSTM(2, 64, batch_first=True)
  (dense): Linear(in_features=64, out_features=1, bias=True)
)",lstm_woattn_ohlcv_MRF.NS,2342675412,0.678905767,-28.82126337
23:07.6,"LSTMBaseline(
  (lstm): LSTM(2, 64, batch_first=True)
  (dense): Linear(in_features=64, out_features=1, bias=True)
)",lstm_woattn_ohlcv_MRF.NS,181286235.5,0.100215569,-1.307696811
23:07.6,"LSTMBaseline(
  (lstm): LSTM(2, 64, batch_first=True)
  (dense): Linear(in_features=64, out_features=1, bias=True)
)",lstm_woattn_ohlcv_MRF.NS,181286235.5,0.100215569,-1.307696811
18:37.5,"LSTMBaseline(
  (lstm): LSTM(2, 64, batch_first=True)
  (dense): Linear(in_features=64, out_features=1, bias=True)
)",lstm_woattn_ohlcv_M&M.NS,5662.695901,0.086783734,0.69915021
23:07.6,"LSTMBaseline(
  (lstm): LSTM(2, 64, batch_first=True)
  (dense): Linear(in_features=64, out_features=1, bias=True)
)",lstm_woattn_ohlcv_MRF.NS,181286235.5,0.100215569,-1.307696811
18:37.5,"LSTMBaseline(
  (lstm): LSTM(2, 64, batch_first=True)
  (dense): Linear(in_features=64, out_features=1, bias=True)
)",lstm_woattn_ohlcv_M&M.NS,5662.695901,0.086783734,0.69915021
07:03.5,"LSTMBaseline(
  (lstm): LSTM(2, 64, batch_first=True)
  (dense): Linear(in_features=64, out_features=1, bias=True)
)",lstm_woattn_ohlcv_MARUTI.NS,539965.5336,0.078376303,0.499842924
23:07.6,"LSTMBaseline(
  (lstm): LSTM(2, 64, batch_first=True)
  (dense): Linear(in_features=64, out_features=1, bias=True)
)",lstm_woattn_ohlcv_MRF.NS,181286235.5,0.100215569,-1.307696811
18:37.5,"LSTMBaseline(
  (lstm): LSTM(2, 64, batch_first=True)
  (dense): Linear(in_features=64, out_features=1, bias=True)
)",lstm_woattn_ohlcv_M&M.NS,5662.695901,0.086783734,0.69915021
07:03.5,"LSTMBaseline(
  (lstm): LSTM(2, 64, batch_first=True)
  (dense): Linear(in_features=64, out_features=1, bias=True)
)",lstm_woattn_ohlcv_MARUTI.NS,539965.5336,0.078376303,0.499842924
56:19.8,"LSTMBaseline(
  (lstm): LSTM(2, 64, batch_first=True)
  (dense): Linear(in_features=64, out_features=1, bias=True)
)",lstm_woattn_ohlcv_TVSMOTOR.NS,3945.128373,0.096371103,0.645456016
23:07.6,"LSTMBaseline(
  (lstm): LSTM(2, 64, batch_first=True)
  (dense): Linear(in_features=64, out_features=1, bias=True)
)",lstm_woattn_ohlcv_MRF.NS,181286235.5,0.100215569,-1.307696811
18:37.5,"LSTMBaseline(
  (lstm): LSTM(2, 64, batch_first=True)
  (dense): Linear(in_features=64, out_features=1, bias=True)
)",lstm_woattn_ohlcv_M&M.NS,5662.695901,0.086783734,0.69915021
07:03.5,"LSTMBaseline(
  (lstm): LSTM(2, 64, batch_first=True)
  (dense): Linear(in_features=64, out_features=1, bias=True)
)",lstm_woattn_ohlcv_MARUTI.NS,539965.5336,0.078376303,0.499842924
56:19.8,"LSTMBaseline(
  (lstm): LSTM(2, 64, batch_first=True)
  (dense): Linear(in_features=64, out_features=1, bias=True)
)",lstm_woattn_ohlcv_TVSMOTOR.NS,3945.128373,0.096371103,0.645456016
46:11.7,"LSTMBaseline(
  (lstm): LSTM(2, 64, batch_first=True)
  (dense): Linear(in_features=64, out_features=1, bias=True)
)",lstm_woattn_ohlcv_TATAMOTORS.NS,2352.969728,0.16137961,0.854654024
23:07.6,"LSTMBaseline(
  (lstm): LSTM(2, 64, batch_first=True)
  (dense): Linear(in_features=64, out_features=1, bias=True)
)",lstm_woattn_ohlcv_MRF.NS,181286235.5,0.100215569,-1.307696811
18:37.5,"LSTMBaseline(
  (lstm): LSTM(2, 64, batch_first=True)
  (dense): Linear(in_features=64, out_features=1, bias=True)
)",lstm_woattn_ohlcv_M&M.NS,5662.695901,0.086783734,0.69915021
07:03.5,"LSTMBaseline(
  (lstm): LSTM(2, 64, batch_first=True)
  (dense): Linear(in_features=64, out_features=1, bias=True)
)",lstm_woattn_ohlcv_MARUTI.NS,539965.5336,0.078376303,0.499842924
56:19.8,"LSTMBaseline(
  (lstm): LSTM(2, 64, batch_first=True)
  (dense): Linear(in_features=64, out_features=1, bias=True)
)",lstm_woattn_ohlcv_TVSMOTOR.NS,3945.128373,0.096371103,0.645456016
46:11.7,"LSTMBaseline(
  (lstm): LSTM(2, 64, batch_first=True)
  (dense): Linear(in_features=64, out_features=1, bias=True)
)",lstm_woattn_ohlcv_TATAMOTORS.NS,2352.969728,0.16137961,0.854654024
26:59.7,"LSTMBaseline(
  (lstm): LSTM(2, 64, batch_first=True)
  (dense): Linear(in_features=64, out_features=1, bias=True)
)",lstm_woattn_ohlcv_TIINDIA.NS,14356.54156,0.115635296,0.933516053
23:07.6,"LSTMBaseline(
  (lstm): LSTM(2, 64, batch_first=True)
  (dense): Linear(in_features=64, out_features=1, bias=True)
)",lstm_woattn_ohlcv_MRF.NS,181286235.5,0.100215569,-1.307696811
18:37.5,"LSTMBaseline(
  (lstm): LSTM(2, 64, batch_first=True)
  (dense): Linear(in_features=64, out_features=1, bias=True)
)",lstm_woattn_ohlcv_M&M.NS,5662.695901,0.086783734,0.69915021
07:03.5,"LSTMBaseline(
  (lstm): LSTM(2, 64, batch_first=True)
  (dense): Linear(in_features=64, out_features=1, bias=True)
)",lstm_woattn_ohlcv_MARUTI.NS,539965.5336,0.078376303,0.499842924
56:19.8,"LSTMBaseline(
  (lstm): LSTM(2, 64, batch_first=True)
  (dense): Linear(in_features=64, out_features=1, bias=True)
)",lstm_woattn_ohlcv_TVSMOTOR.NS,3945.128373,0.096371103,0.645456016
46:11.7,"LSTMBaseline(
  (lstm): LSTM(2, 64, batch_first=True)
  (dense): Linear(in_features=64, out_features=1, bias=True)
)",lstm_woattn_ohlcv_TATAMOTORS.NS,2352.969728,0.16137961,0.854654024
26:59.7,"LSTMBaseline(
  (lstm): LSTM(2, 64, batch_first=True)
  (dense): Linear(in_features=64, out_features=1, bias=True)
)",lstm_woattn_ohlcv_TIINDIA.NS,14356.54156,0.115635296,0.933516053
10:46.7,"LSTMBaseline(
  (lstm): LSTM(2, 64, batch_first=True)
  (dense): Linear(in_features=64, out_features=1, bias=True)
)",lstm_woattn_ohlcv_AUBANK.NS,20414.87229,0.128957271,0.65090955
23:07.6,"LSTMBaseline(
  (lstm): LSTM(2, 64, batch_first=True)
  (dense): Linear(in_features=64, out_features=1, bias=True)
)",lstm_woattn_ohlcv_MRF.NS,181286235.5,0.100215569,-1.307696811
18:37.5,"LSTMBaseline(
  (lstm): LSTM(2, 64, batch_first=True)
  (dense): Linear(in_features=64, out_features=1, bias=True)
)",lstm_woattn_ohlcv_M&M.NS,5662.695901,0.086783734,0.69915021
07:03.5,"LSTMBaseline(
  (lstm): LSTM(2, 64, batch_first=True)
  (dense): Linear(in_features=64, out_features=1, bias=True)
)",lstm_woattn_ohlcv_MARUTI.NS,539965.5336,0.078376303,0.499842924
56:19.8,"LSTMBaseline(
  (lstm): LSTM(2, 64, batch_first=True)
  (dense): Linear(in_features=64, out_features=1, bias=True)
)",lstm_woattn_ohlcv_TVSMOTOR.NS,3945.128373,0.096371103,0.645456016
46:11.7,"LSTMBaseline(
  (lstm): LSTM(2, 64, batch_first=True)
  (dense): Linear(in_features=64, out_features=1, bias=True)
)",lstm_woattn_ohlcv_TATAMOTORS.NS,2352.969728,0.16137961,0.854654024
26:59.7,"LSTMBaseline(
  (lstm): LSTM(2, 64, batch_first=True)
  (dense): Linear(in_features=64, out_features=1, bias=True)
)",lstm_woattn_ohlcv_TIINDIA.NS,14356.54156,0.115635296,0.933516053
10:46.7,"LSTMBaseline(
  (lstm): LSTM(2, 64, batch_first=True)
  (dense): Linear(in_features=64, out_features=1, bias=True)
)",lstm_woattn_ohlcv_AUBANK.NS,20414.87229,0.128957271,0.65090955
59:38.7,"LSTMBaseline(
  (lstm): LSTM(2, 64, batch_first=True)
  (dense): Linear(in_features=64, out_features=1, bias=True)
)",lstm_woattn_ohlcv_AXISBANK.NS,5817.654787,0.089711877,0.595579134
23:07.6,"LSTMBaseline(
  (lstm): LSTM(2, 64, batch_first=True)
  (dense): Linear(in_features=64, out_features=1, bias=True)
)",lstm_woattn_ohlcv_MRF.NS,181286235.5,0.100215569,-1.307696811
18:37.5,"LSTMBaseline(
  (lstm): LSTM(2, 64, batch_first=True)
  (dense): Linear(in_features=64, out_features=1, bias=True)
)",lstm_woattn_ohlcv_M&M.NS,5662.695901,0.086783734,0.69915021
07:03.5,"LSTMBaseline(
  (lstm): LSTM(2, 64, batch_first=True)
  (dense): Linear(in_features=64, out_features=1, bias=True)
)",lstm_woattn_ohlcv_MARUTI.NS,539965.5336,0.078376303,0.499842924
56:19.8,"LSTMBaseline(
  (lstm): LSTM(2, 64, batch_first=True)
  (dense): Linear(in_features=64, out_features=1, bias=True)
)",lstm_woattn_ohlcv_TVSMOTOR.NS,3945.128373,0.096371103,0.645456016
46:11.7,"LSTMBaseline(
  (lstm): LSTM(2, 64, batch_first=True)
  (dense): Linear(in_features=64, out_features=1, bias=True)
)",lstm_woattn_ohlcv_TATAMOTORS.NS,2352.969728,0.16137961,0.854654024
26:59.7,"LSTMBaseline(
  (lstm): LSTM(2, 64, batch_first=True)
  (dense): Linear(in_features=64, out_features=1, bias=True)
)",lstm_woattn_ohlcv_TIINDIA.NS,14356.54156,0.115635296,0.933516053
10:46.7,"LSTMBaseline(
  (lstm): LSTM(2, 64, batch_first=True)
  (dense): Linear(in_features=64, out_features=1, bias=True)
)",lstm_woattn_ohlcv_AUBANK.NS,20414.87229,0.128957271,0.65090955
59:38.7,"LSTMBaseline(
  (lstm): LSTM(2, 64, batch_first=True)
  (dense): Linear(in_features=64, out_features=1, bias=True)
)",lstm_woattn_ohlcv_AXISBANK.NS,5817.654787,0.089711877,0.595579134
34:50.5,"LSTMBaseline(
  (lstm): LSTM(2, 64, batch_first=True)
  (dense): Linear(in_features=64, out_features=1, bias=True)
)",lstm_woattn_ohlcv_BANDHANBNK.NS,5916.223139,0.145554727,0.60922855
,,,,,
,,,,,
,,,avg,0.117027522,
,,,min,0.078376303,
,,,max,0.678905767,
,,,std,0.088338027,
