27:27.8,"LSTMBaseline(
  (lstm): LSTM(5, 64, batch_first=True)
  (dense): Linear(in_features=64, out_features=1, bias=True)
)",,8244638.738,0.273637633,0.694305121,,0.084561175
27:27.8,"LSTMBaseline(
  (lstm): LSTM(5, 64, batch_first=True)
  (dense): Linear(in_features=64, out_features=1, bias=True)
)",,8244638.738,0.273637633,0.694305121,,0.104310929
30:24.6,"LSTMBaseline(
  (lstm): LSTM(5, 64, batch_first=True)
  (dense): Linear(in_features=64, out_features=1, bias=True)
)",,7277.576782,0.0746063,0.787262888,,0.113642451
27:27.8,"LSTMBaseline(
  (lstm): LSTM(5, 64, batch_first=True)
  (dense): Linear(in_features=64, out_features=1, bias=True)
)",,8244638.738,0.273637633,0.694305121,,0.104164014
30:24.6,"LSTMBaseline(
  (lstm): LSTM(5, 64, batch_first=True)
  (dense): Linear(in_features=64, out_features=1, bias=True)
)",,7277.576782,0.0746063,0.787262888,,0.093161504
33:25.7,"LSTMBaseline(
  (lstm): LSTM(5, 64, batch_first=True)
  (dense): Linear(in_features=64, out_features=1, bias=True)
)",,197728.5487,0.124633041,0.489139205,,0.44296879
27:27.8,"LSTMBaseline(
  (lstm): LSTM(5, 64, batch_first=True)
  (dense): Linear(in_features=64, out_features=1, bias=True)
)",,8244638.738,0.273637633,0.694305121,,0.151921346
30:24.6,"LSTMBaseline(
  (lstm): LSTM(5, 64, batch_first=True)
  (dense): Linear(in_features=64, out_features=1, bias=True)
)",,7277.576782,0.0746063,0.787262888,,0.059685336
33:25.7,"LSTMBaseline(
  (lstm): LSTM(5, 64, batch_first=True)
  (dense): Linear(in_features=64, out_features=1, bias=True)
)",,197728.5487,0.124633041,0.489139205,,0.149337148
36:25.0,"LSTMBaseline(
  (lstm): LSTM(5, 64, batch_first=True)
  (dense): Linear(in_features=64, out_features=1, bias=True)
)",,7871.682049,0.095709036,0.594981821,,0.841519498
27:27.8,"LSTMBaseline(
  (lstm): LSTM(5, 64, batch_first=True)
  (dense): Linear(in_features=64, out_features=1, bias=True)
)",,8244638.738,0.273637633,0.694305121,,0.087030818
30:24.6,"LSTMBaseline(
  (lstm): LSTM(5, 64, batch_first=True)
  (dense): Linear(in_features=64, out_features=1, bias=True)
)",,7277.576782,0.0746063,0.787262888,,0.223464521
33:25.7,"LSTMBaseline(
  (lstm): LSTM(5, 64, batch_first=True)
  (dense): Linear(in_features=64, out_features=1, bias=True)
)",,197728.5487,0.124633041,0.489139205,,0.087906922
36:25.0,"LSTMBaseline(
  (lstm): LSTM(5, 64, batch_first=True)
  (dense): Linear(in_features=64, out_features=1, bias=True)
)",,7871.682049,0.095709036,0.594981821,,0.147272634
39:21.6,"LSTMBaseline(
  (lstm): LSTM(5, 64, batch_first=True)
  (dense): Linear(in_features=64, out_features=1, bias=True)
)",,660.3361582,0.066427134,0.88965156,,0.103760696
27:27.8,"LSTMBaseline(
  (lstm): LSTM(5, 64, batch_first=True)
  (dense): Linear(in_features=64, out_features=1, bias=True)
)",,8244638.738,0.273637633,0.694305121,,0.118663568
30:24.6,"LSTMBaseline(
  (lstm): LSTM(5, 64, batch_first=True)
  (dense): Linear(in_features=64, out_features=1, bias=True)
)",,7277.576782,0.0746063,0.787262888,,0.139256476
33:25.7,"LSTMBaseline(
  (lstm): LSTM(5, 64, batch_first=True)
  (dense): Linear(in_features=64, out_features=1, bias=True)
)",,197728.5487,0.124633041,0.489139205,,0.071089374
36:25.0,"LSTMBaseline(
  (lstm): LSTM(5, 64, batch_first=True)
  (dense): Linear(in_features=64, out_features=1, bias=True)
)",,7871.682049,0.095709036,0.594981821,,0.091144802
39:21.6,"LSTMBaseline(
  (lstm): LSTM(5, 64, batch_first=True)
  (dense): Linear(in_features=64, out_features=1, bias=True)
)",,660.3361582,0.066427134,0.88965156,,0.126769842
42:31.1,"LSTMBaseline(
  (lstm): LSTM(5, 64, batch_first=True)
  (dense): Linear(in_features=64, out_features=1, bias=True)
)",,2453.360413,0.082856199,0.772754076,,0.063462292
35:20.6,"LSTMBaseline(
  (lstm): LSTM(5, 64, batch_first=True)
  (dense): Linear(in_features=64, out_features=1, bias=True)
)",lstm_woattn_ohlcv_UCOBANK.NS,5.392445568,0.103714253,0.90140067,,0.093418339
35:20.6,"LSTMBaseline(
  (lstm): LSTM(5, 64, batch_first=True)
  (dense): Linear(in_features=64, out_features=1, bias=True)
)",lstm_woattn_ohlcv_UCOBANK.NS,5.392445568,0.103714253,0.90140067,,0.13628353
36:42.4,"LSTMBaseline(
  (lstm): LSTM(5, 64, batch_first=True)
  (dense): Linear(in_features=64, out_features=1, bias=True)
)",lstm_woattn_ohlcv_UNIONBANK.NS,131.1497401,0.117632241,0.92700926,,0.093502689
35:20.6,"LSTMBaseline(
  (lstm): LSTM(5, 64, batch_first=True)
  (dense): Linear(in_features=64, out_features=1, bias=True)
)",lstm_woattn_ohlcv_UCOBANK.NS,5.392445568,0.103714253,0.90140067,,0.093894288
36:42.4,"LSTMBaseline(
  (lstm): LSTM(5, 64, batch_first=True)
  (dense): Linear(in_features=64, out_features=1, bias=True)
)",lstm_woattn_ohlcv_UNIONBANK.NS,131.1497401,0.117632241,0.92700926,,0.082325714
38:09.7,"LSTMBaseline(
  (lstm): LSTM(5, 64, batch_first=True)
  (dense): Linear(in_features=64, out_features=1, bias=True)
)",lstm_woattn_ohlcv_APLLTD.NS,7519.339514,0.075649727,0.780195714,,0.122774595
35:20.6,"LSTMBaseline(
  (lstm): LSTM(5, 64, batch_first=True)
  (dense): Linear(in_features=64, out_features=1, bias=True)
)",lstm_woattn_ohlcv_UCOBANK.NS,5.392445568,0.103714253,0.90140067,,0.114573132
36:42.4,"LSTMBaseline(
  (lstm): LSTM(5, 64, batch_first=True)
  (dense): Linear(in_features=64, out_features=1, bias=True)
)",lstm_woattn_ohlcv_UNIONBANK.NS,131.1497401,0.117632241,0.92700926,,0.109633965
38:09.7,"LSTMBaseline(
  (lstm): LSTM(5, 64, batch_first=True)
  (dense): Linear(in_features=64, out_features=1, bias=True)
)",lstm_woattn_ohlcv_APLLTD.NS,7519.339514,0.075649727,0.780195714,,0.103714253
39:32.7,"LSTMBaseline(
  (lstm): LSTM(5, 64, batch_first=True)
  (dense): Linear(in_features=64, out_features=1, bias=True)
)",lstm_woattn_ohlcv_ALKEM.NS,133608.0045,0.097003797,0.654804064,,0.117632241
35:20.6,"LSTMBaseline(
  (lstm): LSTM(5, 64, batch_first=True)
  (dense): Linear(in_features=64, out_features=1, bias=True)
)",lstm_woattn_ohlcv_UCOBANK.NS,5.392445568,0.103714253,0.90140067,,0.075649727
36:42.4,"LSTMBaseline(
  (lstm): LSTM(5, 64, batch_first=True)
  (dense): Linear(in_features=64, out_features=1, bias=True)
)",lstm_woattn_ohlcv_UNIONBANK.NS,131.1497401,0.117632241,0.92700926,,0.097003797
38:09.7,"LSTMBaseline(
  (lstm): LSTM(5, 64, batch_first=True)
  (dense): Linear(in_features=64, out_features=1, bias=True)
)",lstm_woattn_ohlcv_APLLTD.NS,7519.339514,0.075649727,0.780195714,,0.110424087
39:32.7,"LSTMBaseline(
  (lstm): LSTM(5, 64, batch_first=True)
  (dense): Linear(in_features=64, out_features=1, bias=True)
)",lstm_woattn_ohlcv_ALKEM.NS,133608.0045,0.097003797,0.654804064,,0.093480845
40:54.9,"LSTMBaseline(
  (lstm): LSTM(5, 64, batch_first=True)
  (dense): Linear(in_features=64, out_features=1, bias=True)
)",lstm_woattn_ohlcv_APOLLOHOSP.NS,104983.6936,0.110424087,0.931842233,,0.066522387
35:20.6,"LSTMBaseline(
  (lstm): LSTM(5, 64, batch_first=True)
  (dense): Linear(in_features=64, out_features=1, bias=True)
)",lstm_woattn_ohlcv_UCOBANK.NS,5.392445568,0.103714253,0.90140067,,0.080032037
36:42.4,"LSTMBaseline(
  (lstm): LSTM(5, 64, batch_first=True)
  (dense): Linear(in_features=64, out_features=1, bias=True)
)",lstm_woattn_ohlcv_UNIONBANK.NS,131.1497401,0.117632241,0.92700926,,0.06434539
38:09.7,"LSTMBaseline(
  (lstm): LSTM(5, 64, batch_first=True)
  (dense): Linear(in_features=64, out_features=1, bias=True)
)",lstm_woattn_ohlcv_APLLTD.NS,7519.339514,0.075649727,0.780195714,,0.079545924
39:32.7,"LSTMBaseline(
  (lstm): LSTM(5, 64, batch_first=True)
  (dense): Linear(in_features=64, out_features=1, bias=True)
)",lstm_woattn_ohlcv_ALKEM.NS,133608.0045,0.097003797,0.654804064,,0.082671558
40:54.9,"LSTMBaseline(
  (lstm): LSTM(5, 64, batch_first=True)
  (dense): Linear(in_features=64, out_features=1, bias=True)
)",lstm_woattn_ohlcv_APOLLOHOSP.NS,104983.6936,0.110424087,0.931842233,,0.10652435
42:16.7,"LSTMBaseline(
  (lstm): LSTM(5, 64, batch_first=True)
  (dense): Linear(in_features=64, out_features=1, bias=True)
)",lstm_woattn_ohlcv_AUROPHARMA.NS,7448.584209,0.093480845,0.616751287,,0.098220337
35:20.6,"LSTMBaseline(
  (lstm): LSTM(5, 64, batch_first=True)
  (dense): Linear(in_features=64, out_features=1, bias=True)
)",lstm_woattn_ohlcv_UCOBANK.NS,5.392445568,0.103714253,0.90140067,,0.093276431
36:42.4,"LSTMBaseline(
  (lstm): LSTM(5, 64, batch_first=True)
  (dense): Linear(in_features=64, out_features=1, bias=True)
)",lstm_woattn_ohlcv_UNIONBANK.NS,131.1497401,0.117632241,0.92700926,,0.07328893
38:09.7,"LSTMBaseline(
  (lstm): LSTM(5, 64, batch_first=True)
  (dense): Linear(in_features=64, out_features=1, bias=True)
)",lstm_woattn_ohlcv_APLLTD.NS,7519.339514,0.075649727,0.780195714,,0.090745948
39:32.7,"LSTMBaseline(
  (lstm): LSTM(5, 64, batch_first=True)
  (dense): Linear(in_features=64, out_features=1, bias=True)
)",lstm_woattn_ohlcv_ALKEM.NS,133608.0045,0.097003797,0.654804064,,0.086541032
40:54.9,"LSTMBaseline(
  (lstm): LSTM(5, 64, batch_first=True)
  (dense): Linear(in_features=64, out_features=1, bias=True)
)",lstm_woattn_ohlcv_APOLLOHOSP.NS,104983.6936,0.110424087,0.931842233,,0.141180609
42:16.7,"LSTMBaseline(
  (lstm): LSTM(5, 64, batch_first=True)
  (dense): Linear(in_features=64, out_features=1, bias=True)
)",lstm_woattn_ohlcv_AUROPHARMA.NS,7448.584209,0.093480845,0.616751287,,0.106153434
43:38.2,"LSTMBaseline(
  (lstm): LSTM(5, 64, batch_first=True)
  (dense): Linear(in_features=64, out_features=1, bias=True)
)",lstm_woattn_ohlcv_BIOCON.NS,660.9732762,0.066522387,0.889545091,,0.123528428
35:20.6,"LSTMBaseline(
  (lstm): LSTM(5, 64, batch_first=True)
  (dense): Linear(in_features=64, out_features=1, bias=True)
)",lstm_woattn_ohlcv_UCOBANK.NS,5.392445568,0.103714253,0.90140067,,0.076400432
36:42.4,"LSTMBaseline(
  (lstm): LSTM(5, 64, batch_first=True)
  (dense): Linear(in_features=64, out_features=1, bias=True)
)",lstm_woattn_ohlcv_UNIONBANK.NS,131.1497401,0.117632241,0.92700926,,0.080340937
38:09.7,"LSTMBaseline(
  (lstm): LSTM(5, 64, batch_first=True)
  (dense): Linear(in_features=64, out_features=1, bias=True)
)",lstm_woattn_ohlcv_APLLTD.NS,7519.339514,0.075649727,0.780195714,,0.121512406
39:32.7,"LSTMBaseline(
  (lstm): LSTM(5, 64, batch_first=True)
  (dense): Linear(in_features=64, out_features=1, bias=True)
)",lstm_woattn_ohlcv_ALKEM.NS,133608.0045,0.097003797,0.654804064,,0.059489116
40:54.9,"LSTMBaseline(
  (lstm): LSTM(5, 64, batch_first=True)
  (dense): Linear(in_features=64, out_features=1, bias=True)
)",lstm_woattn_ohlcv_APOLLOHOSP.NS,104983.6936,0.110424087,0.931842233,,0.068805898
42:16.7,"LSTMBaseline(
  (lstm): LSTM(5, 64, batch_first=True)
  (dense): Linear(in_features=64, out_features=1, bias=True)
)",lstm_woattn_ohlcv_AUROPHARMA.NS,7448.584209,0.093480845,0.616751287,,0.100719215
43:38.2,"LSTMBaseline(
  (lstm): LSTM(5, 64, batch_first=True)
  (dense): Linear(in_features=64, out_features=1, bias=True)
)",lstm_woattn_ohlcv_BIOCON.NS,660.9732762,0.066522387,0.889545091,,0.102883133
44:59.6,"LSTMBaseline(
  (lstm): LSTM(5, 64, batch_first=True)
  (dense): Linear(in_features=64, out_features=1, bias=True)
)",lstm_woattn_ohlcv_CADILAHC.NS,2067.330706,0.080032037,0.808510615,,0.120352739
35:20.6,"LSTMBaseline(
  (lstm): LSTM(5, 64, batch_first=True)
  (dense): Linear(in_features=64, out_features=1, bias=True)
)",lstm_woattn_ohlcv_UCOBANK.NS,5.392445568,0.103714253,0.90140067,,0.085785478
36:42.4,"LSTMBaseline(
  (lstm): LSTM(5, 64, batch_first=True)
  (dense): Linear(in_features=64, out_features=1, bias=True)
)",lstm_woattn_ohlcv_UNIONBANK.NS,131.1497401,0.117632241,0.92700926,,0.068999661
38:09.7,"LSTMBaseline(
  (lstm): LSTM(5, 64, batch_first=True)
  (dense): Linear(in_features=64, out_features=1, bias=True)
)",lstm_woattn_ohlcv_APLLTD.NS,7519.339514,0.075649727,0.780195714,,0.084060392
39:32.7,"LSTMBaseline(
  (lstm): LSTM(5, 64, batch_first=True)
  (dense): Linear(in_features=64, out_features=1, bias=True)
)",lstm_woattn_ohlcv_ALKEM.NS,133608.0045,0.097003797,0.654804064,,0.0710442
40:54.9,"LSTMBaseline(
  (lstm): LSTM(5, 64, batch_first=True)
  (dense): Linear(in_features=64, out_features=1, bias=True)
)",lstm_woattn_ohlcv_APOLLOHOSP.NS,104983.6936,0.110424087,0.931842233,,0.182228927
42:16.7,"LSTMBaseline(
  (lstm): LSTM(5, 64, batch_first=True)
  (dense): Linear(in_features=64, out_features=1, bias=True)
)",lstm_woattn_ohlcv_AUROPHARMA.NS,7448.584209,0.093480845,0.616751287,,0.132609674
43:38.2,"LSTMBaseline(
  (lstm): LSTM(5, 64, batch_first=True)
  (dense): Linear(in_features=64, out_features=1, bias=True)
)",lstm_woattn_ohlcv_BIOCON.NS,660.9732762,0.066522387,0.889545091,,0.099082967
44:59.6,"LSTMBaseline(
  (lstm): LSTM(5, 64, batch_first=True)
  (dense): Linear(in_features=64, out_features=1, bias=True)
)",lstm_woattn_ohlcv_CADILAHC.NS,2067.330706,0.080032037,0.808510615,,0.499382113
46:21.9,"LSTMBaseline(
  (lstm): LSTM(5, 64, batch_first=True)
  (dense): Linear(in_features=64, out_features=1, bias=True)
)",lstm_woattn_ohlcv_CIPLA.NS,4002.138363,0.06434539,0.8499409,,0.112960387
35:20.6,"LSTMBaseline(
  (lstm): LSTM(5, 64, batch_first=True)
  (dense): Linear(in_features=64, out_features=1, bias=True)
)",lstm_woattn_ohlcv_UCOBANK.NS,5.392445568,0.103714253,0.90140067,,0.117804052
36:42.4,"LSTMBaseline(
  (lstm): LSTM(5, 64, batch_first=True)
  (dense): Linear(in_features=64, out_features=1, bias=True)
)",lstm_woattn_ohlcv_UNIONBANK.NS,131.1497401,0.117632241,0.92700926,,0.152446191
38:09.7,"LSTMBaseline(
  (lstm): LSTM(5, 64, batch_first=True)
  (dense): Linear(in_features=64, out_features=1, bias=True)
)",lstm_woattn_ohlcv_APLLTD.NS,7519.339514,0.075649727,0.780195714,,0.089445799
39:32.7,"LSTMBaseline(
  (lstm): LSTM(5, 64, batch_first=True)
  (dense): Linear(in_features=64, out_features=1, bias=True)
)",lstm_woattn_ohlcv_ALKEM.NS,133608.0045,0.097003797,0.654804064,,0.119048566
40:54.9,"LSTMBaseline(
  (lstm): LSTM(5, 64, batch_first=True)
  (dense): Linear(in_features=64, out_features=1, bias=True)
)",lstm_woattn_ohlcv_APOLLOHOSP.NS,104983.6936,0.110424087,0.931842233,,0.108286883
42:16.7,"LSTMBaseline(
  (lstm): LSTM(5, 64, batch_first=True)
  (dense): Linear(in_features=64, out_features=1, bias=True)
)",lstm_woattn_ohlcv_AUROPHARMA.NS,7448.584209,0.093480845,0.616751287,,0.194633113
43:38.2,"LSTMBaseline(
  (lstm): LSTM(5, 64, batch_first=True)
  (dense): Linear(in_features=64, out_features=1, bias=True)
)",lstm_woattn_ohlcv_BIOCON.NS,660.9732762,0.066522387,0.889545091,,0.070199317
44:59.6,"LSTMBaseline(
  (lstm): LSTM(5, 64, batch_first=True)
  (dense): Linear(in_features=64, out_features=1, bias=True)
)",lstm_woattn_ohlcv_CADILAHC.NS,2067.330706,0.080032037,0.808510615,,0.083956979
46:21.9,"LSTMBaseline(
  (lstm): LSTM(5, 64, batch_first=True)
  (dense): Linear(in_features=64, out_features=1, bias=True)
)",lstm_woattn_ohlcv_CIPLA.NS,4002.138363,0.06434539,0.8499409,,0.091222217
47:44.9,"LSTMBaseline(
  (lstm): LSTM(5, 64, batch_first=True)
  (dense): Linear(in_features=64, out_features=1, bias=True)
)",lstm_woattn_ohlcv_DIVISLAB.NS,53137.8235,0.079545924,0.971678027,,0.067508263
35:20.6,"LSTMBaseline(
  (lstm): LSTM(5, 64, batch_first=True)
  (dense): Linear(in_features=64, out_features=1, bias=True)
)",lstm_woattn_ohlcv_UCOBANK.NS,5.392445568,0.103714253,0.90140067,,0.082311415
36:42.4,"LSTMBaseline(
  (lstm): LSTM(5, 64, batch_first=True)
  (dense): Linear(in_features=64, out_features=1, bias=True)
)",lstm_woattn_ohlcv_UNIONBANK.NS,131.1497401,0.117632241,0.92700926,,0.063102243
38:09.7,"LSTMBaseline(
  (lstm): LSTM(5, 64, batch_first=True)
  (dense): Linear(in_features=64, out_features=1, bias=True)
)",lstm_woattn_ohlcv_APLLTD.NS,7519.339514,0.075649727,0.780195714,,0.079068599
39:32.7,"LSTMBaseline(
  (lstm): LSTM(5, 64, batch_first=True)
  (dense): Linear(in_features=64, out_features=1, bias=True)
)",lstm_woattn_ohlcv_ALKEM.NS,133608.0045,0.097003797,0.654804064,,0.124358761
40:54.9,"LSTMBaseline(
  (lstm): LSTM(5, 64, batch_first=True)
  (dense): Linear(in_features=64, out_features=1, bias=True)
)",lstm_woattn_ohlcv_APOLLOHOSP.NS,104983.6936,0.110424087,0.931842233,,0.514741789
42:16.7,"LSTMBaseline(
  (lstm): LSTM(5, 64, batch_first=True)
  (dense): Linear(in_features=64, out_features=1, bias=True)
)",lstm_woattn_ohlcv_AUROPHARMA.NS,7448.584209,0.093480845,0.616751287,,0.107202778
43:38.2,"LSTMBaseline(
  (lstm): LSTM(5, 64, batch_first=True)
  (dense): Linear(in_features=64, out_features=1, bias=True)
)",lstm_woattn_ohlcv_BIOCON.NS,660.9732762,0.066522387,0.889545091,,0.093905811
44:59.6,"LSTMBaseline(
  (lstm): LSTM(5, 64, batch_first=True)
  (dense): Linear(in_features=64, out_features=1, bias=True)
)",lstm_woattn_ohlcv_CADILAHC.NS,2067.330706,0.080032037,0.808510615,,0.073182175
46:21.9,"LSTMBaseline(
  (lstm): LSTM(5, 64, batch_first=True)
  (dense): Linear(in_features=64, out_features=1, bias=True)
)",lstm_woattn_ohlcv_CIPLA.NS,4002.138363,0.06434539,0.8499409,,0.090498967
47:44.9,"LSTMBaseline(
  (lstm): LSTM(5, 64, batch_first=True)
  (dense): Linear(in_features=64, out_features=1, bias=True)
)",lstm_woattn_ohlcv_DIVISLAB.NS,53137.8235,0.079545924,0.971678027,,0.084848947
49:06.6,"LSTMBaseline(
  (lstm): LSTM(5, 64, batch_first=True)
  (dense): Linear(in_features=64, out_features=1, bias=True)
)",lstm_woattn_ohlcv_LALPATHLAB.NS,51679.31694,0.082671558,0.943083634,,0.098408659
35:20.6,"LSTMBaseline(
  (lstm): LSTM(5, 64, batch_first=True)
  (dense): Linear(in_features=64, out_features=1, bias=True)
)",lstm_woattn_ohlcv_UCOBANK.NS,5.392445568,0.103714253,0.90140067,,0.100924399
36:42.4,"LSTMBaseline(
  (lstm): LSTM(5, 64, batch_first=True)
  (dense): Linear(in_features=64, out_features=1, bias=True)
)",lstm_woattn_ohlcv_UNIONBANK.NS,131.1497401,0.117632241,0.92700926,,0.130447436
38:09.7,"LSTMBaseline(
  (lstm): LSTM(5, 64, batch_first=True)
  (dense): Linear(in_features=64, out_features=1, bias=True)
)",lstm_woattn_ohlcv_APLLTD.NS,7519.339514,0.075649727,0.780195714,,0.078800623
39:32.7,"LSTMBaseline(
  (lstm): LSTM(5, 64, batch_first=True)
  (dense): Linear(in_features=64, out_features=1, bias=True)
)",lstm_woattn_ohlcv_ALKEM.NS,133608.0045,0.097003797,0.654804064,,0.080395748
40:54.9,"LSTMBaseline(
  (lstm): LSTM(5, 64, batch_first=True)
  (dense): Linear(in_features=64, out_features=1, bias=True)
)",lstm_woattn_ohlcv_APOLLOHOSP.NS,104983.6936,0.110424087,0.931842233,,0.129920702
42:16.7,"LSTMBaseline(
  (lstm): LSTM(5, 64, batch_first=True)
  (dense): Linear(in_features=64, out_features=1, bias=True)
)",lstm_woattn_ohlcv_AUROPHARMA.NS,7448.584209,0.093480845,0.616751287,,0.082087735
43:38.2,"LSTMBaseline(
  (lstm): LSTM(5, 64, batch_first=True)
  (dense): Linear(in_features=64, out_features=1, bias=True)
)",lstm_woattn_ohlcv_BIOCON.NS,660.9732762,0.066522387,0.889545091,,0.145353047
44:59.6,"LSTMBaseline(
  (lstm): LSTM(5, 64, batch_first=True)
  (dense): Linear(in_features=64, out_features=1, bias=True)
)",lstm_woattn_ohlcv_CADILAHC.NS,2067.330706,0.080032037,0.808510615,,0.09580248
46:21.9,"LSTMBaseline(
  (lstm): LSTM(5, 64, batch_first=True)
  (dense): Linear(in_features=64, out_features=1, bias=True)
)",lstm_woattn_ohlcv_CIPLA.NS,4002.138363,0.06434539,0.8499409,,0.070109308
47:44.9,"LSTMBaseline(
  (lstm): LSTM(5, 64, batch_first=True)
  (dense): Linear(in_features=64, out_features=1, bias=True)
)",lstm_woattn_ohlcv_DIVISLAB.NS,53137.8235,0.079545924,0.971678027,,0.077702278
49:06.6,"LSTMBaseline(
  (lstm): LSTM(5, 64, batch_first=True)
  (dense): Linear(in_features=64, out_features=1, bias=True)
)",lstm_woattn_ohlcv_LALPATHLAB.NS,51679.31694,0.082671558,0.943083634,,0.100268952
50:28.7,"LSTMBaseline(
  (lstm): LSTM(5, 64, batch_first=True)
  (dense): Linear(in_features=64, out_features=1, bias=True)
)",lstm_woattn_ohlcv_DRREDDY.NS,304369.0828,0.10652435,0.752753588,,0.161603031
35:20.6,"LSTMBaseline(
  (lstm): LSTM(5, 64, batch_first=True)
  (dense): Linear(in_features=64, out_features=1, bias=True)
)",lstm_woattn_ohlcv_UCOBANK.NS,5.392445568,0.103714253,0.90140067,,0.081233961
36:42.4,"LSTMBaseline(
  (lstm): LSTM(5, 64, batch_first=True)
  (dense): Linear(in_features=64, out_features=1, bias=True)
)",lstm_woattn_ohlcv_UNIONBANK.NS,131.1497401,0.117632241,0.92700926,,0.115458514
38:09.7,"LSTMBaseline(
  (lstm): LSTM(5, 64, batch_first=True)
  (dense): Linear(in_features=64, out_features=1, bias=True)
)",lstm_woattn_ohlcv_APLLTD.NS,7519.339514,0.075649727,0.780195714,,0.136257206
39:32.7,"LSTMBaseline(
  (lstm): LSTM(5, 64, batch_first=True)
  (dense): Linear(in_features=64, out_features=1, bias=True)
)",lstm_woattn_ohlcv_ALKEM.NS,133608.0045,0.097003797,0.654804064,,0.095234617
40:54.9,"LSTMBaseline(
  (lstm): LSTM(5, 64, batch_first=True)
  (dense): Linear(in_features=64, out_features=1, bias=True)
)",lstm_woattn_ohlcv_APOLLOHOSP.NS,104983.6936,0.110424087,0.931842233,,0.179318612
42:16.7,"LSTMBaseline(
  (lstm): LSTM(5, 64, batch_first=True)
  (dense): Linear(in_features=64, out_features=1, bias=True)
)",lstm_woattn_ohlcv_AUROPHARMA.NS,7448.584209,0.093480845,0.616751287,,0.08471028
43:38.2,"LSTMBaseline(
  (lstm): LSTM(5, 64, batch_first=True)
  (dense): Linear(in_features=64, out_features=1, bias=True)
)",lstm_woattn_ohlcv_BIOCON.NS,660.9732762,0.066522387,0.889545091,,0.063450428
44:59.6,"LSTMBaseline(
  (lstm): LSTM(5, 64, batch_first=True)
  (dense): Linear(in_features=64, out_features=1, bias=True)
)",lstm_woattn_ohlcv_CADILAHC.NS,2067.330706,0.080032037,0.808510615,,0.073915557
46:21.9,"LSTMBaseline(
  (lstm): LSTM(5, 64, batch_first=True)
  (dense): Linear(in_features=64, out_features=1, bias=True)
)",lstm_woattn_ohlcv_CIPLA.NS,4002.138363,0.06434539,0.8499409,,0.078764847
47:44.9,"LSTMBaseline(
  (lstm): LSTM(5, 64, batch_first=True)
  (dense): Linear(in_features=64, out_features=1, bias=True)
)",lstm_woattn_ohlcv_DIVISLAB.NS,53137.8235,0.079545924,0.971678027,,0.062965213
49:06.6,"LSTMBaseline(
  (lstm): LSTM(5, 64, batch_first=True)
  (dense): Linear(in_features=64, out_features=1, bias=True)
)",lstm_woattn_ohlcv_LALPATHLAB.NS,51679.31694,0.082671558,0.943083634,,0.087378273
50:28.7,"LSTMBaseline(
  (lstm): LSTM(5, 64, batch_first=True)
  (dense): Linear(in_features=64, out_features=1, bias=True)
)",lstm_woattn_ohlcv_DRREDDY.NS,304369.0828,0.10652435,0.752753588,,0.075364561
51:50.6,"LSTMBaseline(
  (lstm): LSTM(5, 64, batch_first=True)
  (dense): Linear(in_features=64, out_features=1, bias=True)
)",lstm_woattn_ohlcv_GLENMARK.NS,9115.592566,0.098220337,0.369095383,,0.071780802
35:20.6,"LSTMBaseline(
  (lstm): LSTM(5, 64, batch_first=True)
  (dense): Linear(in_features=64, out_features=1, bias=True)
)",lstm_woattn_ohlcv_UCOBANK.NS,5.392445568,0.103714253,0.90140067,,0.081563438
36:42.4,"LSTMBaseline(
  (lstm): LSTM(5, 64, batch_first=True)
  (dense): Linear(in_features=64, out_features=1, bias=True)
)",lstm_woattn_ohlcv_UNIONBANK.NS,131.1497401,0.117632241,0.92700926,,0.095593089
38:09.7,"LSTMBaseline(
  (lstm): LSTM(5, 64, batch_first=True)
  (dense): Linear(in_features=64, out_features=1, bias=True)
)",lstm_woattn_ohlcv_APLLTD.NS,7519.339514,0.075649727,0.780195714,,0.085613708
39:32.7,"LSTMBaseline(
  (lstm): LSTM(5, 64, batch_first=True)
  (dense): Linear(in_features=64, out_features=1, bias=True)
)",lstm_woattn_ohlcv_ALKEM.NS,133608.0045,0.097003797,0.654804064,,0.085219103
40:54.9,"LSTMBaseline(
  (lstm): LSTM(5, 64, batch_first=True)
  (dense): Linear(in_features=64, out_features=1, bias=True)
)",lstm_woattn_ohlcv_APOLLOHOSP.NS,104983.6936,0.110424087,0.931842233,,0.050513187
42:16.7,"LSTMBaseline(
  (lstm): LSTM(5, 64, batch_first=True)
  (dense): Linear(in_features=64, out_features=1, bias=True)
)",lstm_woattn_ohlcv_AUROPHARMA.NS,7448.584209,0.093480845,0.616751287,,0.077588007
43:38.2,"LSTMBaseline(
  (lstm): LSTM(5, 64, batch_first=True)
  (dense): Linear(in_features=64, out_features=1, bias=True)
)",lstm_woattn_ohlcv_BIOCON.NS,660.9732762,0.066522387,0.889545091,,0.084023339
44:59.6,"LSTMBaseline(
  (lstm): LSTM(5, 64, batch_first=True)
  (dense): Linear(in_features=64, out_features=1, bias=True)
)",lstm_woattn_ohlcv_CADILAHC.NS,2067.330706,0.080032037,0.808510615,,0.143957558
46:21.9,"LSTMBaseline(
  (lstm): LSTM(5, 64, batch_first=True)
  (dense): Linear(in_features=64, out_features=1, bias=True)
)",lstm_woattn_ohlcv_CIPLA.NS,4002.138363,0.06434539,0.8499409,,0.070711166
47:44.9,"LSTMBaseline(
  (lstm): LSTM(5, 64, batch_first=True)
  (dense): Linear(in_features=64, out_features=1, bias=True)
)",lstm_woattn_ohlcv_DIVISLAB.NS,53137.8235,0.079545924,0.971678027,,0.095965964
49:06.6,"LSTMBaseline(
  (lstm): LSTM(5, 64, batch_first=True)
  (dense): Linear(in_features=64, out_features=1, bias=True)
)",lstm_woattn_ohlcv_LALPATHLAB.NS,51679.31694,0.082671558,0.943083634,,0.067174971
50:28.7,"LSTMBaseline(
  (lstm): LSTM(5, 64, batch_first=True)
  (dense): Linear(in_features=64, out_features=1, bias=True)
)",lstm_woattn_ohlcv_DRREDDY.NS,304369.0828,0.10652435,0.752753588,,0.074800597
51:50.6,"LSTMBaseline(
  (lstm): LSTM(5, 64, batch_first=True)
  (dense): Linear(in_features=64, out_features=1, bias=True)
)",lstm_woattn_ohlcv_GLENMARK.NS,9115.592566,0.098220337,0.369095383,,0.097604858
53:12.8,"LSTMBaseline(
  (lstm): LSTM(5, 64, batch_first=True)
  (dense): Linear(in_features=64, out_features=1, bias=True)
)",lstm_woattn_ohlcv_GRANULES.NS,626.2785381,0.093276431,0.945026804,,0.161626041
35:20.6,"LSTMBaseline(
  (lstm): LSTM(5, 64, batch_first=True)
  (dense): Linear(in_features=64, out_features=1, bias=True)
)",lstm_woattn_ohlcv_UCOBANK.NS,5.392445568,0.103714253,0.90140067,,0.077617065
36:42.4,"LSTMBaseline(
  (lstm): LSTM(5, 64, batch_first=True)
  (dense): Linear(in_features=64, out_features=1, bias=True)
)",lstm_woattn_ohlcv_UNIONBANK.NS,131.1497401,0.117632241,0.92700926,,0.137088793
38:09.7,"LSTMBaseline(
  (lstm): LSTM(5, 64, batch_first=True)
  (dense): Linear(in_features=64, out_features=1, bias=True)
)",lstm_woattn_ohlcv_APLLTD.NS,7519.339514,0.075649727,0.780195714,,0.090300042
39:32.7,"LSTMBaseline(
  (lstm): LSTM(5, 64, batch_first=True)
  (dense): Linear(in_features=64, out_features=1, bias=True)
)",lstm_woattn_ohlcv_ALKEM.NS,133608.0045,0.097003797,0.654804064,,0.149768278
40:54.9,"LSTMBaseline(
  (lstm): LSTM(5, 64, batch_first=True)
  (dense): Linear(in_features=64, out_features=1, bias=True)
)",lstm_woattn_ohlcv_APOLLOHOSP.NS,104983.6936,0.110424087,0.931842233,,0.281270373
42:16.7,"LSTMBaseline(
  (lstm): LSTM(5, 64, batch_first=True)
  (dense): Linear(in_features=64, out_features=1, bias=True)
)",lstm_woattn_ohlcv_AUROPHARMA.NS,7448.584209,0.093480845,0.616751287,,0.10500849
43:38.2,"LSTMBaseline(
  (lstm): LSTM(5, 64, batch_first=True)
  (dense): Linear(in_features=64, out_features=1, bias=True)
)",lstm_woattn_ohlcv_BIOCON.NS,660.9732762,0.066522387,0.889545091,,0.150223623
44:59.6,"LSTMBaseline(
  (lstm): LSTM(5, 64, batch_first=True)
  (dense): Linear(in_features=64, out_features=1, bias=True)
)",lstm_woattn_ohlcv_CADILAHC.NS,2067.330706,0.080032037,0.808510615,,0.068813941
46:21.9,"LSTMBaseline(
  (lstm): LSTM(5, 64, batch_first=True)
  (dense): Linear(in_features=64, out_features=1, bias=True)
)",lstm_woattn_ohlcv_CIPLA.NS,4002.138363,0.06434539,0.8499409,,0.069860502
47:44.9,"LSTMBaseline(
  (lstm): LSTM(5, 64, batch_first=True)
  (dense): Linear(in_features=64, out_features=1, bias=True)
)",lstm_woattn_ohlcv_DIVISLAB.NS,53137.8235,0.079545924,0.971678027,,0.089714139
49:06.6,"LSTMBaseline(
  (lstm): LSTM(5, 64, batch_first=True)
  (dense): Linear(in_features=64, out_features=1, bias=True)
)",lstm_woattn_ohlcv_LALPATHLAB.NS,51679.31694,0.082671558,0.943083634,,0.076645528
50:28.7,"LSTMBaseline(
  (lstm): LSTM(5, 64, batch_first=True)
  (dense): Linear(in_features=64, out_features=1, bias=True)
)",lstm_woattn_ohlcv_DRREDDY.NS,304369.0828,0.10652435,0.752753588,,0.070153194
51:50.6,"LSTMBaseline(
  (lstm): LSTM(5, 64, batch_first=True)
  (dense): Linear(in_features=64, out_features=1, bias=True)
)",lstm_woattn_ohlcv_GLENMARK.NS,9115.592566,0.098220337,0.369095383,,0.08592154
53:12.8,"LSTMBaseline(
  (lstm): LSTM(5, 64, batch_first=True)
  (dense): Linear(in_features=64, out_features=1, bias=True)
)",lstm_woattn_ohlcv_GRANULES.NS,626.2785381,0.093276431,0.945026804,,0.078630334
54:34.9,"LSTMBaseline(
  (lstm): LSTM(5, 64, batch_first=True)
  (dense): Linear(in_features=64, out_features=1, bias=True)
)",lstm_woattn_ohlcv_IPCALAB.NS,3809.618488,0.07328893,0.96489555,,0.137368213
35:20.6,"LSTMBaseline(
  (lstm): LSTM(5, 64, batch_first=True)
  (dense): Linear(in_features=64, out_features=1, bias=True)
)",lstm_woattn_ohlcv_UCOBANK.NS,5.392445568,0.103714253,0.90140067,,0.075308442
36:42.4,"LSTMBaseline(
  (lstm): LSTM(5, 64, batch_first=True)
  (dense): Linear(in_features=64, out_features=1, bias=True)
)",lstm_woattn_ohlcv_UNIONBANK.NS,131.1497401,0.117632241,0.92700926,,0.159349225
38:09.7,"LSTMBaseline(
  (lstm): LSTM(5, 64, batch_first=True)
  (dense): Linear(in_features=64, out_features=1, bias=True)
)",lstm_woattn_ohlcv_APLLTD.NS,7519.339514,0.075649727,0.780195714,,0.087267171
39:32.7,"LSTMBaseline(
  (lstm): LSTM(5, 64, batch_first=True)
  (dense): Linear(in_features=64, out_features=1, bias=True)
)",lstm_woattn_ohlcv_ALKEM.NS,133608.0045,0.097003797,0.654804064,,0.084703172
40:54.9,"LSTMBaseline(
  (lstm): LSTM(5, 64, batch_first=True)
  (dense): Linear(in_features=64, out_features=1, bias=True)
)",lstm_woattn_ohlcv_APOLLOHOSP.NS,104983.6936,0.110424087,0.931842233,,0.076360182
42:16.7,"LSTMBaseline(
  (lstm): LSTM(5, 64, batch_first=True)
  (dense): Linear(in_features=64, out_features=1, bias=True)
)",lstm_woattn_ohlcv_AUROPHARMA.NS,7448.584209,0.093480845,0.616751287,,0.110552312
43:38.2,"LSTMBaseline(
  (lstm): LSTM(5, 64, batch_first=True)
  (dense): Linear(in_features=64, out_features=1, bias=True)
)",lstm_woattn_ohlcv_BIOCON.NS,660.9732762,0.066522387,0.889545091,,0.09450178
44:59.6,"LSTMBaseline(
  (lstm): LSTM(5, 64, batch_first=True)
  (dense): Linear(in_features=64, out_features=1, bias=True)
)",lstm_woattn_ohlcv_CADILAHC.NS,2067.330706,0.080032037,0.808510615,,0.104235522
46:21.9,"LSTMBaseline(
  (lstm): LSTM(5, 64, batch_first=True)
  (dense): Linear(in_features=64, out_features=1, bias=True)
)",lstm_woattn_ohlcv_CIPLA.NS,4002.138363,0.06434539,0.8499409,,0.107034834
47:44.9,"LSTMBaseline(
  (lstm): LSTM(5, 64, batch_first=True)
  (dense): Linear(in_features=64, out_features=1, bias=True)
)",lstm_woattn_ohlcv_DIVISLAB.NS,53137.8235,0.079545924,0.971678027,,0.108819465
49:06.6,"LSTMBaseline(
  (lstm): LSTM(5, 64, batch_first=True)
  (dense): Linear(in_features=64, out_features=1, bias=True)
)",lstm_woattn_ohlcv_LALPATHLAB.NS,51679.31694,0.082671558,0.943083634,,0.179576697
50:28.7,"LSTMBaseline(
  (lstm): LSTM(5, 64, batch_first=True)
  (dense): Linear(in_features=64, out_features=1, bias=True)
)",lstm_woattn_ohlcv_DRREDDY.NS,304369.0828,0.10652435,0.752753588,,0.21344741
51:50.6,"LSTMBaseline(
  (lstm): LSTM(5, 64, batch_first=True)
  (dense): Linear(in_features=64, out_features=1, bias=True)
)",lstm_woattn_ohlcv_GLENMARK.NS,9115.592566,0.098220337,0.369095383,,0.07682802
53:12.8,"LSTMBaseline(
  (lstm): LSTM(5, 64, batch_first=True)
  (dense): Linear(in_features=64, out_features=1, bias=True)
)",lstm_woattn_ohlcv_GRANULES.NS,626.2785381,0.093276431,0.945026804,,0.077530632
54:34.9,"LSTMBaseline(
  (lstm): LSTM(5, 64, batch_first=True)
  (dense): Linear(in_features=64, out_features=1, bias=True)
)",lstm_woattn_ohlcv_IPCALAB.NS,3809.618488,0.07328893,0.96489555,,0.104603558
55:57.1,"LSTMBaseline(
  (lstm): LSTM(5, 64, batch_first=True)
  (dense): Linear(in_features=64, out_features=1, bias=True)
)",lstm_woattn_ohlcv_LAURUSLABS.NS,1734.645422,0.090745948,0.952820654,,0.111436845
35:20.6,"LSTMBaseline(
  (lstm): LSTM(5, 64, batch_first=True)
  (dense): Linear(in_features=64, out_features=1, bias=True)
)",lstm_woattn_ohlcv_UCOBANK.NS,5.392445568,0.103714253,0.90140067,,0.122966668
36:42.4,"LSTMBaseline(
  (lstm): LSTM(5, 64, batch_first=True)
  (dense): Linear(in_features=64, out_features=1, bias=True)
)",lstm_woattn_ohlcv_UNIONBANK.NS,131.1497401,0.117632241,0.92700926,,0.084561175
38:09.7,"LSTMBaseline(
  (lstm): LSTM(5, 64, batch_first=True)
  (dense): Linear(in_features=64, out_features=1, bias=True)
)",lstm_woattn_ohlcv_APLLTD.NS,7519.339514,0.075649727,0.780195714,,0.104310929
39:32.7,"LSTMBaseline(
  (lstm): LSTM(5, 64, batch_first=True)
  (dense): Linear(in_features=64, out_features=1, bias=True)
)",lstm_woattn_ohlcv_ALKEM.NS,133608.0045,0.097003797,0.654804064,,0.113642451
40:54.9,"LSTMBaseline(
  (lstm): LSTM(5, 64, batch_first=True)
  (dense): Linear(in_features=64, out_features=1, bias=True)
)",lstm_woattn_ohlcv_APOLLOHOSP.NS,104983.6936,0.110424087,0.931842233,,0.104164014
42:16.7,"LSTMBaseline(
  (lstm): LSTM(5, 64, batch_first=True)
  (dense): Linear(in_features=64, out_features=1, bias=True)
)",lstm_woattn_ohlcv_AUROPHARMA.NS,7448.584209,0.093480845,0.616751287,,0.093161504
43:38.2,"LSTMBaseline(
  (lstm): LSTM(5, 64, batch_first=True)
  (dense): Linear(in_features=64, out_features=1, bias=True)
)",lstm_woattn_ohlcv_BIOCON.NS,660.9732762,0.066522387,0.889545091,,0.44296879
44:59.6,"LSTMBaseline(
  (lstm): LSTM(5, 64, batch_first=True)
  (dense): Linear(in_features=64, out_features=1, bias=True)
)",lstm_woattn_ohlcv_CADILAHC.NS,2067.330706,0.080032037,0.808510615,,0.151921346
46:21.9,"LSTMBaseline(
  (lstm): LSTM(5, 64, batch_first=True)
  (dense): Linear(in_features=64, out_features=1, bias=True)
)",lstm_woattn_ohlcv_CIPLA.NS,4002.138363,0.06434539,0.8499409,,0.059685336
47:44.9,"LSTMBaseline(
  (lstm): LSTM(5, 64, batch_first=True)
  (dense): Linear(in_features=64, out_features=1, bias=True)
)",lstm_woattn_ohlcv_DIVISLAB.NS,53137.8235,0.079545924,0.971678027,,0.149337148
49:06.6,"LSTMBaseline(
  (lstm): LSTM(5, 64, batch_first=True)
  (dense): Linear(in_features=64, out_features=1, bias=True)
)",lstm_woattn_ohlcv_LALPATHLAB.NS,51679.31694,0.082671558,0.943083634,,0.841519498
50:28.7,"LSTMBaseline(
  (lstm): LSTM(5, 64, batch_first=True)
  (dense): Linear(in_features=64, out_features=1, bias=True)
)",lstm_woattn_ohlcv_DRREDDY.NS,304369.0828,0.10652435,0.752753588,,0.087030818
51:50.6,"LSTMBaseline(
  (lstm): LSTM(5, 64, batch_first=True)
  (dense): Linear(in_features=64, out_features=1, bias=True)
)",lstm_woattn_ohlcv_GLENMARK.NS,9115.592566,0.098220337,0.369095383,,0.223464521
53:12.8,"LSTMBaseline(
  (lstm): LSTM(5, 64, batch_first=True)
  (dense): Linear(in_features=64, out_features=1, bias=True)
)",lstm_woattn_ohlcv_GRANULES.NS,626.2785381,0.093276431,0.945026804,,0.087906922
54:34.9,"LSTMBaseline(
  (lstm): LSTM(5, 64, batch_first=True)
  (dense): Linear(in_features=64, out_features=1, bias=True)
)",lstm_woattn_ohlcv_IPCALAB.NS,3809.618488,0.07328893,0.96489555,,0.147272634
55:57.1,"LSTMBaseline(
  (lstm): LSTM(5, 64, batch_first=True)
  (dense): Linear(in_features=64, out_features=1, bias=True)
)",lstm_woattn_ohlcv_LAURUSLABS.NS,1734.645422,0.090745948,0.952820654,,0.103760696
57:19.6,"LSTMBaseline(
  (lstm): LSTM(5, 64, batch_first=True)
  (dense): Linear(in_features=64, out_features=1, bias=True)
)",lstm_woattn_ohlcv_LUPIN.NS,30715.89824,0.086541032,-0.431959089,,0.118663568
35:20.6,"LSTMBaseline(
  (lstm): LSTM(5, 64, batch_first=True)
  (dense): Linear(in_features=64, out_features=1, bias=True)
)",lstm_woattn_ohlcv_UCOBANK.NS,5.392445568,0.103714253,0.90140067,,0.139256476
36:42.4,"LSTMBaseline(
  (lstm): LSTM(5, 64, batch_first=True)
  (dense): Linear(in_features=64, out_features=1, bias=True)
)",lstm_woattn_ohlcv_UNIONBANK.NS,131.1497401,0.117632241,0.92700926,,0.071089374
38:09.7,"LSTMBaseline(
  (lstm): LSTM(5, 64, batch_first=True)
  (dense): Linear(in_features=64, out_features=1, bias=True)
)",lstm_woattn_ohlcv_APLLTD.NS,7519.339514,0.075649727,0.780195714,,0.091144802
39:32.7,"LSTMBaseline(
  (lstm): LSTM(5, 64, batch_first=True)
  (dense): Linear(in_features=64, out_features=1, bias=True)
)",lstm_woattn_ohlcv_ALKEM.NS,133608.0045,0.097003797,0.654804064,,0.126769842
40:54.9,"LSTMBaseline(
  (lstm): LSTM(5, 64, batch_first=True)
  (dense): Linear(in_features=64, out_features=1, bias=True)
)",lstm_woattn_ohlcv_APOLLOHOSP.NS,104983.6936,0.110424087,0.931842233,,0.063462292
42:16.7,"LSTMBaseline(
  (lstm): LSTM(5, 64, batch_first=True)
  (dense): Linear(in_features=64, out_features=1, bias=True)
)",lstm_woattn_ohlcv_AUROPHARMA.NS,7448.584209,0.093480845,0.616751287,,0.093418339
43:38.2,"LSTMBaseline(
  (lstm): LSTM(5, 64, batch_first=True)
  (dense): Linear(in_features=64, out_features=1, bias=True)
)",lstm_woattn_ohlcv_BIOCON.NS,660.9732762,0.066522387,0.889545091,,0.13628353
44:59.6,"LSTMBaseline(
  (lstm): LSTM(5, 64, batch_first=True)
  (dense): Linear(in_features=64, out_features=1, bias=True)
)",lstm_woattn_ohlcv_CADILAHC.NS,2067.330706,0.080032037,0.808510615,,0.093502689
46:21.9,"LSTMBaseline(
  (lstm): LSTM(5, 64, batch_first=True)
  (dense): Linear(in_features=64, out_features=1, bias=True)
)",lstm_woattn_ohlcv_CIPLA.NS,4002.138363,0.06434539,0.8499409,,0.093894288
47:44.9,"LSTMBaseline(
  (lstm): LSTM(5, 64, batch_first=True)
  (dense): Linear(in_features=64, out_features=1, bias=True)
)",lstm_woattn_ohlcv_DIVISLAB.NS,53137.8235,0.079545924,0.971678027,,0.082325714
49:06.6,"LSTMBaseline(
  (lstm): LSTM(5, 64, batch_first=True)
  (dense): Linear(in_features=64, out_features=1, bias=True)
)",lstm_woattn_ohlcv_LALPATHLAB.NS,51679.31694,0.082671558,0.943083634,,0.122774595
50:28.7,"LSTMBaseline(
  (lstm): LSTM(5, 64, batch_first=True)
  (dense): Linear(in_features=64, out_features=1, bias=True)
)",lstm_woattn_ohlcv_DRREDDY.NS,304369.0828,0.10652435,0.752753588,,0.114573132
51:50.6,"LSTMBaseline(
  (lstm): LSTM(5, 64, batch_first=True)
  (dense): Linear(in_features=64, out_features=1, bias=True)
)",lstm_woattn_ohlcv_GLENMARK.NS,9115.592566,0.098220337,0.369095383,,0.109633965
53:12.8,"LSTMBaseline(
  (lstm): LSTM(5, 64, batch_first=True)
  (dense): Linear(in_features=64, out_features=1, bias=True)
)",lstm_woattn_ohlcv_GRANULES.NS,626.2785381,0.093276431,0.945026804,,0.142422454
54:34.9,"LSTMBaseline(
  (lstm): LSTM(5, 64, batch_first=True)
  (dense): Linear(in_features=64, out_features=1, bias=True)
)",lstm_woattn_ohlcv_IPCALAB.NS,3809.618488,0.07328893,0.96489555,,
55:57.1,"LSTMBaseline(
  (lstm): LSTM(5, 64, batch_first=True)
  (dense): Linear(in_features=64, out_features=1, bias=True)
)",lstm_woattn_ohlcv_LAURUSLABS.NS,1734.645422,0.090745948,0.952820654,,
57:19.6,"LSTMBaseline(
  (lstm): LSTM(5, 64, batch_first=True)
  (dense): Linear(in_features=64, out_features=1, bias=True)
)",lstm_woattn_ohlcv_LUPIN.NS,30715.89824,0.086541032,-0.431959089,avg,0.119164116
58:05.1,"LSTMBaseline(
  (lstm): LSTM(5, 64, batch_first=True)
  (dense): Linear(in_features=64, out_features=1, bias=True)
)",lstm_woattn_ohlcv_METROPOLIS.NS,101588.9038,0.141180609,0.757095823,min,0.050513187
35:20.6,"LSTMBaseline(
  (lstm): LSTM(5, 64, batch_first=True)
  (dense): Linear(in_features=64, out_features=1, bias=True)
)",lstm_woattn_ohlcv_UCOBANK.NS,5.392445568,0.103714253,0.90140067,max,0.841519498
36:42.4,"LSTMBaseline(
  (lstm): LSTM(5, 64, batch_first=True)
  (dense): Linear(in_features=64, out_features=1, bias=True)
)",lstm_woattn_ohlcv_UNIONBANK.NS,131.1497401,0.117632241,0.92700926,std,0.098479892
38:09.7,"LSTMBaseline(
  (lstm): LSTM(5, 64, batch_first=True)
  (dense): Linear(in_features=64, out_features=1, bias=True)
)",lstm_woattn_ohlcv_APLLTD.NS,7519.339514,0.075649727,0.780195714,,
39:32.7,"LSTMBaseline(
  (lstm): LSTM(5, 64, batch_first=True)
  (dense): Linear(in_features=64, out_features=1, bias=True)
)",lstm_woattn_ohlcv_ALKEM.NS,133608.0045,0.097003797,0.654804064,,
40:54.9,"LSTMBaseline(
  (lstm): LSTM(5, 64, batch_first=True)
  (dense): Linear(in_features=64, out_features=1, bias=True)
)",lstm_woattn_ohlcv_APOLLOHOSP.NS,104983.6936,0.110424087,0.931842233,,
42:16.7,"LSTMBaseline(
  (lstm): LSTM(5, 64, batch_first=True)
  (dense): Linear(in_features=64, out_features=1, bias=True)
)",lstm_woattn_ohlcv_AUROPHARMA.NS,7448.584209,0.093480845,0.616751287,,
43:38.2,"LSTMBaseline(
  (lstm): LSTM(5, 64, batch_first=True)
  (dense): Linear(in_features=64, out_features=1, bias=True)
)",lstm_woattn_ohlcv_BIOCON.NS,660.9732762,0.066522387,0.889545091,,
44:59.6,"LSTMBaseline(
  (lstm): LSTM(5, 64, batch_first=True)
  (dense): Linear(in_features=64, out_features=1, bias=True)
)",lstm_woattn_ohlcv_CADILAHC.NS,2067.330706,0.080032037,0.808510615,,
46:21.9,"LSTMBaseline(
  (lstm): LSTM(5, 64, batch_first=True)
  (dense): Linear(in_features=64, out_features=1, bias=True)
)",lstm_woattn_ohlcv_CIPLA.NS,4002.138363,0.06434539,0.8499409,,
47:44.9,"LSTMBaseline(
  (lstm): LSTM(5, 64, batch_first=True)
  (dense): Linear(in_features=64, out_features=1, bias=True)
)",lstm_woattn_ohlcv_DIVISLAB.NS,53137.8235,0.079545924,0.971678027,,
49:06.6,"LSTMBaseline(
  (lstm): LSTM(5, 64, batch_first=True)
  (dense): Linear(in_features=64, out_features=1, bias=True)
)",lstm_woattn_ohlcv_LALPATHLAB.NS,51679.31694,0.082671558,0.943083634,,
50:28.7,"LSTMBaseline(
  (lstm): LSTM(5, 64, batch_first=True)
  (dense): Linear(in_features=64, out_features=1, bias=True)
)",lstm_woattn_ohlcv_DRREDDY.NS,304369.0828,0.10652435,0.752753588,,
51:50.6,"LSTMBaseline(
  (lstm): LSTM(5, 64, batch_first=True)
  (dense): Linear(in_features=64, out_features=1, bias=True)
)",lstm_woattn_ohlcv_GLENMARK.NS,9115.592566,0.098220337,0.369095383,,
53:12.8,"LSTMBaseline(
  (lstm): LSTM(5, 64, batch_first=True)
  (dense): Linear(in_features=64, out_features=1, bias=True)
)",lstm_woattn_ohlcv_GRANULES.NS,626.2785381,0.093276431,0.945026804,,
54:34.9,"LSTMBaseline(
  (lstm): LSTM(5, 64, batch_first=True)
  (dense): Linear(in_features=64, out_features=1, bias=True)
)",lstm_woattn_ohlcv_IPCALAB.NS,3809.618488,0.07328893,0.96489555,,
55:57.1,"LSTMBaseline(
  (lstm): LSTM(5, 64, batch_first=True)
  (dense): Linear(in_features=64, out_features=1, bias=True)
)",lstm_woattn_ohlcv_LAURUSLABS.NS,1734.645422,0.090745948,0.952820654,,
57:19.6,"LSTMBaseline(
  (lstm): LSTM(5, 64, batch_first=True)
  (dense): Linear(in_features=64, out_features=1, bias=True)
)",lstm_woattn_ohlcv_LUPIN.NS,30715.89824,0.086541032,-0.431959089,,
58:05.1,"LSTMBaseline(
  (lstm): LSTM(5, 64, batch_first=True)
  (dense): Linear(in_features=64, out_features=1, bias=True)
)",lstm_woattn_ohlcv_METROPOLIS.NS,101588.9038,0.141180609,0.757095823,,
59:28.8,"LSTMBaseline(
  (lstm): LSTM(5, 64, batch_first=True)
  (dense): Linear(in_features=64, out_features=1, bias=True)
)",lstm_woattn_ohlcv_PFIZER.NS,180265.4824,0.106153434,0.887389849,,
35:20.6,"LSTMBaseline(
  (lstm): LSTM(5, 64, batch_first=True)
  (dense): Linear(in_features=64, out_features=1, bias=True)
)",lstm_woattn_ohlcv_UCOBANK.NS,5.392445568,0.103714253,0.90140067,,
36:42.4,"LSTMBaseline(
  (lstm): LSTM(5, 64, batch_first=True)
  (dense): Linear(in_features=64, out_features=1, bias=True)
)",lstm_woattn_ohlcv_UNIONBANK.NS,131.1497401,0.117632241,0.92700926,,
38:09.7,"LSTMBaseline(
  (lstm): LSTM(5, 64, batch_first=True)
  (dense): Linear(in_features=64, out_features=1, bias=True)
)",lstm_woattn_ohlcv_APLLTD.NS,7519.339514,0.075649727,0.780195714,,
39:32.7,"LSTMBaseline(
  (lstm): LSTM(5, 64, batch_first=True)
  (dense): Linear(in_features=64, out_features=1, bias=True)
)",lstm_woattn_ohlcv_ALKEM.NS,133608.0045,0.097003797,0.654804064,,
40:54.9,"LSTMBaseline(
  (lstm): LSTM(5, 64, batch_first=True)
  (dense): Linear(in_features=64, out_features=1, bias=True)
)",lstm_woattn_ohlcv_APOLLOHOSP.NS,104983.6936,0.110424087,0.931842233,,
42:16.7,"LSTMBaseline(
  (lstm): LSTM(5, 64, batch_first=True)
  (dense): Linear(in_features=64, out_features=1, bias=True)
)",lstm_woattn_ohlcv_AUROPHARMA.NS,7448.584209,0.093480845,0.616751287,,
43:38.2,"LSTMBaseline(
  (lstm): LSTM(5, 64, batch_first=True)
  (dense): Linear(in_features=64, out_features=1, bias=True)
)",lstm_woattn_ohlcv_BIOCON.NS,660.9732762,0.066522387,0.889545091,,
44:59.6,"LSTMBaseline(
  (lstm): LSTM(5, 64, batch_first=True)
  (dense): Linear(in_features=64, out_features=1, bias=True)
)",lstm_woattn_ohlcv_CADILAHC.NS,2067.330706,0.080032037,0.808510615,,
46:21.9,"LSTMBaseline(
  (lstm): LSTM(5, 64, batch_first=True)
  (dense): Linear(in_features=64, out_features=1, bias=True)
)",lstm_woattn_ohlcv_CIPLA.NS,4002.138363,0.06434539,0.8499409,,
47:44.9,"LSTMBaseline(
  (lstm): LSTM(5, 64, batch_first=True)
  (dense): Linear(in_features=64, out_features=1, bias=True)
)",lstm_woattn_ohlcv_DIVISLAB.NS,53137.8235,0.079545924,0.971678027,,
49:06.6,"LSTMBaseline(
  (lstm): LSTM(5, 64, batch_first=True)
  (dense): Linear(in_features=64, out_features=1, bias=True)
)",lstm_woattn_ohlcv_LALPATHLAB.NS,51679.31694,0.082671558,0.943083634,,
50:28.7,"LSTMBaseline(
  (lstm): LSTM(5, 64, batch_first=True)
  (dense): Linear(in_features=64, out_features=1, bias=True)
)",lstm_woattn_ohlcv_DRREDDY.NS,304369.0828,0.10652435,0.752753588,,
51:50.6,"LSTMBaseline(
  (lstm): LSTM(5, 64, batch_first=True)
  (dense): Linear(in_features=64, out_features=1, bias=True)
)",lstm_woattn_ohlcv_GLENMARK.NS,9115.592566,0.098220337,0.369095383,,
53:12.8,"LSTMBaseline(
  (lstm): LSTM(5, 64, batch_first=True)
  (dense): Linear(in_features=64, out_features=1, bias=True)
)",lstm_woattn_ohlcv_GRANULES.NS,626.2785381,0.093276431,0.945026804,,
54:34.9,"LSTMBaseline(
  (lstm): LSTM(5, 64, batch_first=True)
  (dense): Linear(in_features=64, out_features=1, bias=True)
)",lstm_woattn_ohlcv_IPCALAB.NS,3809.618488,0.07328893,0.96489555,,
55:57.1,"LSTMBaseline(
  (lstm): LSTM(5, 64, batch_first=True)
  (dense): Linear(in_features=64, out_features=1, bias=True)
)",lstm_woattn_ohlcv_LAURUSLABS.NS,1734.645422,0.090745948,0.952820654,,
57:19.6,"LSTMBaseline(
  (lstm): LSTM(5, 64, batch_first=True)
  (dense): Linear(in_features=64, out_features=1, bias=True)
)",lstm_woattn_ohlcv_LUPIN.NS,30715.89824,0.086541032,-0.431959089,,
58:05.1,"LSTMBaseline(
  (lstm): LSTM(5, 64, batch_first=True)
  (dense): Linear(in_features=64, out_features=1, bias=True)
)",lstm_woattn_ohlcv_METROPOLIS.NS,101588.9038,0.141180609,0.757095823,,
59:28.8,"LSTMBaseline(
  (lstm): LSTM(5, 64, batch_first=True)
  (dense): Linear(in_features=64, out_features=1, bias=True)
)",lstm_woattn_ohlcv_PFIZER.NS,180265.4824,0.106153434,0.887389849,,
00:51.4,"LSTMBaseline(
  (lstm): LSTM(5, 64, batch_first=True)
  (dense): Linear(in_features=64, out_features=1, bias=True)
)",lstm_woattn_ohlcv_STAR.NS,15026.67071,0.123528428,0.613943764,,
35:20.6,"LSTMBaseline(
  (lstm): LSTM(5, 64, batch_first=True)
  (dense): Linear(in_features=64, out_features=1, bias=True)
)",lstm_woattn_ohlcv_UCOBANK.NS,5.392445568,0.103714253,0.90140067,,
36:42.4,"LSTMBaseline(
  (lstm): LSTM(5, 64, batch_first=True)
  (dense): Linear(in_features=64, out_features=1, bias=True)
)",lstm_woattn_ohlcv_UNIONBANK.NS,131.1497401,0.117632241,0.92700926,,
38:09.7,"LSTMBaseline(
  (lstm): LSTM(5, 64, batch_first=True)
  (dense): Linear(in_features=64, out_features=1, bias=True)
)",lstm_woattn_ohlcv_APLLTD.NS,7519.339514,0.075649727,0.780195714,,
39:32.7,"LSTMBaseline(
  (lstm): LSTM(5, 64, batch_first=True)
  (dense): Linear(in_features=64, out_features=1, bias=True)
)",lstm_woattn_ohlcv_ALKEM.NS,133608.0045,0.097003797,0.654804064,,
40:54.9,"LSTMBaseline(
  (lstm): LSTM(5, 64, batch_first=True)
  (dense): Linear(in_features=64, out_features=1, bias=True)
)",lstm_woattn_ohlcv_APOLLOHOSP.NS,104983.6936,0.110424087,0.931842233,,
42:16.7,"LSTMBaseline(
  (lstm): LSTM(5, 64, batch_first=True)
  (dense): Linear(in_features=64, out_features=1, bias=True)
)",lstm_woattn_ohlcv_AUROPHARMA.NS,7448.584209,0.093480845,0.616751287,,
43:38.2,"LSTMBaseline(
  (lstm): LSTM(5, 64, batch_first=True)
  (dense): Linear(in_features=64, out_features=1, bias=True)
)",lstm_woattn_ohlcv_BIOCON.NS,660.9732762,0.066522387,0.889545091,,
44:59.6,"LSTMBaseline(
  (lstm): LSTM(5, 64, batch_first=True)
  (dense): Linear(in_features=64, out_features=1, bias=True)
)",lstm_woattn_ohlcv_CADILAHC.NS,2067.330706,0.080032037,0.808510615,,
46:21.9,"LSTMBaseline(
  (lstm): LSTM(5, 64, batch_first=True)
  (dense): Linear(in_features=64, out_features=1, bias=True)
)",lstm_woattn_ohlcv_CIPLA.NS,4002.138363,0.06434539,0.8499409,,
47:44.9,"LSTMBaseline(
  (lstm): LSTM(5, 64, batch_first=True)
  (dense): Linear(in_features=64, out_features=1, bias=True)
)",lstm_woattn_ohlcv_DIVISLAB.NS,53137.8235,0.079545924,0.971678027,,
49:06.6,"LSTMBaseline(
  (lstm): LSTM(5, 64, batch_first=True)
  (dense): Linear(in_features=64, out_features=1, bias=True)
)",lstm_woattn_ohlcv_LALPATHLAB.NS,51679.31694,0.082671558,0.943083634,,
50:28.7,"LSTMBaseline(
  (lstm): LSTM(5, 64, batch_first=True)
  (dense): Linear(in_features=64, out_features=1, bias=True)
)",lstm_woattn_ohlcv_DRREDDY.NS,304369.0828,0.10652435,0.752753588,,
51:50.6,"LSTMBaseline(
  (lstm): LSTM(5, 64, batch_first=True)
  (dense): Linear(in_features=64, out_features=1, bias=True)
)",lstm_woattn_ohlcv_GLENMARK.NS,9115.592566,0.098220337,0.369095383,,
53:12.8,"LSTMBaseline(
  (lstm): LSTM(5, 64, batch_first=True)
  (dense): Linear(in_features=64, out_features=1, bias=True)
)",lstm_woattn_ohlcv_GRANULES.NS,626.2785381,0.093276431,0.945026804,,
54:34.9,"LSTMBaseline(
  (lstm): LSTM(5, 64, batch_first=True)
  (dense): Linear(in_features=64, out_features=1, bias=True)
)",lstm_woattn_ohlcv_IPCALAB.NS,3809.618488,0.07328893,0.96489555,,
55:57.1,"LSTMBaseline(
  (lstm): LSTM(5, 64, batch_first=True)
  (dense): Linear(in_features=64, out_features=1, bias=True)
)",lstm_woattn_ohlcv_LAURUSLABS.NS,1734.645422,0.090745948,0.952820654,,
57:19.6,"LSTMBaseline(
  (lstm): LSTM(5, 64, batch_first=True)
  (dense): Linear(in_features=64, out_features=1, bias=True)
)",lstm_woattn_ohlcv_LUPIN.NS,30715.89824,0.086541032,-0.431959089,,
58:05.1,"LSTMBaseline(
  (lstm): LSTM(5, 64, batch_first=True)
  (dense): Linear(in_features=64, out_features=1, bias=True)
)",lstm_woattn_ohlcv_METROPOLIS.NS,101588.9038,0.141180609,0.757095823,,
59:28.8,"LSTMBaseline(
  (lstm): LSTM(5, 64, batch_first=True)
  (dense): Linear(in_features=64, out_features=1, bias=True)
)",lstm_woattn_ohlcv_PFIZER.NS,180265.4824,0.106153434,0.887389849,,
00:51.4,"LSTMBaseline(
  (lstm): LSTM(5, 64, batch_first=True)
  (dense): Linear(in_features=64, out_features=1, bias=True)
)",lstm_woattn_ohlcv_STAR.NS,15026.67071,0.123528428,0.613943764,,
02:14.9,"LSTMBaseline(
  (lstm): LSTM(5, 64, batch_first=True)
  (dense): Linear(in_features=64, out_features=1, bias=True)
)",lstm_woattn_ohlcv_SUNPHARMA.NS,4075.51656,0.076400432,0.742554668,,
35:20.6,"LSTMBaseline(
  (lstm): LSTM(5, 64, batch_first=True)
  (dense): Linear(in_features=64, out_features=1, bias=True)
)",lstm_woattn_ohlcv_UCOBANK.NS,5.392445568,0.103714253,0.90140067,,
36:42.4,"LSTMBaseline(
  (lstm): LSTM(5, 64, batch_first=True)
  (dense): Linear(in_features=64, out_features=1, bias=True)
)",lstm_woattn_ohlcv_UNIONBANK.NS,131.1497401,0.117632241,0.92700926,,
38:09.7,"LSTMBaseline(
  (lstm): LSTM(5, 64, batch_first=True)
  (dense): Linear(in_features=64, out_features=1, bias=True)
)",lstm_woattn_ohlcv_APLLTD.NS,7519.339514,0.075649727,0.780195714,,
39:32.7,"LSTMBaseline(
  (lstm): LSTM(5, 64, batch_first=True)
  (dense): Linear(in_features=64, out_features=1, bias=True)
)",lstm_woattn_ohlcv_ALKEM.NS,133608.0045,0.097003797,0.654804064,,
40:54.9,"LSTMBaseline(
  (lstm): LSTM(5, 64, batch_first=True)
  (dense): Linear(in_features=64, out_features=1, bias=True)
)",lstm_woattn_ohlcv_APOLLOHOSP.NS,104983.6936,0.110424087,0.931842233,,
42:16.7,"LSTMBaseline(
  (lstm): LSTM(5, 64, batch_first=True)
  (dense): Linear(in_features=64, out_features=1, bias=True)
)",lstm_woattn_ohlcv_AUROPHARMA.NS,7448.584209,0.093480845,0.616751287,,
43:38.2,"LSTMBaseline(
  (lstm): LSTM(5, 64, batch_first=True)
  (dense): Linear(in_features=64, out_features=1, bias=True)
)",lstm_woattn_ohlcv_BIOCON.NS,660.9732762,0.066522387,0.889545091,,
44:59.6,"LSTMBaseline(
  (lstm): LSTM(5, 64, batch_first=True)
  (dense): Linear(in_features=64, out_features=1, bias=True)
)",lstm_woattn_ohlcv_CADILAHC.NS,2067.330706,0.080032037,0.808510615,,
46:21.9,"LSTMBaseline(
  (lstm): LSTM(5, 64, batch_first=True)
  (dense): Linear(in_features=64, out_features=1, bias=True)
)",lstm_woattn_ohlcv_CIPLA.NS,4002.138363,0.06434539,0.8499409,,
47:44.9,"LSTMBaseline(
  (lstm): LSTM(5, 64, batch_first=True)
  (dense): Linear(in_features=64, out_features=1, bias=True)
)",lstm_woattn_ohlcv_DIVISLAB.NS,53137.8235,0.079545924,0.971678027,,
49:06.6,"LSTMBaseline(
  (lstm): LSTM(5, 64, batch_first=True)
  (dense): Linear(in_features=64, out_features=1, bias=True)
)",lstm_woattn_ohlcv_LALPATHLAB.NS,51679.31694,0.082671558,0.943083634,,
50:28.7,"LSTMBaseline(
  (lstm): LSTM(5, 64, batch_first=True)
  (dense): Linear(in_features=64, out_features=1, bias=True)
)",lstm_woattn_ohlcv_DRREDDY.NS,304369.0828,0.10652435,0.752753588,,
51:50.6,"LSTMBaseline(
  (lstm): LSTM(5, 64, batch_first=True)
  (dense): Linear(in_features=64, out_features=1, bias=True)
)",lstm_woattn_ohlcv_GLENMARK.NS,9115.592566,0.098220337,0.369095383,,
53:12.8,"LSTMBaseline(
  (lstm): LSTM(5, 64, batch_first=True)
  (dense): Linear(in_features=64, out_features=1, bias=True)
)",lstm_woattn_ohlcv_GRANULES.NS,626.2785381,0.093276431,0.945026804,,
54:34.9,"LSTMBaseline(
  (lstm): LSTM(5, 64, batch_first=True)
  (dense): Linear(in_features=64, out_features=1, bias=True)
)",lstm_woattn_ohlcv_IPCALAB.NS,3809.618488,0.07328893,0.96489555,,
55:57.1,"LSTMBaseline(
  (lstm): LSTM(5, 64, batch_first=True)
  (dense): Linear(in_features=64, out_features=1, bias=True)
)",lstm_woattn_ohlcv_LAURUSLABS.NS,1734.645422,0.090745948,0.952820654,,
57:19.6,"LSTMBaseline(
  (lstm): LSTM(5, 64, batch_first=True)
  (dense): Linear(in_features=64, out_features=1, bias=True)
)",lstm_woattn_ohlcv_LUPIN.NS,30715.89824,0.086541032,-0.431959089,,
58:05.1,"LSTMBaseline(
  (lstm): LSTM(5, 64, batch_first=True)
  (dense): Linear(in_features=64, out_features=1, bias=True)
)",lstm_woattn_ohlcv_METROPOLIS.NS,101588.9038,0.141180609,0.757095823,,
59:28.8,"LSTMBaseline(
  (lstm): LSTM(5, 64, batch_first=True)
  (dense): Linear(in_features=64, out_features=1, bias=True)
)",lstm_woattn_ohlcv_PFIZER.NS,180265.4824,0.106153434,0.887389849,,
00:51.4,"LSTMBaseline(
  (lstm): LSTM(5, 64, batch_first=True)
  (dense): Linear(in_features=64, out_features=1, bias=True)
)",lstm_woattn_ohlcv_STAR.NS,15026.67071,0.123528428,0.613943764,,
02:14.9,"LSTMBaseline(
  (lstm): LSTM(5, 64, batch_first=True)
  (dense): Linear(in_features=64, out_features=1, bias=True)
)",lstm_woattn_ohlcv_SUNPHARMA.NS,4075.51656,0.076400432,0.742554668,,
03:37.8,"LSTMBaseline(
  (lstm): LSTM(5, 64, batch_first=True)
  (dense): Linear(in_features=64, out_features=1, bias=True)
)",lstm_woattn_ohlcv_TORNTPHARM.NS,52235.22146,0.080340937,0.867575168,,
35:20.6,"LSTMBaseline(
  (lstm): LSTM(5, 64, batch_first=True)
  (dense): Linear(in_features=64, out_features=1, bias=True)
)",lstm_woattn_ohlcv_UCOBANK.NS,5.392445568,0.103714253,0.90140067,,
36:42.4,"LSTMBaseline(
  (lstm): LSTM(5, 64, batch_first=True)
  (dense): Linear(in_features=64, out_features=1, bias=True)
)",lstm_woattn_ohlcv_UNIONBANK.NS,131.1497401,0.117632241,0.92700926,,
38:09.7,"LSTMBaseline(
  (lstm): LSTM(5, 64, batch_first=True)
  (dense): Linear(in_features=64, out_features=1, bias=True)
)",lstm_woattn_ohlcv_APLLTD.NS,7519.339514,0.075649727,0.780195714,,
39:32.7,"LSTMBaseline(
  (lstm): LSTM(5, 64, batch_first=True)
  (dense): Linear(in_features=64, out_features=1, bias=True)
)",lstm_woattn_ohlcv_ALKEM.NS,133608.0045,0.097003797,0.654804064,,
40:54.9,"LSTMBaseline(
  (lstm): LSTM(5, 64, batch_first=True)
  (dense): Linear(in_features=64, out_features=1, bias=True)
)",lstm_woattn_ohlcv_APOLLOHOSP.NS,104983.6936,0.110424087,0.931842233,,
42:16.7,"LSTMBaseline(
  (lstm): LSTM(5, 64, batch_first=True)
  (dense): Linear(in_features=64, out_features=1, bias=True)
)",lstm_woattn_ohlcv_AUROPHARMA.NS,7448.584209,0.093480845,0.616751287,,
43:38.2,"LSTMBaseline(
  (lstm): LSTM(5, 64, batch_first=True)
  (dense): Linear(in_features=64, out_features=1, bias=True)
)",lstm_woattn_ohlcv_BIOCON.NS,660.9732762,0.066522387,0.889545091,,
44:59.6,"LSTMBaseline(
  (lstm): LSTM(5, 64, batch_first=True)
  (dense): Linear(in_features=64, out_features=1, bias=True)
)",lstm_woattn_ohlcv_CADILAHC.NS,2067.330706,0.080032037,0.808510615,,
46:21.9,"LSTMBaseline(
  (lstm): LSTM(5, 64, batch_first=True)
  (dense): Linear(in_features=64, out_features=1, bias=True)
)",lstm_woattn_ohlcv_CIPLA.NS,4002.138363,0.06434539,0.8499409,,
47:44.9,"LSTMBaseline(
  (lstm): LSTM(5, 64, batch_first=True)
  (dense): Linear(in_features=64, out_features=1, bias=True)
)",lstm_woattn_ohlcv_DIVISLAB.NS,53137.8235,0.079545924,0.971678027,,
49:06.6,"LSTMBaseline(
  (lstm): LSTM(5, 64, batch_first=True)
  (dense): Linear(in_features=64, out_features=1, bias=True)
)",lstm_woattn_ohlcv_LALPATHLAB.NS,51679.31694,0.082671558,0.943083634,,
50:28.7,"LSTMBaseline(
  (lstm): LSTM(5, 64, batch_first=True)
  (dense): Linear(in_features=64, out_features=1, bias=True)
)",lstm_woattn_ohlcv_DRREDDY.NS,304369.0828,0.10652435,0.752753588,,
51:50.6,"LSTMBaseline(
  (lstm): LSTM(5, 64, batch_first=True)
  (dense): Linear(in_features=64, out_features=1, bias=True)
)",lstm_woattn_ohlcv_GLENMARK.NS,9115.592566,0.098220337,0.369095383,,
53:12.8,"LSTMBaseline(
  (lstm): LSTM(5, 64, batch_first=True)
  (dense): Linear(in_features=64, out_features=1, bias=True)
)",lstm_woattn_ohlcv_GRANULES.NS,626.2785381,0.093276431,0.945026804,,
54:34.9,"LSTMBaseline(
  (lstm): LSTM(5, 64, batch_first=True)
  (dense): Linear(in_features=64, out_features=1, bias=True)
)",lstm_woattn_ohlcv_IPCALAB.NS,3809.618488,0.07328893,0.96489555,,
55:57.1,"LSTMBaseline(
  (lstm): LSTM(5, 64, batch_first=True)
  (dense): Linear(in_features=64, out_features=1, bias=True)
)",lstm_woattn_ohlcv_LAURUSLABS.NS,1734.645422,0.090745948,0.952820654,,
57:19.6,"LSTMBaseline(
  (lstm): LSTM(5, 64, batch_first=True)
  (dense): Linear(in_features=64, out_features=1, bias=True)
)",lstm_woattn_ohlcv_LUPIN.NS,30715.89824,0.086541032,-0.431959089,,
58:05.1,"LSTMBaseline(
  (lstm): LSTM(5, 64, batch_first=True)
  (dense): Linear(in_features=64, out_features=1, bias=True)
)",lstm_woattn_ohlcv_METROPOLIS.NS,101588.9038,0.141180609,0.757095823,,
59:28.8,"LSTMBaseline(
  (lstm): LSTM(5, 64, batch_first=True)
  (dense): Linear(in_features=64, out_features=1, bias=True)
)",lstm_woattn_ohlcv_PFIZER.NS,180265.4824,0.106153434,0.887389849,,
00:51.4,"LSTMBaseline(
  (lstm): LSTM(5, 64, batch_first=True)
  (dense): Linear(in_features=64, out_features=1, bias=True)
)",lstm_woattn_ohlcv_STAR.NS,15026.67071,0.123528428,0.613943764,,
02:14.9,"LSTMBaseline(
  (lstm): LSTM(5, 64, batch_first=True)
  (dense): Linear(in_features=64, out_features=1, bias=True)
)",lstm_woattn_ohlcv_SUNPHARMA.NS,4075.51656,0.076400432,0.742554668,,
03:37.8,"LSTMBaseline(
  (lstm): LSTM(5, 64, batch_first=True)
  (dense): Linear(in_features=64, out_features=1, bias=True)
)",lstm_woattn_ohlcv_TORNTPHARM.NS,52235.22146,0.080340937,0.867575168,,
04:59.9,"LSTMBaseline(
  (lstm): LSTM(5, 64, batch_first=True)
  (dense): Linear(in_features=64, out_features=1, bias=True)
)",lstm_woattn_ohlcv_COFORGE.NS,155311.0349,0.121512406,0.928134509,,
35:20.6,"LSTMBaseline(
  (lstm): LSTM(5, 64, batch_first=True)
  (dense): Linear(in_features=64, out_features=1, bias=True)
)",lstm_woattn_ohlcv_UCOBANK.NS,5.392445568,0.103714253,0.90140067,,
36:42.4,"LSTMBaseline(
  (lstm): LSTM(5, 64, batch_first=True)
  (dense): Linear(in_features=64, out_features=1, bias=True)
)",lstm_woattn_ohlcv_UNIONBANK.NS,131.1497401,0.117632241,0.92700926,,
38:09.7,"LSTMBaseline(
  (lstm): LSTM(5, 64, batch_first=True)
  (dense): Linear(in_features=64, out_features=1, bias=True)
)",lstm_woattn_ohlcv_APLLTD.NS,7519.339514,0.075649727,0.780195714,,
39:32.7,"LSTMBaseline(
  (lstm): LSTM(5, 64, batch_first=True)
  (dense): Linear(in_features=64, out_features=1, bias=True)
)",lstm_woattn_ohlcv_ALKEM.NS,133608.0045,0.097003797,0.654804064,,
40:54.9,"LSTMBaseline(
  (lstm): LSTM(5, 64, batch_first=True)
  (dense): Linear(in_features=64, out_features=1, bias=True)
)",lstm_woattn_ohlcv_APOLLOHOSP.NS,104983.6936,0.110424087,0.931842233,,
42:16.7,"LSTMBaseline(
  (lstm): LSTM(5, 64, batch_first=True)
  (dense): Linear(in_features=64, out_features=1, bias=True)
)",lstm_woattn_ohlcv_AUROPHARMA.NS,7448.584209,0.093480845,0.616751287,,
43:38.2,"LSTMBaseline(
  (lstm): LSTM(5, 64, batch_first=True)
  (dense): Linear(in_features=64, out_features=1, bias=True)
)",lstm_woattn_ohlcv_BIOCON.NS,660.9732762,0.066522387,0.889545091,,
44:59.6,"LSTMBaseline(
  (lstm): LSTM(5, 64, batch_first=True)
  (dense): Linear(in_features=64, out_features=1, bias=True)
)",lstm_woattn_ohlcv_CADILAHC.NS,2067.330706,0.080032037,0.808510615,,
46:21.9,"LSTMBaseline(
  (lstm): LSTM(5, 64, batch_first=True)
  (dense): Linear(in_features=64, out_features=1, bias=True)
)",lstm_woattn_ohlcv_CIPLA.NS,4002.138363,0.06434539,0.8499409,,
47:44.9,"LSTMBaseline(
  (lstm): LSTM(5, 64, batch_first=True)
  (dense): Linear(in_features=64, out_features=1, bias=True)
)",lstm_woattn_ohlcv_DIVISLAB.NS,53137.8235,0.079545924,0.971678027,,
49:06.6,"LSTMBaseline(
  (lstm): LSTM(5, 64, batch_first=True)
  (dense): Linear(in_features=64, out_features=1, bias=True)
)",lstm_woattn_ohlcv_LALPATHLAB.NS,51679.31694,0.082671558,0.943083634,,
50:28.7,"LSTMBaseline(
  (lstm): LSTM(5, 64, batch_first=True)
  (dense): Linear(in_features=64, out_features=1, bias=True)
)",lstm_woattn_ohlcv_DRREDDY.NS,304369.0828,0.10652435,0.752753588,,
51:50.6,"LSTMBaseline(
  (lstm): LSTM(5, 64, batch_first=True)
  (dense): Linear(in_features=64, out_features=1, bias=True)
)",lstm_woattn_ohlcv_GLENMARK.NS,9115.592566,0.098220337,0.369095383,,
53:12.8,"LSTMBaseline(
  (lstm): LSTM(5, 64, batch_first=True)
  (dense): Linear(in_features=64, out_features=1, bias=True)
)",lstm_woattn_ohlcv_GRANULES.NS,626.2785381,0.093276431,0.945026804,,
54:34.9,"LSTMBaseline(
  (lstm): LSTM(5, 64, batch_first=True)
  (dense): Linear(in_features=64, out_features=1, bias=True)
)",lstm_woattn_ohlcv_IPCALAB.NS,3809.618488,0.07328893,0.96489555,,
55:57.1,"LSTMBaseline(
  (lstm): LSTM(5, 64, batch_first=True)
  (dense): Linear(in_features=64, out_features=1, bias=True)
)",lstm_woattn_ohlcv_LAURUSLABS.NS,1734.645422,0.090745948,0.952820654,,
57:19.6,"LSTMBaseline(
  (lstm): LSTM(5, 64, batch_first=True)
  (dense): Linear(in_features=64, out_features=1, bias=True)
)",lstm_woattn_ohlcv_LUPIN.NS,30715.89824,0.086541032,-0.431959089,,
58:05.1,"LSTMBaseline(
  (lstm): LSTM(5, 64, batch_first=True)
  (dense): Linear(in_features=64, out_features=1, bias=True)
)",lstm_woattn_ohlcv_METROPOLIS.NS,101588.9038,0.141180609,0.757095823,,
59:28.8,"LSTMBaseline(
  (lstm): LSTM(5, 64, batch_first=True)
  (dense): Linear(in_features=64, out_features=1, bias=True)
)",lstm_woattn_ohlcv_PFIZER.NS,180265.4824,0.106153434,0.887389849,,
00:51.4,"LSTMBaseline(
  (lstm): LSTM(5, 64, batch_first=True)
  (dense): Linear(in_features=64, out_features=1, bias=True)
)",lstm_woattn_ohlcv_STAR.NS,15026.67071,0.123528428,0.613943764,,
02:14.9,"LSTMBaseline(
  (lstm): LSTM(5, 64, batch_first=True)
  (dense): Linear(in_features=64, out_features=1, bias=True)
)",lstm_woattn_ohlcv_SUNPHARMA.NS,4075.51656,0.076400432,0.742554668,,
03:37.8,"LSTMBaseline(
  (lstm): LSTM(5, 64, batch_first=True)
  (dense): Linear(in_features=64, out_features=1, bias=True)
)",lstm_woattn_ohlcv_TORNTPHARM.NS,52235.22146,0.080340937,0.867575168,,
04:59.9,"LSTMBaseline(
  (lstm): LSTM(5, 64, batch_first=True)
  (dense): Linear(in_features=64, out_features=1, bias=True)
)",lstm_woattn_ohlcv_COFORGE.NS,155311.0349,0.121512406,0.928134509,,
06:22.0,"LSTMBaseline(
  (lstm): LSTM(5, 64, batch_first=True)
  (dense): Linear(in_features=64, out_features=1, bias=True)
)",lstm_woattn_ohlcv_HCLTECH.NS,3554.894257,0.059489116,0.948182009,,
35:20.6,"LSTMBaseline(
  (lstm): LSTM(5, 64, batch_first=True)
  (dense): Linear(in_features=64, out_features=1, bias=True)
)",lstm_woattn_ohlcv_UCOBANK.NS,5.392445568,0.103714253,0.90140067,,
36:42.4,"LSTMBaseline(
  (lstm): LSTM(5, 64, batch_first=True)
  (dense): Linear(in_features=64, out_features=1, bias=True)
)",lstm_woattn_ohlcv_UNIONBANK.NS,131.1497401,0.117632241,0.92700926,,
38:09.7,"LSTMBaseline(
  (lstm): LSTM(5, 64, batch_first=True)
  (dense): Linear(in_features=64, out_features=1, bias=True)
)",lstm_woattn_ohlcv_APLLTD.NS,7519.339514,0.075649727,0.780195714,,
39:32.7,"LSTMBaseline(
  (lstm): LSTM(5, 64, batch_first=True)
  (dense): Linear(in_features=64, out_features=1, bias=True)
)",lstm_woattn_ohlcv_ALKEM.NS,133608.0045,0.097003797,0.654804064,,
40:54.9,"LSTMBaseline(
  (lstm): LSTM(5, 64, batch_first=True)
  (dense): Linear(in_features=64, out_features=1, bias=True)
)",lstm_woattn_ohlcv_APOLLOHOSP.NS,104983.6936,0.110424087,0.931842233,,
42:16.7,"LSTMBaseline(
  (lstm): LSTM(5, 64, batch_first=True)
  (dense): Linear(in_features=64, out_features=1, bias=True)
)",lstm_woattn_ohlcv_AUROPHARMA.NS,7448.584209,0.093480845,0.616751287,,
43:38.2,"LSTMBaseline(
  (lstm): LSTM(5, 64, batch_first=True)
  (dense): Linear(in_features=64, out_features=1, bias=True)
)",lstm_woattn_ohlcv_BIOCON.NS,660.9732762,0.066522387,0.889545091,,
44:59.6,"LSTMBaseline(
  (lstm): LSTM(5, 64, batch_first=True)
  (dense): Linear(in_features=64, out_features=1, bias=True)
)",lstm_woattn_ohlcv_CADILAHC.NS,2067.330706,0.080032037,0.808510615,,
46:21.9,"LSTMBaseline(
  (lstm): LSTM(5, 64, batch_first=True)
  (dense): Linear(in_features=64, out_features=1, bias=True)
)",lstm_woattn_ohlcv_CIPLA.NS,4002.138363,0.06434539,0.8499409,,
47:44.9,"LSTMBaseline(
  (lstm): LSTM(5, 64, batch_first=True)
  (dense): Linear(in_features=64, out_features=1, bias=True)
)",lstm_woattn_ohlcv_DIVISLAB.NS,53137.8235,0.079545924,0.971678027,,
49:06.6,"LSTMBaseline(
  (lstm): LSTM(5, 64, batch_first=True)
  (dense): Linear(in_features=64, out_features=1, bias=True)
)",lstm_woattn_ohlcv_LALPATHLAB.NS,51679.31694,0.082671558,0.943083634,,
50:28.7,"LSTMBaseline(
  (lstm): LSTM(5, 64, batch_first=True)
  (dense): Linear(in_features=64, out_features=1, bias=True)
)",lstm_woattn_ohlcv_DRREDDY.NS,304369.0828,0.10652435,0.752753588,,
51:50.6,"LSTMBaseline(
  (lstm): LSTM(5, 64, batch_first=True)
  (dense): Linear(in_features=64, out_features=1, bias=True)
)",lstm_woattn_ohlcv_GLENMARK.NS,9115.592566,0.098220337,0.369095383,,
53:12.8,"LSTMBaseline(
  (lstm): LSTM(5, 64, batch_first=True)
  (dense): Linear(in_features=64, out_features=1, bias=True)
)",lstm_woattn_ohlcv_GRANULES.NS,626.2785381,0.093276431,0.945026804,,
54:34.9,"LSTMBaseline(
  (lstm): LSTM(5, 64, batch_first=True)
  (dense): Linear(in_features=64, out_features=1, bias=True)
)",lstm_woattn_ohlcv_IPCALAB.NS,3809.618488,0.07328893,0.96489555,,
55:57.1,"LSTMBaseline(
  (lstm): LSTM(5, 64, batch_first=True)
  (dense): Linear(in_features=64, out_features=1, bias=True)
)",lstm_woattn_ohlcv_LAURUSLABS.NS,1734.645422,0.090745948,0.952820654,,
57:19.6,"LSTMBaseline(
  (lstm): LSTM(5, 64, batch_first=True)
  (dense): Linear(in_features=64, out_features=1, bias=True)
)",lstm_woattn_ohlcv_LUPIN.NS,30715.89824,0.086541032,-0.431959089,,
58:05.1,"LSTMBaseline(
  (lstm): LSTM(5, 64, batch_first=True)
  (dense): Linear(in_features=64, out_features=1, bias=True)
)",lstm_woattn_ohlcv_METROPOLIS.NS,101588.9038,0.141180609,0.757095823,,
59:28.8,"LSTMBaseline(
  (lstm): LSTM(5, 64, batch_first=True)
  (dense): Linear(in_features=64, out_features=1, bias=True)
)",lstm_woattn_ohlcv_PFIZER.NS,180265.4824,0.106153434,0.887389849,,
00:51.4,"LSTMBaseline(
  (lstm): LSTM(5, 64, batch_first=True)
  (dense): Linear(in_features=64, out_features=1, bias=True)
)",lstm_woattn_ohlcv_STAR.NS,15026.67071,0.123528428,0.613943764,,
02:14.9,"LSTMBaseline(
  (lstm): LSTM(5, 64, batch_first=True)
  (dense): Linear(in_features=64, out_features=1, bias=True)
)",lstm_woattn_ohlcv_SUNPHARMA.NS,4075.51656,0.076400432,0.742554668,,
03:37.8,"LSTMBaseline(
  (lstm): LSTM(5, 64, batch_first=True)
  (dense): Linear(in_features=64, out_features=1, bias=True)
)",lstm_woattn_ohlcv_TORNTPHARM.NS,52235.22146,0.080340937,0.867575168,,
04:59.9,"LSTMBaseline(
  (lstm): LSTM(5, 64, batch_first=True)
  (dense): Linear(in_features=64, out_features=1, bias=True)
)",lstm_woattn_ohlcv_COFORGE.NS,155311.0349,0.121512406,0.928134509,,
06:22.0,"LSTMBaseline(
  (lstm): LSTM(5, 64, batch_first=True)
  (dense): Linear(in_features=64, out_features=1, bias=True)
)",lstm_woattn_ohlcv_HCLTECH.NS,3554.894257,0.059489116,0.948182009,,
07:44.6,"LSTMBaseline(
  (lstm): LSTM(5, 64, batch_first=True)
  (dense): Linear(in_features=64, out_features=1, bias=True)
)",lstm_woattn_ohlcv_INFY.NS,6321.136273,0.068805898,0.963936931,,
35:20.6,"LSTMBaseline(
  (lstm): LSTM(5, 64, batch_first=True)
  (dense): Linear(in_features=64, out_features=1, bias=True)
)",lstm_woattn_ohlcv_UCOBANK.NS,5.392445568,0.103714253,0.90140067,,
36:42.4,"LSTMBaseline(
  (lstm): LSTM(5, 64, batch_first=True)
  (dense): Linear(in_features=64, out_features=1, bias=True)
)",lstm_woattn_ohlcv_UNIONBANK.NS,131.1497401,0.117632241,0.92700926,,
38:09.7,"LSTMBaseline(
  (lstm): LSTM(5, 64, batch_first=True)
  (dense): Linear(in_features=64, out_features=1, bias=True)
)",lstm_woattn_ohlcv_APLLTD.NS,7519.339514,0.075649727,0.780195714,,
39:32.7,"LSTMBaseline(
  (lstm): LSTM(5, 64, batch_first=True)
  (dense): Linear(in_features=64, out_features=1, bias=True)
)",lstm_woattn_ohlcv_ALKEM.NS,133608.0045,0.097003797,0.654804064,,
40:54.9,"LSTMBaseline(
  (lstm): LSTM(5, 64, batch_first=True)
  (dense): Linear(in_features=64, out_features=1, bias=True)
)",lstm_woattn_ohlcv_APOLLOHOSP.NS,104983.6936,0.110424087,0.931842233,,
42:16.7,"LSTMBaseline(
  (lstm): LSTM(5, 64, batch_first=True)
  (dense): Linear(in_features=64, out_features=1, bias=True)
)",lstm_woattn_ohlcv_AUROPHARMA.NS,7448.584209,0.093480845,0.616751287,,
43:38.2,"LSTMBaseline(
  (lstm): LSTM(5, 64, batch_first=True)
  (dense): Linear(in_features=64, out_features=1, bias=True)
)",lstm_woattn_ohlcv_BIOCON.NS,660.9732762,0.066522387,0.889545091,,
44:59.6,"LSTMBaseline(
  (lstm): LSTM(5, 64, batch_first=True)
  (dense): Linear(in_features=64, out_features=1, bias=True)
)",lstm_woattn_ohlcv_CADILAHC.NS,2067.330706,0.080032037,0.808510615,,
46:21.9,"LSTMBaseline(
  (lstm): LSTM(5, 64, batch_first=True)
  (dense): Linear(in_features=64, out_features=1, bias=True)
)",lstm_woattn_ohlcv_CIPLA.NS,4002.138363,0.06434539,0.8499409,,
47:44.9,"LSTMBaseline(
  (lstm): LSTM(5, 64, batch_first=True)
  (dense): Linear(in_features=64, out_features=1, bias=True)
)",lstm_woattn_ohlcv_DIVISLAB.NS,53137.8235,0.079545924,0.971678027,,
49:06.6,"LSTMBaseline(
  (lstm): LSTM(5, 64, batch_first=True)
  (dense): Linear(in_features=64, out_features=1, bias=True)
)",lstm_woattn_ohlcv_LALPATHLAB.NS,51679.31694,0.082671558,0.943083634,,
50:28.7,"LSTMBaseline(
  (lstm): LSTM(5, 64, batch_first=True)
  (dense): Linear(in_features=64, out_features=1, bias=True)
)",lstm_woattn_ohlcv_DRREDDY.NS,304369.0828,0.10652435,0.752753588,,
51:50.6,"LSTMBaseline(
  (lstm): LSTM(5, 64, batch_first=True)
  (dense): Linear(in_features=64, out_features=1, bias=True)
)",lstm_woattn_ohlcv_GLENMARK.NS,9115.592566,0.098220337,0.369095383,,
53:12.8,"LSTMBaseline(
  (lstm): LSTM(5, 64, batch_first=True)
  (dense): Linear(in_features=64, out_features=1, bias=True)
)",lstm_woattn_ohlcv_GRANULES.NS,626.2785381,0.093276431,0.945026804,,
54:34.9,"LSTMBaseline(
  (lstm): LSTM(5, 64, batch_first=True)
  (dense): Linear(in_features=64, out_features=1, bias=True)
)",lstm_woattn_ohlcv_IPCALAB.NS,3809.618488,0.07328893,0.96489555,,
55:57.1,"LSTMBaseline(
  (lstm): LSTM(5, 64, batch_first=True)
  (dense): Linear(in_features=64, out_features=1, bias=True)
)",lstm_woattn_ohlcv_LAURUSLABS.NS,1734.645422,0.090745948,0.952820654,,
57:19.6,"LSTMBaseline(
  (lstm): LSTM(5, 64, batch_first=True)
  (dense): Linear(in_features=64, out_features=1, bias=True)
)",lstm_woattn_ohlcv_LUPIN.NS,30715.89824,0.086541032,-0.431959089,,
58:05.1,"LSTMBaseline(
  (lstm): LSTM(5, 64, batch_first=True)
  (dense): Linear(in_features=64, out_features=1, bias=True)
)",lstm_woattn_ohlcv_METROPOLIS.NS,101588.9038,0.141180609,0.757095823,,
59:28.8,"LSTMBaseline(
  (lstm): LSTM(5, 64, batch_first=True)
  (dense): Linear(in_features=64, out_features=1, bias=True)
)",lstm_woattn_ohlcv_PFIZER.NS,180265.4824,0.106153434,0.887389849,,
00:51.4,"LSTMBaseline(
  (lstm): LSTM(5, 64, batch_first=True)
  (dense): Linear(in_features=64, out_features=1, bias=True)
)",lstm_woattn_ohlcv_STAR.NS,15026.67071,0.123528428,0.613943764,,
02:14.9,"LSTMBaseline(
  (lstm): LSTM(5, 64, batch_first=True)
  (dense): Linear(in_features=64, out_features=1, bias=True)
)",lstm_woattn_ohlcv_SUNPHARMA.NS,4075.51656,0.076400432,0.742554668,,
03:37.8,"LSTMBaseline(
  (lstm): LSTM(5, 64, batch_first=True)
  (dense): Linear(in_features=64, out_features=1, bias=True)
)",lstm_woattn_ohlcv_TORNTPHARM.NS,52235.22146,0.080340937,0.867575168,,
04:59.9,"LSTMBaseline(
  (lstm): LSTM(5, 64, batch_first=True)
  (dense): Linear(in_features=64, out_features=1, bias=True)
)",lstm_woattn_ohlcv_COFORGE.NS,155311.0349,0.121512406,0.928134509,,
06:22.0,"LSTMBaseline(
  (lstm): LSTM(5, 64, batch_first=True)
  (dense): Linear(in_features=64, out_features=1, bias=True)
)",lstm_woattn_ohlcv_HCLTECH.NS,3554.894257,0.059489116,0.948182009,,
07:44.6,"LSTMBaseline(
  (lstm): LSTM(5, 64, batch_first=True)
  (dense): Linear(in_features=64, out_features=1, bias=True)
)",lstm_woattn_ohlcv_INFY.NS,6321.136273,0.068805898,0.963936931,,
09:08.6,"LSTMBaseline(
  (lstm): LSTM(5, 64, batch_first=True)
  (dense): Linear(in_features=64, out_features=1, bias=True)
)",lstm_woattn_ohlcv_LTTS.NS,100138.3045,0.100719215,0.932047834,,
35:20.6,"LSTMBaseline(
  (lstm): LSTM(5, 64, batch_first=True)
  (dense): Linear(in_features=64, out_features=1, bias=True)
)",lstm_woattn_ohlcv_UCOBANK.NS,5.392445568,0.103714253,0.90140067,,
36:42.4,"LSTMBaseline(
  (lstm): LSTM(5, 64, batch_first=True)
  (dense): Linear(in_features=64, out_features=1, bias=True)
)",lstm_woattn_ohlcv_UNIONBANK.NS,131.1497401,0.117632241,0.92700926,,
38:09.7,"LSTMBaseline(
  (lstm): LSTM(5, 64, batch_first=True)
  (dense): Linear(in_features=64, out_features=1, bias=True)
)",lstm_woattn_ohlcv_APLLTD.NS,7519.339514,0.075649727,0.780195714,,
39:32.7,"LSTMBaseline(
  (lstm): LSTM(5, 64, batch_first=True)
  (dense): Linear(in_features=64, out_features=1, bias=True)
)",lstm_woattn_ohlcv_ALKEM.NS,133608.0045,0.097003797,0.654804064,,
40:54.9,"LSTMBaseline(
  (lstm): LSTM(5, 64, batch_first=True)
  (dense): Linear(in_features=64, out_features=1, bias=True)
)",lstm_woattn_ohlcv_APOLLOHOSP.NS,104983.6936,0.110424087,0.931842233,,
42:16.7,"LSTMBaseline(
  (lstm): LSTM(5, 64, batch_first=True)
  (dense): Linear(in_features=64, out_features=1, bias=True)
)",lstm_woattn_ohlcv_AUROPHARMA.NS,7448.584209,0.093480845,0.616751287,,
43:38.2,"LSTMBaseline(
  (lstm): LSTM(5, 64, batch_first=True)
  (dense): Linear(in_features=64, out_features=1, bias=True)
)",lstm_woattn_ohlcv_BIOCON.NS,660.9732762,0.066522387,0.889545091,,
44:59.6,"LSTMBaseline(
  (lstm): LSTM(5, 64, batch_first=True)
  (dense): Linear(in_features=64, out_features=1, bias=True)
)",lstm_woattn_ohlcv_CADILAHC.NS,2067.330706,0.080032037,0.808510615,,
46:21.9,"LSTMBaseline(
  (lstm): LSTM(5, 64, batch_first=True)
  (dense): Linear(in_features=64, out_features=1, bias=True)
)",lstm_woattn_ohlcv_CIPLA.NS,4002.138363,0.06434539,0.8499409,,
47:44.9,"LSTMBaseline(
  (lstm): LSTM(5, 64, batch_first=True)
  (dense): Linear(in_features=64, out_features=1, bias=True)
)",lstm_woattn_ohlcv_DIVISLAB.NS,53137.8235,0.079545924,0.971678027,,
49:06.6,"LSTMBaseline(
  (lstm): LSTM(5, 64, batch_first=True)
  (dense): Linear(in_features=64, out_features=1, bias=True)
)",lstm_woattn_ohlcv_LALPATHLAB.NS,51679.31694,0.082671558,0.943083634,,
50:28.7,"LSTMBaseline(
  (lstm): LSTM(5, 64, batch_first=True)
  (dense): Linear(in_features=64, out_features=1, bias=True)
)",lstm_woattn_ohlcv_DRREDDY.NS,304369.0828,0.10652435,0.752753588,,
51:50.6,"LSTMBaseline(
  (lstm): LSTM(5, 64, batch_first=True)
  (dense): Linear(in_features=64, out_features=1, bias=True)
)",lstm_woattn_ohlcv_GLENMARK.NS,9115.592566,0.098220337,0.369095383,,
53:12.8,"LSTMBaseline(
  (lstm): LSTM(5, 64, batch_first=True)
  (dense): Linear(in_features=64, out_features=1, bias=True)
)",lstm_woattn_ohlcv_GRANULES.NS,626.2785381,0.093276431,0.945026804,,
54:34.9,"LSTMBaseline(
  (lstm): LSTM(5, 64, batch_first=True)
  (dense): Linear(in_features=64, out_features=1, bias=True)
)",lstm_woattn_ohlcv_IPCALAB.NS,3809.618488,0.07328893,0.96489555,,
55:57.1,"LSTMBaseline(
  (lstm): LSTM(5, 64, batch_first=True)
  (dense): Linear(in_features=64, out_features=1, bias=True)
)",lstm_woattn_ohlcv_LAURUSLABS.NS,1734.645422,0.090745948,0.952820654,,
57:19.6,"LSTMBaseline(
  (lstm): LSTM(5, 64, batch_first=True)
  (dense): Linear(in_features=64, out_features=1, bias=True)
)",lstm_woattn_ohlcv_LUPIN.NS,30715.89824,0.086541032,-0.431959089,,
58:05.1,"LSTMBaseline(
  (lstm): LSTM(5, 64, batch_first=True)
  (dense): Linear(in_features=64, out_features=1, bias=True)
)",lstm_woattn_ohlcv_METROPOLIS.NS,101588.9038,0.141180609,0.757095823,,
59:28.8,"LSTMBaseline(
  (lstm): LSTM(5, 64, batch_first=True)
  (dense): Linear(in_features=64, out_features=1, bias=True)
)",lstm_woattn_ohlcv_PFIZER.NS,180265.4824,0.106153434,0.887389849,,
00:51.4,"LSTMBaseline(
  (lstm): LSTM(5, 64, batch_first=True)
  (dense): Linear(in_features=64, out_features=1, bias=True)
)",lstm_woattn_ohlcv_STAR.NS,15026.67071,0.123528428,0.613943764,,
02:14.9,"LSTMBaseline(
  (lstm): LSTM(5, 64, batch_first=True)
  (dense): Linear(in_features=64, out_features=1, bias=True)
)",lstm_woattn_ohlcv_SUNPHARMA.NS,4075.51656,0.076400432,0.742554668,,
03:37.8,"LSTMBaseline(
  (lstm): LSTM(5, 64, batch_first=True)
  (dense): Linear(in_features=64, out_features=1, bias=True)
)",lstm_woattn_ohlcv_TORNTPHARM.NS,52235.22146,0.080340937,0.867575168,,
04:59.9,"LSTMBaseline(
  (lstm): LSTM(5, 64, batch_first=True)
  (dense): Linear(in_features=64, out_features=1, bias=True)
)",lstm_woattn_ohlcv_COFORGE.NS,155311.0349,0.121512406,0.928134509,,
06:22.0,"LSTMBaseline(
  (lstm): LSTM(5, 64, batch_first=True)
  (dense): Linear(in_features=64, out_features=1, bias=True)
)",lstm_woattn_ohlcv_HCLTECH.NS,3554.894257,0.059489116,0.948182009,,
07:44.6,"LSTMBaseline(
  (lstm): LSTM(5, 64, batch_first=True)
  (dense): Linear(in_features=64, out_features=1, bias=True)
)",lstm_woattn_ohlcv_INFY.NS,6321.136273,0.068805898,0.963936931,,
09:08.6,"LSTMBaseline(
  (lstm): LSTM(5, 64, batch_first=True)
  (dense): Linear(in_features=64, out_features=1, bias=True)
)",lstm_woattn_ohlcv_LTTS.NS,100138.3045,0.100719215,0.932047834,,
10:30.4,"LSTMBaseline(
  (lstm): LSTM(5, 64, batch_first=True)
  (dense): Linear(in_features=64, out_features=1, bias=True)
)",lstm_woattn_ohlcv_LTI.NS,158764.1384,0.102883133,0.945430086,,
35:20.6,"LSTMBaseline(
  (lstm): LSTM(5, 64, batch_first=True)
  (dense): Linear(in_features=64, out_features=1, bias=True)
)",lstm_woattn_ohlcv_UCOBANK.NS,5.392445568,0.103714253,0.90140067,,
36:42.4,"LSTMBaseline(
  (lstm): LSTM(5, 64, batch_first=True)
  (dense): Linear(in_features=64, out_features=1, bias=True)
)",lstm_woattn_ohlcv_UNIONBANK.NS,131.1497401,0.117632241,0.92700926,,
38:09.7,"LSTMBaseline(
  (lstm): LSTM(5, 64, batch_first=True)
  (dense): Linear(in_features=64, out_features=1, bias=True)
)",lstm_woattn_ohlcv_APLLTD.NS,7519.339514,0.075649727,0.780195714,,
39:32.7,"LSTMBaseline(
  (lstm): LSTM(5, 64, batch_first=True)
  (dense): Linear(in_features=64, out_features=1, bias=True)
)",lstm_woattn_ohlcv_ALKEM.NS,133608.0045,0.097003797,0.654804064,,
40:54.9,"LSTMBaseline(
  (lstm): LSTM(5, 64, batch_first=True)
  (dense): Linear(in_features=64, out_features=1, bias=True)
)",lstm_woattn_ohlcv_APOLLOHOSP.NS,104983.6936,0.110424087,0.931842233,,
42:16.7,"LSTMBaseline(
  (lstm): LSTM(5, 64, batch_first=True)
  (dense): Linear(in_features=64, out_features=1, bias=True)
)",lstm_woattn_ohlcv_AUROPHARMA.NS,7448.584209,0.093480845,0.616751287,,
43:38.2,"LSTMBaseline(
  (lstm): LSTM(5, 64, batch_first=True)
  (dense): Linear(in_features=64, out_features=1, bias=True)
)",lstm_woattn_ohlcv_BIOCON.NS,660.9732762,0.066522387,0.889545091,,
44:59.6,"LSTMBaseline(
  (lstm): LSTM(5, 64, batch_first=True)
  (dense): Linear(in_features=64, out_features=1, bias=True)
)",lstm_woattn_ohlcv_CADILAHC.NS,2067.330706,0.080032037,0.808510615,,
46:21.9,"LSTMBaseline(
  (lstm): LSTM(5, 64, batch_first=True)
  (dense): Linear(in_features=64, out_features=1, bias=True)
)",lstm_woattn_ohlcv_CIPLA.NS,4002.138363,0.06434539,0.8499409,,
47:44.9,"LSTMBaseline(
  (lstm): LSTM(5, 64, batch_first=True)
  (dense): Linear(in_features=64, out_features=1, bias=True)
)",lstm_woattn_ohlcv_DIVISLAB.NS,53137.8235,0.079545924,0.971678027,,
49:06.6,"LSTMBaseline(
  (lstm): LSTM(5, 64, batch_first=True)
  (dense): Linear(in_features=64, out_features=1, bias=True)
)",lstm_woattn_ohlcv_LALPATHLAB.NS,51679.31694,0.082671558,0.943083634,,
50:28.7,"LSTMBaseline(
  (lstm): LSTM(5, 64, batch_first=True)
  (dense): Linear(in_features=64, out_features=1, bias=True)
)",lstm_woattn_ohlcv_DRREDDY.NS,304369.0828,0.10652435,0.752753588,,
51:50.6,"LSTMBaseline(
  (lstm): LSTM(5, 64, batch_first=True)
  (dense): Linear(in_features=64, out_features=1, bias=True)
)",lstm_woattn_ohlcv_GLENMARK.NS,9115.592566,0.098220337,0.369095383,,
53:12.8,"LSTMBaseline(
  (lstm): LSTM(5, 64, batch_first=True)
  (dense): Linear(in_features=64, out_features=1, bias=True)
)",lstm_woattn_ohlcv_GRANULES.NS,626.2785381,0.093276431,0.945026804,,
54:34.9,"LSTMBaseline(
  (lstm): LSTM(5, 64, batch_first=True)
  (dense): Linear(in_features=64, out_features=1, bias=True)
)",lstm_woattn_ohlcv_IPCALAB.NS,3809.618488,0.07328893,0.96489555,,
55:57.1,"LSTMBaseline(
  (lstm): LSTM(5, 64, batch_first=True)
  (dense): Linear(in_features=64, out_features=1, bias=True)
)",lstm_woattn_ohlcv_LAURUSLABS.NS,1734.645422,0.090745948,0.952820654,,
57:19.6,"LSTMBaseline(
  (lstm): LSTM(5, 64, batch_first=True)
  (dense): Linear(in_features=64, out_features=1, bias=True)
)",lstm_woattn_ohlcv_LUPIN.NS,30715.89824,0.086541032,-0.431959089,,
58:05.1,"LSTMBaseline(
  (lstm): LSTM(5, 64, batch_first=True)
  (dense): Linear(in_features=64, out_features=1, bias=True)
)",lstm_woattn_ohlcv_METROPOLIS.NS,101588.9038,0.141180609,0.757095823,,
59:28.8,"LSTMBaseline(
  (lstm): LSTM(5, 64, batch_first=True)
  (dense): Linear(in_features=64, out_features=1, bias=True)
)",lstm_woattn_ohlcv_PFIZER.NS,180265.4824,0.106153434,0.887389849,,
00:51.4,"LSTMBaseline(
  (lstm): LSTM(5, 64, batch_first=True)
  (dense): Linear(in_features=64, out_features=1, bias=True)
)",lstm_woattn_ohlcv_STAR.NS,15026.67071,0.123528428,0.613943764,,
02:14.9,"LSTMBaseline(
  (lstm): LSTM(5, 64, batch_first=True)
  (dense): Linear(in_features=64, out_features=1, bias=True)
)",lstm_woattn_ohlcv_SUNPHARMA.NS,4075.51656,0.076400432,0.742554668,,
03:37.8,"LSTMBaseline(
  (lstm): LSTM(5, 64, batch_first=True)
  (dense): Linear(in_features=64, out_features=1, bias=True)
)",lstm_woattn_ohlcv_TORNTPHARM.NS,52235.22146,0.080340937,0.867575168,,
04:59.9,"LSTMBaseline(
  (lstm): LSTM(5, 64, batch_first=True)
  (dense): Linear(in_features=64, out_features=1, bias=True)
)",lstm_woattn_ohlcv_COFORGE.NS,155311.0349,0.121512406,0.928134509,,
06:22.0,"LSTMBaseline(
  (lstm): LSTM(5, 64, batch_first=True)
  (dense): Linear(in_features=64, out_features=1, bias=True)
)",lstm_woattn_ohlcv_HCLTECH.NS,3554.894257,0.059489116,0.948182009,,
07:44.6,"LSTMBaseline(
  (lstm): LSTM(5, 64, batch_first=True)
  (dense): Linear(in_features=64, out_features=1, bias=True)
)",lstm_woattn_ohlcv_INFY.NS,6321.136273,0.068805898,0.963936931,,
09:08.6,"LSTMBaseline(
  (lstm): LSTM(5, 64, batch_first=True)
  (dense): Linear(in_features=64, out_features=1, bias=True)
)",lstm_woattn_ohlcv_LTTS.NS,100138.3045,0.100719215,0.932047834,,
10:30.4,"LSTMBaseline(
  (lstm): LSTM(5, 64, batch_first=True)
  (dense): Linear(in_features=64, out_features=1, bias=True)
)",lstm_woattn_ohlcv_LTI.NS,158764.1384,0.102883133,0.945430086,,
11:52.7,"LSTMBaseline(
  (lstm): LSTM(5, 64, batch_first=True)
  (dense): Linear(in_features=64, out_features=1, bias=True)
)",lstm_woattn_ohlcv_MINDTREE.NS,113143.4685,0.120352739,0.91624515,,
35:20.6,"LSTMBaseline(
  (lstm): LSTM(5, 64, batch_first=True)
  (dense): Linear(in_features=64, out_features=1, bias=True)
)",lstm_woattn_ohlcv_UCOBANK.NS,5.392445568,0.103714253,0.90140067,,
36:42.4,"LSTMBaseline(
  (lstm): LSTM(5, 64, batch_first=True)
  (dense): Linear(in_features=64, out_features=1, bias=True)
)",lstm_woattn_ohlcv_UNIONBANK.NS,131.1497401,0.117632241,0.92700926,,
38:09.7,"LSTMBaseline(
  (lstm): LSTM(5, 64, batch_first=True)
  (dense): Linear(in_features=64, out_features=1, bias=True)
)",lstm_woattn_ohlcv_APLLTD.NS,7519.339514,0.075649727,0.780195714,,
39:32.7,"LSTMBaseline(
  (lstm): LSTM(5, 64, batch_first=True)
  (dense): Linear(in_features=64, out_features=1, bias=True)
)",lstm_woattn_ohlcv_ALKEM.NS,133608.0045,0.097003797,0.654804064,,
40:54.9,"LSTMBaseline(
  (lstm): LSTM(5, 64, batch_first=True)
  (dense): Linear(in_features=64, out_features=1, bias=True)
)",lstm_woattn_ohlcv_APOLLOHOSP.NS,104983.6936,0.110424087,0.931842233,,
42:16.7,"LSTMBaseline(
  (lstm): LSTM(5, 64, batch_first=True)
  (dense): Linear(in_features=64, out_features=1, bias=True)
)",lstm_woattn_ohlcv_AUROPHARMA.NS,7448.584209,0.093480845,0.616751287,,
43:38.2,"LSTMBaseline(
  (lstm): LSTM(5, 64, batch_first=True)
  (dense): Linear(in_features=64, out_features=1, bias=True)
)",lstm_woattn_ohlcv_BIOCON.NS,660.9732762,0.066522387,0.889545091,,
44:59.6,"LSTMBaseline(
  (lstm): LSTM(5, 64, batch_first=True)
  (dense): Linear(in_features=64, out_features=1, bias=True)
)",lstm_woattn_ohlcv_CADILAHC.NS,2067.330706,0.080032037,0.808510615,,
46:21.9,"LSTMBaseline(
  (lstm): LSTM(5, 64, batch_first=True)
  (dense): Linear(in_features=64, out_features=1, bias=True)
)",lstm_woattn_ohlcv_CIPLA.NS,4002.138363,0.06434539,0.8499409,,
47:44.9,"LSTMBaseline(
  (lstm): LSTM(5, 64, batch_first=True)
  (dense): Linear(in_features=64, out_features=1, bias=True)
)",lstm_woattn_ohlcv_DIVISLAB.NS,53137.8235,0.079545924,0.971678027,,
49:06.6,"LSTMBaseline(
  (lstm): LSTM(5, 64, batch_first=True)
  (dense): Linear(in_features=64, out_features=1, bias=True)
)",lstm_woattn_ohlcv_LALPATHLAB.NS,51679.31694,0.082671558,0.943083634,,
50:28.7,"LSTMBaseline(
  (lstm): LSTM(5, 64, batch_first=True)
  (dense): Linear(in_features=64, out_features=1, bias=True)
)",lstm_woattn_ohlcv_DRREDDY.NS,304369.0828,0.10652435,0.752753588,,
51:50.6,"LSTMBaseline(
  (lstm): LSTM(5, 64, batch_first=True)
  (dense): Linear(in_features=64, out_features=1, bias=True)
)",lstm_woattn_ohlcv_GLENMARK.NS,9115.592566,0.098220337,0.369095383,,
53:12.8,"LSTMBaseline(
  (lstm): LSTM(5, 64, batch_first=True)
  (dense): Linear(in_features=64, out_features=1, bias=True)
)",lstm_woattn_ohlcv_GRANULES.NS,626.2785381,0.093276431,0.945026804,,
54:34.9,"LSTMBaseline(
  (lstm): LSTM(5, 64, batch_first=True)
  (dense): Linear(in_features=64, out_features=1, bias=True)
)",lstm_woattn_ohlcv_IPCALAB.NS,3809.618488,0.07328893,0.96489555,,
55:57.1,"LSTMBaseline(
  (lstm): LSTM(5, 64, batch_first=True)
  (dense): Linear(in_features=64, out_features=1, bias=True)
)",lstm_woattn_ohlcv_LAURUSLABS.NS,1734.645422,0.090745948,0.952820654,,
57:19.6,"LSTMBaseline(
  (lstm): LSTM(5, 64, batch_first=True)
  (dense): Linear(in_features=64, out_features=1, bias=True)
)",lstm_woattn_ohlcv_LUPIN.NS,30715.89824,0.086541032,-0.431959089,,
58:05.1,"LSTMBaseline(
  (lstm): LSTM(5, 64, batch_first=True)
  (dense): Linear(in_features=64, out_features=1, bias=True)
)",lstm_woattn_ohlcv_METROPOLIS.NS,101588.9038,0.141180609,0.757095823,,
59:28.8,"LSTMBaseline(
  (lstm): LSTM(5, 64, batch_first=True)
  (dense): Linear(in_features=64, out_features=1, bias=True)
)",lstm_woattn_ohlcv_PFIZER.NS,180265.4824,0.106153434,0.887389849,,
00:51.4,"LSTMBaseline(
  (lstm): LSTM(5, 64, batch_first=True)
  (dense): Linear(in_features=64, out_features=1, bias=True)
)",lstm_woattn_ohlcv_STAR.NS,15026.67071,0.123528428,0.613943764,,
02:14.9,"LSTMBaseline(
  (lstm): LSTM(5, 64, batch_first=True)
  (dense): Linear(in_features=64, out_features=1, bias=True)
)",lstm_woattn_ohlcv_SUNPHARMA.NS,4075.51656,0.076400432,0.742554668,,
03:37.8,"LSTMBaseline(
  (lstm): LSTM(5, 64, batch_first=True)
  (dense): Linear(in_features=64, out_features=1, bias=True)
)",lstm_woattn_ohlcv_TORNTPHARM.NS,52235.22146,0.080340937,0.867575168,,
04:59.9,"LSTMBaseline(
  (lstm): LSTM(5, 64, batch_first=True)
  (dense): Linear(in_features=64, out_features=1, bias=True)
)",lstm_woattn_ohlcv_COFORGE.NS,155311.0349,0.121512406,0.928134509,,
06:22.0,"LSTMBaseline(
  (lstm): LSTM(5, 64, batch_first=True)
  (dense): Linear(in_features=64, out_features=1, bias=True)
)",lstm_woattn_ohlcv_HCLTECH.NS,3554.894257,0.059489116,0.948182009,,
07:44.6,"LSTMBaseline(
  (lstm): LSTM(5, 64, batch_first=True)
  (dense): Linear(in_features=64, out_features=1, bias=True)
)",lstm_woattn_ohlcv_INFY.NS,6321.136273,0.068805898,0.963936931,,
09:08.6,"LSTMBaseline(
  (lstm): LSTM(5, 64, batch_first=True)
  (dense): Linear(in_features=64, out_features=1, bias=True)
)",lstm_woattn_ohlcv_LTTS.NS,100138.3045,0.100719215,0.932047834,,
10:30.4,"LSTMBaseline(
  (lstm): LSTM(5, 64, batch_first=True)
  (dense): Linear(in_features=64, out_features=1, bias=True)
)",lstm_woattn_ohlcv_LTI.NS,158764.1384,0.102883133,0.945430086,,
11:52.7,"LSTMBaseline(
  (lstm): LSTM(5, 64, batch_first=True)
  (dense): Linear(in_features=64, out_features=1, bias=True)
)",lstm_woattn_ohlcv_MINDTREE.NS,113143.4685,0.120352739,0.91624515,,
13:14.9,"LSTMBaseline(
  (lstm): LSTM(5, 64, batch_first=True)
  (dense): Linear(in_features=64, out_features=1, bias=True)
)",lstm_woattn_ohlcv_MPHASIS.NS,27487.29485,0.085785478,0.954582947,,
35:20.6,"LSTMBaseline(
  (lstm): LSTM(5, 64, batch_first=True)
  (dense): Linear(in_features=64, out_features=1, bias=True)
)",lstm_woattn_ohlcv_UCOBANK.NS,5.392445568,0.103714253,0.90140067,,
36:42.4,"LSTMBaseline(
  (lstm): LSTM(5, 64, batch_first=True)
  (dense): Linear(in_features=64, out_features=1, bias=True)
)",lstm_woattn_ohlcv_UNIONBANK.NS,131.1497401,0.117632241,0.92700926,,
38:09.7,"LSTMBaseline(
  (lstm): LSTM(5, 64, batch_first=True)
  (dense): Linear(in_features=64, out_features=1, bias=True)
)",lstm_woattn_ohlcv_APLLTD.NS,7519.339514,0.075649727,0.780195714,,
39:32.7,"LSTMBaseline(
  (lstm): LSTM(5, 64, batch_first=True)
  (dense): Linear(in_features=64, out_features=1, bias=True)
)",lstm_woattn_ohlcv_ALKEM.NS,133608.0045,0.097003797,0.654804064,,
40:54.9,"LSTMBaseline(
  (lstm): LSTM(5, 64, batch_first=True)
  (dense): Linear(in_features=64, out_features=1, bias=True)
)",lstm_woattn_ohlcv_APOLLOHOSP.NS,104983.6936,0.110424087,0.931842233,,
42:16.7,"LSTMBaseline(
  (lstm): LSTM(5, 64, batch_first=True)
  (dense): Linear(in_features=64, out_features=1, bias=True)
)",lstm_woattn_ohlcv_AUROPHARMA.NS,7448.584209,0.093480845,0.616751287,,
43:38.2,"LSTMBaseline(
  (lstm): LSTM(5, 64, batch_first=True)
  (dense): Linear(in_features=64, out_features=1, bias=True)
)",lstm_woattn_ohlcv_BIOCON.NS,660.9732762,0.066522387,0.889545091,,
44:59.6,"LSTMBaseline(
  (lstm): LSTM(5, 64, batch_first=True)
  (dense): Linear(in_features=64, out_features=1, bias=True)
)",lstm_woattn_ohlcv_CADILAHC.NS,2067.330706,0.080032037,0.808510615,,
46:21.9,"LSTMBaseline(
  (lstm): LSTM(5, 64, batch_first=True)
  (dense): Linear(in_features=64, out_features=1, bias=True)
)",lstm_woattn_ohlcv_CIPLA.NS,4002.138363,0.06434539,0.8499409,,
47:44.9,"LSTMBaseline(
  (lstm): LSTM(5, 64, batch_first=True)
  (dense): Linear(in_features=64, out_features=1, bias=True)
)",lstm_woattn_ohlcv_DIVISLAB.NS,53137.8235,0.079545924,0.971678027,,
49:06.6,"LSTMBaseline(
  (lstm): LSTM(5, 64, batch_first=True)
  (dense): Linear(in_features=64, out_features=1, bias=True)
)",lstm_woattn_ohlcv_LALPATHLAB.NS,51679.31694,0.082671558,0.943083634,,
50:28.7,"LSTMBaseline(
  (lstm): LSTM(5, 64, batch_first=True)
  (dense): Linear(in_features=64, out_features=1, bias=True)
)",lstm_woattn_ohlcv_DRREDDY.NS,304369.0828,0.10652435,0.752753588,,
51:50.6,"LSTMBaseline(
  (lstm): LSTM(5, 64, batch_first=True)
  (dense): Linear(in_features=64, out_features=1, bias=True)
)",lstm_woattn_ohlcv_GLENMARK.NS,9115.592566,0.098220337,0.369095383,,
53:12.8,"LSTMBaseline(
  (lstm): LSTM(5, 64, batch_first=True)
  (dense): Linear(in_features=64, out_features=1, bias=True)
)",lstm_woattn_ohlcv_GRANULES.NS,626.2785381,0.093276431,0.945026804,,
54:34.9,"LSTMBaseline(
  (lstm): LSTM(5, 64, batch_first=True)
  (dense): Linear(in_features=64, out_features=1, bias=True)
)",lstm_woattn_ohlcv_IPCALAB.NS,3809.618488,0.07328893,0.96489555,,
55:57.1,"LSTMBaseline(
  (lstm): LSTM(5, 64, batch_first=True)
  (dense): Linear(in_features=64, out_features=1, bias=True)
)",lstm_woattn_ohlcv_LAURUSLABS.NS,1734.645422,0.090745948,0.952820654,,
57:19.6,"LSTMBaseline(
  (lstm): LSTM(5, 64, batch_first=True)
  (dense): Linear(in_features=64, out_features=1, bias=True)
)",lstm_woattn_ohlcv_LUPIN.NS,30715.89824,0.086541032,-0.431959089,,
58:05.1,"LSTMBaseline(
  (lstm): LSTM(5, 64, batch_first=True)
  (dense): Linear(in_features=64, out_features=1, bias=True)
)",lstm_woattn_ohlcv_METROPOLIS.NS,101588.9038,0.141180609,0.757095823,,
59:28.8,"LSTMBaseline(
  (lstm): LSTM(5, 64, batch_first=True)
  (dense): Linear(in_features=64, out_features=1, bias=True)
)",lstm_woattn_ohlcv_PFIZER.NS,180265.4824,0.106153434,0.887389849,,
00:51.4,"LSTMBaseline(
  (lstm): LSTM(5, 64, batch_first=True)
  (dense): Linear(in_features=64, out_features=1, bias=True)
)",lstm_woattn_ohlcv_STAR.NS,15026.67071,0.123528428,0.613943764,,
02:14.9,"LSTMBaseline(
  (lstm): LSTM(5, 64, batch_first=True)
  (dense): Linear(in_features=64, out_features=1, bias=True)
)",lstm_woattn_ohlcv_SUNPHARMA.NS,4075.51656,0.076400432,0.742554668,,
03:37.8,"LSTMBaseline(
  (lstm): LSTM(5, 64, batch_first=True)
  (dense): Linear(in_features=64, out_features=1, bias=True)
)",lstm_woattn_ohlcv_TORNTPHARM.NS,52235.22146,0.080340937,0.867575168,,
04:59.9,"LSTMBaseline(
  (lstm): LSTM(5, 64, batch_first=True)
  (dense): Linear(in_features=64, out_features=1, bias=True)
)",lstm_woattn_ohlcv_COFORGE.NS,155311.0349,0.121512406,0.928134509,,
06:22.0,"LSTMBaseline(
  (lstm): LSTM(5, 64, batch_first=True)
  (dense): Linear(in_features=64, out_features=1, bias=True)
)",lstm_woattn_ohlcv_HCLTECH.NS,3554.894257,0.059489116,0.948182009,,
07:44.6,"LSTMBaseline(
  (lstm): LSTM(5, 64, batch_first=True)
  (dense): Linear(in_features=64, out_features=1, bias=True)
)",lstm_woattn_ohlcv_INFY.NS,6321.136273,0.068805898,0.963936931,,
09:08.6,"LSTMBaseline(
  (lstm): LSTM(5, 64, batch_first=True)
  (dense): Linear(in_features=64, out_features=1, bias=True)
)",lstm_woattn_ohlcv_LTTS.NS,100138.3045,0.100719215,0.932047834,,
10:30.4,"LSTMBaseline(
  (lstm): LSTM(5, 64, batch_first=True)
  (dense): Linear(in_features=64, out_features=1, bias=True)
)",lstm_woattn_ohlcv_LTI.NS,158764.1384,0.102883133,0.945430086,,
11:52.7,"LSTMBaseline(
  (lstm): LSTM(5, 64, batch_first=True)
  (dense): Linear(in_features=64, out_features=1, bias=True)
)",lstm_woattn_ohlcv_MINDTREE.NS,113143.4685,0.120352739,0.91624515,,
13:14.9,"LSTMBaseline(
  (lstm): LSTM(5, 64, batch_first=True)
  (dense): Linear(in_features=64, out_features=1, bias=True)
)",lstm_woattn_ohlcv_MPHASIS.NS,27487.29485,0.085785478,0.954582947,,
14:37.0,"LSTMBaseline(
  (lstm): LSTM(5, 64, batch_first=True)
  (dense): Linear(in_features=64, out_features=1, bias=True)
)",lstm_woattn_ohlcv_TCS.NS,39312.81444,0.068999661,0.93250205,,
35:20.6,"LSTMBaseline(
  (lstm): LSTM(5, 64, batch_first=True)
  (dense): Linear(in_features=64, out_features=1, bias=True)
)",lstm_woattn_ohlcv_UCOBANK.NS,5.392445568,0.103714253,0.90140067,,
36:42.4,"LSTMBaseline(
  (lstm): LSTM(5, 64, batch_first=True)
  (dense): Linear(in_features=64, out_features=1, bias=True)
)",lstm_woattn_ohlcv_UNIONBANK.NS,131.1497401,0.117632241,0.92700926,,
38:09.7,"LSTMBaseline(
  (lstm): LSTM(5, 64, batch_first=True)
  (dense): Linear(in_features=64, out_features=1, bias=True)
)",lstm_woattn_ohlcv_APLLTD.NS,7519.339514,0.075649727,0.780195714,,
39:32.7,"LSTMBaseline(
  (lstm): LSTM(5, 64, batch_first=True)
  (dense): Linear(in_features=64, out_features=1, bias=True)
)",lstm_woattn_ohlcv_ALKEM.NS,133608.0045,0.097003797,0.654804064,,
40:54.9,"LSTMBaseline(
  (lstm): LSTM(5, 64, batch_first=True)
  (dense): Linear(in_features=64, out_features=1, bias=True)
)",lstm_woattn_ohlcv_APOLLOHOSP.NS,104983.6936,0.110424087,0.931842233,,
42:16.7,"LSTMBaseline(
  (lstm): LSTM(5, 64, batch_first=True)
  (dense): Linear(in_features=64, out_features=1, bias=True)
)",lstm_woattn_ohlcv_AUROPHARMA.NS,7448.584209,0.093480845,0.616751287,,
43:38.2,"LSTMBaseline(
  (lstm): LSTM(5, 64, batch_first=True)
  (dense): Linear(in_features=64, out_features=1, bias=True)
)",lstm_woattn_ohlcv_BIOCON.NS,660.9732762,0.066522387,0.889545091,,
44:59.6,"LSTMBaseline(
  (lstm): LSTM(5, 64, batch_first=True)
  (dense): Linear(in_features=64, out_features=1, bias=True)
)",lstm_woattn_ohlcv_CADILAHC.NS,2067.330706,0.080032037,0.808510615,,
46:21.9,"LSTMBaseline(
  (lstm): LSTM(5, 64, batch_first=True)
  (dense): Linear(in_features=64, out_features=1, bias=True)
)",lstm_woattn_ohlcv_CIPLA.NS,4002.138363,0.06434539,0.8499409,,
47:44.9,"LSTMBaseline(
  (lstm): LSTM(5, 64, batch_first=True)
  (dense): Linear(in_features=64, out_features=1, bias=True)
)",lstm_woattn_ohlcv_DIVISLAB.NS,53137.8235,0.079545924,0.971678027,,
49:06.6,"LSTMBaseline(
  (lstm): LSTM(5, 64, batch_first=True)
  (dense): Linear(in_features=64, out_features=1, bias=True)
)",lstm_woattn_ohlcv_LALPATHLAB.NS,51679.31694,0.082671558,0.943083634,,
50:28.7,"LSTMBaseline(
  (lstm): LSTM(5, 64, batch_first=True)
  (dense): Linear(in_features=64, out_features=1, bias=True)
)",lstm_woattn_ohlcv_DRREDDY.NS,304369.0828,0.10652435,0.752753588,,
51:50.6,"LSTMBaseline(
  (lstm): LSTM(5, 64, batch_first=True)
  (dense): Linear(in_features=64, out_features=1, bias=True)
)",lstm_woattn_ohlcv_GLENMARK.NS,9115.592566,0.098220337,0.369095383,,
53:12.8,"LSTMBaseline(
  (lstm): LSTM(5, 64, batch_first=True)
  (dense): Linear(in_features=64, out_features=1, bias=True)
)",lstm_woattn_ohlcv_GRANULES.NS,626.2785381,0.093276431,0.945026804,,
54:34.9,"LSTMBaseline(
  (lstm): LSTM(5, 64, batch_first=True)
  (dense): Linear(in_features=64, out_features=1, bias=True)
)",lstm_woattn_ohlcv_IPCALAB.NS,3809.618488,0.07328893,0.96489555,,
55:57.1,"LSTMBaseline(
  (lstm): LSTM(5, 64, batch_first=True)
  (dense): Linear(in_features=64, out_features=1, bias=True)
)",lstm_woattn_ohlcv_LAURUSLABS.NS,1734.645422,0.090745948,0.952820654,,
57:19.6,"LSTMBaseline(
  (lstm): LSTM(5, 64, batch_first=True)
  (dense): Linear(in_features=64, out_features=1, bias=True)
)",lstm_woattn_ohlcv_LUPIN.NS,30715.89824,0.086541032,-0.431959089,,
58:05.1,"LSTMBaseline(
  (lstm): LSTM(5, 64, batch_first=True)
  (dense): Linear(in_features=64, out_features=1, bias=True)
)",lstm_woattn_ohlcv_METROPOLIS.NS,101588.9038,0.141180609,0.757095823,,
59:28.8,"LSTMBaseline(
  (lstm): LSTM(5, 64, batch_first=True)
  (dense): Linear(in_features=64, out_features=1, bias=True)
)",lstm_woattn_ohlcv_PFIZER.NS,180265.4824,0.106153434,0.887389849,,
00:51.4,"LSTMBaseline(
  (lstm): LSTM(5, 64, batch_first=True)
  (dense): Linear(in_features=64, out_features=1, bias=True)
)",lstm_woattn_ohlcv_STAR.NS,15026.67071,0.123528428,0.613943764,,
02:14.9,"LSTMBaseline(
  (lstm): LSTM(5, 64, batch_first=True)
  (dense): Linear(in_features=64, out_features=1, bias=True)
)",lstm_woattn_ohlcv_SUNPHARMA.NS,4075.51656,0.076400432,0.742554668,,
03:37.8,"LSTMBaseline(
  (lstm): LSTM(5, 64, batch_first=True)
  (dense): Linear(in_features=64, out_features=1, bias=True)
)",lstm_woattn_ohlcv_TORNTPHARM.NS,52235.22146,0.080340937,0.867575168,,
04:59.9,"LSTMBaseline(
  (lstm): LSTM(5, 64, batch_first=True)
  (dense): Linear(in_features=64, out_features=1, bias=True)
)",lstm_woattn_ohlcv_COFORGE.NS,155311.0349,0.121512406,0.928134509,,
06:22.0,"LSTMBaseline(
  (lstm): LSTM(5, 64, batch_first=True)
  (dense): Linear(in_features=64, out_features=1, bias=True)
)",lstm_woattn_ohlcv_HCLTECH.NS,3554.894257,0.059489116,0.948182009,,
07:44.6,"LSTMBaseline(
  (lstm): LSTM(5, 64, batch_first=True)
  (dense): Linear(in_features=64, out_features=1, bias=True)
)",lstm_woattn_ohlcv_INFY.NS,6321.136273,0.068805898,0.963936931,,
09:08.6,"LSTMBaseline(
  (lstm): LSTM(5, 64, batch_first=True)
  (dense): Linear(in_features=64, out_features=1, bias=True)
)",lstm_woattn_ohlcv_LTTS.NS,100138.3045,0.100719215,0.932047834,,
10:30.4,"LSTMBaseline(
  (lstm): LSTM(5, 64, batch_first=True)
  (dense): Linear(in_features=64, out_features=1, bias=True)
)",lstm_woattn_ohlcv_LTI.NS,158764.1384,0.102883133,0.945430086,,
11:52.7,"LSTMBaseline(
  (lstm): LSTM(5, 64, batch_first=True)
  (dense): Linear(in_features=64, out_features=1, bias=True)
)",lstm_woattn_ohlcv_MINDTREE.NS,113143.4685,0.120352739,0.91624515,,
13:14.9,"LSTMBaseline(
  (lstm): LSTM(5, 64, batch_first=True)
  (dense): Linear(in_features=64, out_features=1, bias=True)
)",lstm_woattn_ohlcv_MPHASIS.NS,27487.29485,0.085785478,0.954582947,,
14:37.0,"LSTMBaseline(
  (lstm): LSTM(5, 64, batch_first=True)
  (dense): Linear(in_features=64, out_features=1, bias=True)
)",lstm_woattn_ohlcv_TCS.NS,39312.81444,0.068999661,0.93250205,,
15:58.7,"LSTMBaseline(
  (lstm): LSTM(5, 64, batch_first=True)
  (dense): Linear(in_features=64, out_features=1, bias=True)
)",lstm_woattn_ohlcv_TECHM.NS,7926.392978,0.084060392,0.922073689,,
35:20.6,"LSTMBaseline(
  (lstm): LSTM(5, 64, batch_first=True)
  (dense): Linear(in_features=64, out_features=1, bias=True)
)",lstm_woattn_ohlcv_UCOBANK.NS,5.392445568,0.103714253,0.90140067,,
36:42.4,"LSTMBaseline(
  (lstm): LSTM(5, 64, batch_first=True)
  (dense): Linear(in_features=64, out_features=1, bias=True)
)",lstm_woattn_ohlcv_UNIONBANK.NS,131.1497401,0.117632241,0.92700926,,
38:09.7,"LSTMBaseline(
  (lstm): LSTM(5, 64, batch_first=True)
  (dense): Linear(in_features=64, out_features=1, bias=True)
)",lstm_woattn_ohlcv_APLLTD.NS,7519.339514,0.075649727,0.780195714,,
39:32.7,"LSTMBaseline(
  (lstm): LSTM(5, 64, batch_first=True)
  (dense): Linear(in_features=64, out_features=1, bias=True)
)",lstm_woattn_ohlcv_ALKEM.NS,133608.0045,0.097003797,0.654804064,,
40:54.9,"LSTMBaseline(
  (lstm): LSTM(5, 64, batch_first=True)
  (dense): Linear(in_features=64, out_features=1, bias=True)
)",lstm_woattn_ohlcv_APOLLOHOSP.NS,104983.6936,0.110424087,0.931842233,,
42:16.7,"LSTMBaseline(
  (lstm): LSTM(5, 64, batch_first=True)
  (dense): Linear(in_features=64, out_features=1, bias=True)
)",lstm_woattn_ohlcv_AUROPHARMA.NS,7448.584209,0.093480845,0.616751287,,
43:38.2,"LSTMBaseline(
  (lstm): LSTM(5, 64, batch_first=True)
  (dense): Linear(in_features=64, out_features=1, bias=True)
)",lstm_woattn_ohlcv_BIOCON.NS,660.9732762,0.066522387,0.889545091,,
44:59.6,"LSTMBaseline(
  (lstm): LSTM(5, 64, batch_first=True)
  (dense): Linear(in_features=64, out_features=1, bias=True)
)",lstm_woattn_ohlcv_CADILAHC.NS,2067.330706,0.080032037,0.808510615,,
46:21.9,"LSTMBaseline(
  (lstm): LSTM(5, 64, batch_first=True)
  (dense): Linear(in_features=64, out_features=1, bias=True)
)",lstm_woattn_ohlcv_CIPLA.NS,4002.138363,0.06434539,0.8499409,,
47:44.9,"LSTMBaseline(
  (lstm): LSTM(5, 64, batch_first=True)
  (dense): Linear(in_features=64, out_features=1, bias=True)
)",lstm_woattn_ohlcv_DIVISLAB.NS,53137.8235,0.079545924,0.971678027,,
49:06.6,"LSTMBaseline(
  (lstm): LSTM(5, 64, batch_first=True)
  (dense): Linear(in_features=64, out_features=1, bias=True)
)",lstm_woattn_ohlcv_LALPATHLAB.NS,51679.31694,0.082671558,0.943083634,,
50:28.7,"LSTMBaseline(
  (lstm): LSTM(5, 64, batch_first=True)
  (dense): Linear(in_features=64, out_features=1, bias=True)
)",lstm_woattn_ohlcv_DRREDDY.NS,304369.0828,0.10652435,0.752753588,,
51:50.6,"LSTMBaseline(
  (lstm): LSTM(5, 64, batch_first=True)
  (dense): Linear(in_features=64, out_features=1, bias=True)
)",lstm_woattn_ohlcv_GLENMARK.NS,9115.592566,0.098220337,0.369095383,,
53:12.8,"LSTMBaseline(
  (lstm): LSTM(5, 64, batch_first=True)
  (dense): Linear(in_features=64, out_features=1, bias=True)
)",lstm_woattn_ohlcv_GRANULES.NS,626.2785381,0.093276431,0.945026804,,
54:34.9,"LSTMBaseline(
  (lstm): LSTM(5, 64, batch_first=True)
  (dense): Linear(in_features=64, out_features=1, bias=True)
)",lstm_woattn_ohlcv_IPCALAB.NS,3809.618488,0.07328893,0.96489555,,
55:57.1,"LSTMBaseline(
  (lstm): LSTM(5, 64, batch_first=True)
  (dense): Linear(in_features=64, out_features=1, bias=True)
)",lstm_woattn_ohlcv_LAURUSLABS.NS,1734.645422,0.090745948,0.952820654,,
57:19.6,"LSTMBaseline(
  (lstm): LSTM(5, 64, batch_first=True)
  (dense): Linear(in_features=64, out_features=1, bias=True)
)",lstm_woattn_ohlcv_LUPIN.NS,30715.89824,0.086541032,-0.431959089,,
58:05.1,"LSTMBaseline(
  (lstm): LSTM(5, 64, batch_first=True)
  (dense): Linear(in_features=64, out_features=1, bias=True)
)",lstm_woattn_ohlcv_METROPOLIS.NS,101588.9038,0.141180609,0.757095823,,
59:28.8,"LSTMBaseline(
  (lstm): LSTM(5, 64, batch_first=True)
  (dense): Linear(in_features=64, out_features=1, bias=True)
)",lstm_woattn_ohlcv_PFIZER.NS,180265.4824,0.106153434,0.887389849,,
00:51.4,"LSTMBaseline(
  (lstm): LSTM(5, 64, batch_first=True)
  (dense): Linear(in_features=64, out_features=1, bias=True)
)",lstm_woattn_ohlcv_STAR.NS,15026.67071,0.123528428,0.613943764,,
02:14.9,"LSTMBaseline(
  (lstm): LSTM(5, 64, batch_first=True)
  (dense): Linear(in_features=64, out_features=1, bias=True)
)",lstm_woattn_ohlcv_SUNPHARMA.NS,4075.51656,0.076400432,0.742554668,,
03:37.8,"LSTMBaseline(
  (lstm): LSTM(5, 64, batch_first=True)
  (dense): Linear(in_features=64, out_features=1, bias=True)
)",lstm_woattn_ohlcv_TORNTPHARM.NS,52235.22146,0.080340937,0.867575168,,
04:59.9,"LSTMBaseline(
  (lstm): LSTM(5, 64, batch_first=True)
  (dense): Linear(in_features=64, out_features=1, bias=True)
)",lstm_woattn_ohlcv_COFORGE.NS,155311.0349,0.121512406,0.928134509,,
06:22.0,"LSTMBaseline(
  (lstm): LSTM(5, 64, batch_first=True)
  (dense): Linear(in_features=64, out_features=1, bias=True)
)",lstm_woattn_ohlcv_HCLTECH.NS,3554.894257,0.059489116,0.948182009,,
07:44.6,"LSTMBaseline(
  (lstm): LSTM(5, 64, batch_first=True)
  (dense): Linear(in_features=64, out_features=1, bias=True)
)",lstm_woattn_ohlcv_INFY.NS,6321.136273,0.068805898,0.963936931,,
09:08.6,"LSTMBaseline(
  (lstm): LSTM(5, 64, batch_first=True)
  (dense): Linear(in_features=64, out_features=1, bias=True)
)",lstm_woattn_ohlcv_LTTS.NS,100138.3045,0.100719215,0.932047834,,
10:30.4,"LSTMBaseline(
  (lstm): LSTM(5, 64, batch_first=True)
  (dense): Linear(in_features=64, out_features=1, bias=True)
)",lstm_woattn_ohlcv_LTI.NS,158764.1384,0.102883133,0.945430086,,
11:52.7,"LSTMBaseline(
  (lstm): LSTM(5, 64, batch_first=True)
  (dense): Linear(in_features=64, out_features=1, bias=True)
)",lstm_woattn_ohlcv_MINDTREE.NS,113143.4685,0.120352739,0.91624515,,
13:14.9,"LSTMBaseline(
  (lstm): LSTM(5, 64, batch_first=True)
  (dense): Linear(in_features=64, out_features=1, bias=True)
)",lstm_woattn_ohlcv_MPHASIS.NS,27487.29485,0.085785478,0.954582947,,
14:37.0,"LSTMBaseline(
  (lstm): LSTM(5, 64, batch_first=True)
  (dense): Linear(in_features=64, out_features=1, bias=True)
)",lstm_woattn_ohlcv_TCS.NS,39312.81444,0.068999661,0.93250205,,
15:58.7,"LSTMBaseline(
  (lstm): LSTM(5, 64, batch_first=True)
  (dense): Linear(in_features=64, out_features=1, bias=True)
)",lstm_woattn_ohlcv_TECHM.NS,7926.392978,0.084060392,0.922073689,,
17:32.6,"LSTMBaseline(
  (lstm): LSTM(5, 64, batch_first=True)
  (dense): Linear(in_features=64, out_features=1, bias=True)
)",lstm_woattn_ohlcv_WIPRO.NS,1041.561885,0.0710442,0.953163973,,
35:20.6,"LSTMBaseline(
  (lstm): LSTM(5, 64, batch_first=True)
  (dense): Linear(in_features=64, out_features=1, bias=True)
)",lstm_woattn_ohlcv_UCOBANK.NS,5.392445568,0.103714253,0.90140067,,
36:42.4,"LSTMBaseline(
  (lstm): LSTM(5, 64, batch_first=True)
  (dense): Linear(in_features=64, out_features=1, bias=True)
)",lstm_woattn_ohlcv_UNIONBANK.NS,131.1497401,0.117632241,0.92700926,,
38:09.7,"LSTMBaseline(
  (lstm): LSTM(5, 64, batch_first=True)
  (dense): Linear(in_features=64, out_features=1, bias=True)
)",lstm_woattn_ohlcv_APLLTD.NS,7519.339514,0.075649727,0.780195714,,
39:32.7,"LSTMBaseline(
  (lstm): LSTM(5, 64, batch_first=True)
  (dense): Linear(in_features=64, out_features=1, bias=True)
)",lstm_woattn_ohlcv_ALKEM.NS,133608.0045,0.097003797,0.654804064,,
40:54.9,"LSTMBaseline(
  (lstm): LSTM(5, 64, batch_first=True)
  (dense): Linear(in_features=64, out_features=1, bias=True)
)",lstm_woattn_ohlcv_APOLLOHOSP.NS,104983.6936,0.110424087,0.931842233,,
42:16.7,"LSTMBaseline(
  (lstm): LSTM(5, 64, batch_first=True)
  (dense): Linear(in_features=64, out_features=1, bias=True)
)",lstm_woattn_ohlcv_AUROPHARMA.NS,7448.584209,0.093480845,0.616751287,,
43:38.2,"LSTMBaseline(
  (lstm): LSTM(5, 64, batch_first=True)
  (dense): Linear(in_features=64, out_features=1, bias=True)
)",lstm_woattn_ohlcv_BIOCON.NS,660.9732762,0.066522387,0.889545091,,
44:59.6,"LSTMBaseline(
  (lstm): LSTM(5, 64, batch_first=True)
  (dense): Linear(in_features=64, out_features=1, bias=True)
)",lstm_woattn_ohlcv_CADILAHC.NS,2067.330706,0.080032037,0.808510615,,
46:21.9,"LSTMBaseline(
  (lstm): LSTM(5, 64, batch_first=True)
  (dense): Linear(in_features=64, out_features=1, bias=True)
)",lstm_woattn_ohlcv_CIPLA.NS,4002.138363,0.06434539,0.8499409,,
47:44.9,"LSTMBaseline(
  (lstm): LSTM(5, 64, batch_first=True)
  (dense): Linear(in_features=64, out_features=1, bias=True)
)",lstm_woattn_ohlcv_DIVISLAB.NS,53137.8235,0.079545924,0.971678027,,
49:06.6,"LSTMBaseline(
  (lstm): LSTM(5, 64, batch_first=True)
  (dense): Linear(in_features=64, out_features=1, bias=True)
)",lstm_woattn_ohlcv_LALPATHLAB.NS,51679.31694,0.082671558,0.943083634,,
50:28.7,"LSTMBaseline(
  (lstm): LSTM(5, 64, batch_first=True)
  (dense): Linear(in_features=64, out_features=1, bias=True)
)",lstm_woattn_ohlcv_DRREDDY.NS,304369.0828,0.10652435,0.752753588,,
51:50.6,"LSTMBaseline(
  (lstm): LSTM(5, 64, batch_first=True)
  (dense): Linear(in_features=64, out_features=1, bias=True)
)",lstm_woattn_ohlcv_GLENMARK.NS,9115.592566,0.098220337,0.369095383,,
53:12.8,"LSTMBaseline(
  (lstm): LSTM(5, 64, batch_first=True)
  (dense): Linear(in_features=64, out_features=1, bias=True)
)",lstm_woattn_ohlcv_GRANULES.NS,626.2785381,0.093276431,0.945026804,,
54:34.9,"LSTMBaseline(
  (lstm): LSTM(5, 64, batch_first=True)
  (dense): Linear(in_features=64, out_features=1, bias=True)
)",lstm_woattn_ohlcv_IPCALAB.NS,3809.618488,0.07328893,0.96489555,,
55:57.1,"LSTMBaseline(
  (lstm): LSTM(5, 64, batch_first=True)
  (dense): Linear(in_features=64, out_features=1, bias=True)
)",lstm_woattn_ohlcv_LAURUSLABS.NS,1734.645422,0.090745948,0.952820654,,
57:19.6,"LSTMBaseline(
  (lstm): LSTM(5, 64, batch_first=True)
  (dense): Linear(in_features=64, out_features=1, bias=True)
)",lstm_woattn_ohlcv_LUPIN.NS,30715.89824,0.086541032,-0.431959089,,
58:05.1,"LSTMBaseline(
  (lstm): LSTM(5, 64, batch_first=True)
  (dense): Linear(in_features=64, out_features=1, bias=True)
)",lstm_woattn_ohlcv_METROPOLIS.NS,101588.9038,0.141180609,0.757095823,,
59:28.8,"LSTMBaseline(
  (lstm): LSTM(5, 64, batch_first=True)
  (dense): Linear(in_features=64, out_features=1, bias=True)
)",lstm_woattn_ohlcv_PFIZER.NS,180265.4824,0.106153434,0.887389849,,
00:51.4,"LSTMBaseline(
  (lstm): LSTM(5, 64, batch_first=True)
  (dense): Linear(in_features=64, out_features=1, bias=True)
)",lstm_woattn_ohlcv_STAR.NS,15026.67071,0.123528428,0.613943764,,
02:14.9,"LSTMBaseline(
  (lstm): LSTM(5, 64, batch_first=True)
  (dense): Linear(in_features=64, out_features=1, bias=True)
)",lstm_woattn_ohlcv_SUNPHARMA.NS,4075.51656,0.076400432,0.742554668,,
03:37.8,"LSTMBaseline(
  (lstm): LSTM(5, 64, batch_first=True)
  (dense): Linear(in_features=64, out_features=1, bias=True)
)",lstm_woattn_ohlcv_TORNTPHARM.NS,52235.22146,0.080340937,0.867575168,,
04:59.9,"LSTMBaseline(
  (lstm): LSTM(5, 64, batch_first=True)
  (dense): Linear(in_features=64, out_features=1, bias=True)
)",lstm_woattn_ohlcv_COFORGE.NS,155311.0349,0.121512406,0.928134509,,
06:22.0,"LSTMBaseline(
  (lstm): LSTM(5, 64, batch_first=True)
  (dense): Linear(in_features=64, out_features=1, bias=True)
)",lstm_woattn_ohlcv_HCLTECH.NS,3554.894257,0.059489116,0.948182009,,
07:44.6,"LSTMBaseline(
  (lstm): LSTM(5, 64, batch_first=True)
  (dense): Linear(in_features=64, out_features=1, bias=True)
)",lstm_woattn_ohlcv_INFY.NS,6321.136273,0.068805898,0.963936931,,
09:08.6,"LSTMBaseline(
  (lstm): LSTM(5, 64, batch_first=True)
  (dense): Linear(in_features=64, out_features=1, bias=True)
)",lstm_woattn_ohlcv_LTTS.NS,100138.3045,0.100719215,0.932047834,,
10:30.4,"LSTMBaseline(
  (lstm): LSTM(5, 64, batch_first=True)
  (dense): Linear(in_features=64, out_features=1, bias=True)
)",lstm_woattn_ohlcv_LTI.NS,158764.1384,0.102883133,0.945430086,,
11:52.7,"LSTMBaseline(
  (lstm): LSTM(5, 64, batch_first=True)
  (dense): Linear(in_features=64, out_features=1, bias=True)
)",lstm_woattn_ohlcv_MINDTREE.NS,113143.4685,0.120352739,0.91624515,,
13:14.9,"LSTMBaseline(
  (lstm): LSTM(5, 64, batch_first=True)
  (dense): Linear(in_features=64, out_features=1, bias=True)
)",lstm_woattn_ohlcv_MPHASIS.NS,27487.29485,0.085785478,0.954582947,,
14:37.0,"LSTMBaseline(
  (lstm): LSTM(5, 64, batch_first=True)
  (dense): Linear(in_features=64, out_features=1, bias=True)
)",lstm_woattn_ohlcv_TCS.NS,39312.81444,0.068999661,0.93250205,,
15:58.7,"LSTMBaseline(
  (lstm): LSTM(5, 64, batch_first=True)
  (dense): Linear(in_features=64, out_features=1, bias=True)
)",lstm_woattn_ohlcv_TECHM.NS,7926.392978,0.084060392,0.922073689,,
17:32.6,"LSTMBaseline(
  (lstm): LSTM(5, 64, batch_first=True)
  (dense): Linear(in_features=64, out_features=1, bias=True)
)",lstm_woattn_ohlcv_WIPRO.NS,1041.561885,0.0710442,0.953163973,,
18:54.5,"LSTMBaseline(
  (lstm): LSTM(5, 64, batch_first=True)
  (dense): Linear(in_features=64, out_features=1, bias=True)
)",lstm_woattn_ohlcv_DISHTV.NS,34.87706106,0.182228927,0.956720485,,
35:20.6,"LSTMBaseline(
  (lstm): LSTM(5, 64, batch_first=True)
  (dense): Linear(in_features=64, out_features=1, bias=True)
)",lstm_woattn_ohlcv_UCOBANK.NS,5.392445568,0.103714253,0.90140067,,
36:42.4,"LSTMBaseline(
  (lstm): LSTM(5, 64, batch_first=True)
  (dense): Linear(in_features=64, out_features=1, bias=True)
)",lstm_woattn_ohlcv_UNIONBANK.NS,131.1497401,0.117632241,0.92700926,,
38:09.7,"LSTMBaseline(
  (lstm): LSTM(5, 64, batch_first=True)
  (dense): Linear(in_features=64, out_features=1, bias=True)
)",lstm_woattn_ohlcv_APLLTD.NS,7519.339514,0.075649727,0.780195714,,
39:32.7,"LSTMBaseline(
  (lstm): LSTM(5, 64, batch_first=True)
  (dense): Linear(in_features=64, out_features=1, bias=True)
)",lstm_woattn_ohlcv_ALKEM.NS,133608.0045,0.097003797,0.654804064,,
40:54.9,"LSTMBaseline(
  (lstm): LSTM(5, 64, batch_first=True)
  (dense): Linear(in_features=64, out_features=1, bias=True)
)",lstm_woattn_ohlcv_APOLLOHOSP.NS,104983.6936,0.110424087,0.931842233,,
42:16.7,"LSTMBaseline(
  (lstm): LSTM(5, 64, batch_first=True)
  (dense): Linear(in_features=64, out_features=1, bias=True)
)",lstm_woattn_ohlcv_AUROPHARMA.NS,7448.584209,0.093480845,0.616751287,,
43:38.2,"LSTMBaseline(
  (lstm): LSTM(5, 64, batch_first=True)
  (dense): Linear(in_features=64, out_features=1, bias=True)
)",lstm_woattn_ohlcv_BIOCON.NS,660.9732762,0.066522387,0.889545091,,
44:59.6,"LSTMBaseline(
  (lstm): LSTM(5, 64, batch_first=True)
  (dense): Linear(in_features=64, out_features=1, bias=True)
)",lstm_woattn_ohlcv_CADILAHC.NS,2067.330706,0.080032037,0.808510615,,
46:21.9,"LSTMBaseline(
  (lstm): LSTM(5, 64, batch_first=True)
  (dense): Linear(in_features=64, out_features=1, bias=True)
)",lstm_woattn_ohlcv_CIPLA.NS,4002.138363,0.06434539,0.8499409,,
47:44.9,"LSTMBaseline(
  (lstm): LSTM(5, 64, batch_first=True)
  (dense): Linear(in_features=64, out_features=1, bias=True)
)",lstm_woattn_ohlcv_DIVISLAB.NS,53137.8235,0.079545924,0.971678027,,
49:06.6,"LSTMBaseline(
  (lstm): LSTM(5, 64, batch_first=True)
  (dense): Linear(in_features=64, out_features=1, bias=True)
)",lstm_woattn_ohlcv_LALPATHLAB.NS,51679.31694,0.082671558,0.943083634,,
50:28.7,"LSTMBaseline(
  (lstm): LSTM(5, 64, batch_first=True)
  (dense): Linear(in_features=64, out_features=1, bias=True)
)",lstm_woattn_ohlcv_DRREDDY.NS,304369.0828,0.10652435,0.752753588,,
51:50.6,"LSTMBaseline(
  (lstm): LSTM(5, 64, batch_first=True)
  (dense): Linear(in_features=64, out_features=1, bias=True)
)",lstm_woattn_ohlcv_GLENMARK.NS,9115.592566,0.098220337,0.369095383,,
53:12.8,"LSTMBaseline(
  (lstm): LSTM(5, 64, batch_first=True)
  (dense): Linear(in_features=64, out_features=1, bias=True)
)",lstm_woattn_ohlcv_GRANULES.NS,626.2785381,0.093276431,0.945026804,,
54:34.9,"LSTMBaseline(
  (lstm): LSTM(5, 64, batch_first=True)
  (dense): Linear(in_features=64, out_features=1, bias=True)
)",lstm_woattn_ohlcv_IPCALAB.NS,3809.618488,0.07328893,0.96489555,,
55:57.1,"LSTMBaseline(
  (lstm): LSTM(5, 64, batch_first=True)
  (dense): Linear(in_features=64, out_features=1, bias=True)
)",lstm_woattn_ohlcv_LAURUSLABS.NS,1734.645422,0.090745948,0.952820654,,
57:19.6,"LSTMBaseline(
  (lstm): LSTM(5, 64, batch_first=True)
  (dense): Linear(in_features=64, out_features=1, bias=True)
)",lstm_woattn_ohlcv_LUPIN.NS,30715.89824,0.086541032,-0.431959089,,
58:05.1,"LSTMBaseline(
  (lstm): LSTM(5, 64, batch_first=True)
  (dense): Linear(in_features=64, out_features=1, bias=True)
)",lstm_woattn_ohlcv_METROPOLIS.NS,101588.9038,0.141180609,0.757095823,,
59:28.8,"LSTMBaseline(
  (lstm): LSTM(5, 64, batch_first=True)
  (dense): Linear(in_features=64, out_features=1, bias=True)
)",lstm_woattn_ohlcv_PFIZER.NS,180265.4824,0.106153434,0.887389849,,
00:51.4,"LSTMBaseline(
  (lstm): LSTM(5, 64, batch_first=True)
  (dense): Linear(in_features=64, out_features=1, bias=True)
)",lstm_woattn_ohlcv_STAR.NS,15026.67071,0.123528428,0.613943764,,
02:14.9,"LSTMBaseline(
  (lstm): LSTM(5, 64, batch_first=True)
  (dense): Linear(in_features=64, out_features=1, bias=True)
)",lstm_woattn_ohlcv_SUNPHARMA.NS,4075.51656,0.076400432,0.742554668,,
03:37.8,"LSTMBaseline(
  (lstm): LSTM(5, 64, batch_first=True)
  (dense): Linear(in_features=64, out_features=1, bias=True)
)",lstm_woattn_ohlcv_TORNTPHARM.NS,52235.22146,0.080340937,0.867575168,,
04:59.9,"LSTMBaseline(
  (lstm): LSTM(5, 64, batch_first=True)
  (dense): Linear(in_features=64, out_features=1, bias=True)
)",lstm_woattn_ohlcv_COFORGE.NS,155311.0349,0.121512406,0.928134509,,
06:22.0,"LSTMBaseline(
  (lstm): LSTM(5, 64, batch_first=True)
  (dense): Linear(in_features=64, out_features=1, bias=True)
)",lstm_woattn_ohlcv_HCLTECH.NS,3554.894257,0.059489116,0.948182009,,
07:44.6,"LSTMBaseline(
  (lstm): LSTM(5, 64, batch_first=True)
  (dense): Linear(in_features=64, out_features=1, bias=True)
)",lstm_woattn_ohlcv_INFY.NS,6321.136273,0.068805898,0.963936931,,
09:08.6,"LSTMBaseline(
  (lstm): LSTM(5, 64, batch_first=True)
  (dense): Linear(in_features=64, out_features=1, bias=True)
)",lstm_woattn_ohlcv_LTTS.NS,100138.3045,0.100719215,0.932047834,,
10:30.4,"LSTMBaseline(
  (lstm): LSTM(5, 64, batch_first=True)
  (dense): Linear(in_features=64, out_features=1, bias=True)
)",lstm_woattn_ohlcv_LTI.NS,158764.1384,0.102883133,0.945430086,,
11:52.7,"LSTMBaseline(
  (lstm): LSTM(5, 64, batch_first=True)
  (dense): Linear(in_features=64, out_features=1, bias=True)
)",lstm_woattn_ohlcv_MINDTREE.NS,113143.4685,0.120352739,0.91624515,,
13:14.9,"LSTMBaseline(
  (lstm): LSTM(5, 64, batch_first=True)
  (dense): Linear(in_features=64, out_features=1, bias=True)
)",lstm_woattn_ohlcv_MPHASIS.NS,27487.29485,0.085785478,0.954582947,,
14:37.0,"LSTMBaseline(
  (lstm): LSTM(5, 64, batch_first=True)
  (dense): Linear(in_features=64, out_features=1, bias=True)
)",lstm_woattn_ohlcv_TCS.NS,39312.81444,0.068999661,0.93250205,,
15:58.7,"LSTMBaseline(
  (lstm): LSTM(5, 64, batch_first=True)
  (dense): Linear(in_features=64, out_features=1, bias=True)
)",lstm_woattn_ohlcv_TECHM.NS,7926.392978,0.084060392,0.922073689,,
17:32.6,"LSTMBaseline(
  (lstm): LSTM(5, 64, batch_first=True)
  (dense): Linear(in_features=64, out_features=1, bias=True)
)",lstm_woattn_ohlcv_WIPRO.NS,1041.561885,0.0710442,0.953163973,,
18:54.5,"LSTMBaseline(
  (lstm): LSTM(5, 64, batch_first=True)
  (dense): Linear(in_features=64, out_features=1, bias=True)
)",lstm_woattn_ohlcv_DISHTV.NS,34.87706106,0.182228927,0.956720485,,
20:17.0,"LSTMBaseline(
  (lstm): LSTM(5, 64, batch_first=True)
  (dense): Linear(in_features=64, out_features=1, bias=True)
)",lstm_woattn_ohlcv_HATHWAY.NS,21.54511657,0.132609674,0.578012107,,
35:20.6,"LSTMBaseline(
  (lstm): LSTM(5, 64, batch_first=True)
  (dense): Linear(in_features=64, out_features=1, bias=True)
)",lstm_woattn_ohlcv_UCOBANK.NS,5.392445568,0.103714253,0.90140067,,
36:42.4,"LSTMBaseline(
  (lstm): LSTM(5, 64, batch_first=True)
  (dense): Linear(in_features=64, out_features=1, bias=True)
)",lstm_woattn_ohlcv_UNIONBANK.NS,131.1497401,0.117632241,0.92700926,,
38:09.7,"LSTMBaseline(
  (lstm): LSTM(5, 64, batch_first=True)
  (dense): Linear(in_features=64, out_features=1, bias=True)
)",lstm_woattn_ohlcv_APLLTD.NS,7519.339514,0.075649727,0.780195714,,
39:32.7,"LSTMBaseline(
  (lstm): LSTM(5, 64, batch_first=True)
  (dense): Linear(in_features=64, out_features=1, bias=True)
)",lstm_woattn_ohlcv_ALKEM.NS,133608.0045,0.097003797,0.654804064,,
40:54.9,"LSTMBaseline(
  (lstm): LSTM(5, 64, batch_first=True)
  (dense): Linear(in_features=64, out_features=1, bias=True)
)",lstm_woattn_ohlcv_APOLLOHOSP.NS,104983.6936,0.110424087,0.931842233,,
42:16.7,"LSTMBaseline(
  (lstm): LSTM(5, 64, batch_first=True)
  (dense): Linear(in_features=64, out_features=1, bias=True)
)",lstm_woattn_ohlcv_AUROPHARMA.NS,7448.584209,0.093480845,0.616751287,,
43:38.2,"LSTMBaseline(
  (lstm): LSTM(5, 64, batch_first=True)
  (dense): Linear(in_features=64, out_features=1, bias=True)
)",lstm_woattn_ohlcv_BIOCON.NS,660.9732762,0.066522387,0.889545091,,
44:59.6,"LSTMBaseline(
  (lstm): LSTM(5, 64, batch_first=True)
  (dense): Linear(in_features=64, out_features=1, bias=True)
)",lstm_woattn_ohlcv_CADILAHC.NS,2067.330706,0.080032037,0.808510615,,
46:21.9,"LSTMBaseline(
  (lstm): LSTM(5, 64, batch_first=True)
  (dense): Linear(in_features=64, out_features=1, bias=True)
)",lstm_woattn_ohlcv_CIPLA.NS,4002.138363,0.06434539,0.8499409,,
47:44.9,"LSTMBaseline(
  (lstm): LSTM(5, 64, batch_first=True)
  (dense): Linear(in_features=64, out_features=1, bias=True)
)",lstm_woattn_ohlcv_DIVISLAB.NS,53137.8235,0.079545924,0.971678027,,
49:06.6,"LSTMBaseline(
  (lstm): LSTM(5, 64, batch_first=True)
  (dense): Linear(in_features=64, out_features=1, bias=True)
)",lstm_woattn_ohlcv_LALPATHLAB.NS,51679.31694,0.082671558,0.943083634,,
50:28.7,"LSTMBaseline(
  (lstm): LSTM(5, 64, batch_first=True)
  (dense): Linear(in_features=64, out_features=1, bias=True)
)",lstm_woattn_ohlcv_DRREDDY.NS,304369.0828,0.10652435,0.752753588,,
51:50.6,"LSTMBaseline(
  (lstm): LSTM(5, 64, batch_first=True)
  (dense): Linear(in_features=64, out_features=1, bias=True)
)",lstm_woattn_ohlcv_GLENMARK.NS,9115.592566,0.098220337,0.369095383,,
53:12.8,"LSTMBaseline(
  (lstm): LSTM(5, 64, batch_first=True)
  (dense): Linear(in_features=64, out_features=1, bias=True)
)",lstm_woattn_ohlcv_GRANULES.NS,626.2785381,0.093276431,0.945026804,,
54:34.9,"LSTMBaseline(
  (lstm): LSTM(5, 64, batch_first=True)
  (dense): Linear(in_features=64, out_features=1, bias=True)
)",lstm_woattn_ohlcv_IPCALAB.NS,3809.618488,0.07328893,0.96489555,,
55:57.1,"LSTMBaseline(
  (lstm): LSTM(5, 64, batch_first=True)
  (dense): Linear(in_features=64, out_features=1, bias=True)
)",lstm_woattn_ohlcv_LAURUSLABS.NS,1734.645422,0.090745948,0.952820654,,
57:19.6,"LSTMBaseline(
  (lstm): LSTM(5, 64, batch_first=True)
  (dense): Linear(in_features=64, out_features=1, bias=True)
)",lstm_woattn_ohlcv_LUPIN.NS,30715.89824,0.086541032,-0.431959089,,
58:05.1,"LSTMBaseline(
  (lstm): LSTM(5, 64, batch_first=True)
  (dense): Linear(in_features=64, out_features=1, bias=True)
)",lstm_woattn_ohlcv_METROPOLIS.NS,101588.9038,0.141180609,0.757095823,,
59:28.8,"LSTMBaseline(
  (lstm): LSTM(5, 64, batch_first=True)
  (dense): Linear(in_features=64, out_features=1, bias=True)
)",lstm_woattn_ohlcv_PFIZER.NS,180265.4824,0.106153434,0.887389849,,
00:51.4,"LSTMBaseline(
  (lstm): LSTM(5, 64, batch_first=True)
  (dense): Linear(in_features=64, out_features=1, bias=True)
)",lstm_woattn_ohlcv_STAR.NS,15026.67071,0.123528428,0.613943764,,
02:14.9,"LSTMBaseline(
  (lstm): LSTM(5, 64, batch_first=True)
  (dense): Linear(in_features=64, out_features=1, bias=True)
)",lstm_woattn_ohlcv_SUNPHARMA.NS,4075.51656,0.076400432,0.742554668,,
03:37.8,"LSTMBaseline(
  (lstm): LSTM(5, 64, batch_first=True)
  (dense): Linear(in_features=64, out_features=1, bias=True)
)",lstm_woattn_ohlcv_TORNTPHARM.NS,52235.22146,0.080340937,0.867575168,,
04:59.9,"LSTMBaseline(
  (lstm): LSTM(5, 64, batch_first=True)
  (dense): Linear(in_features=64, out_features=1, bias=True)
)",lstm_woattn_ohlcv_COFORGE.NS,155311.0349,0.121512406,0.928134509,,
06:22.0,"LSTMBaseline(
  (lstm): LSTM(5, 64, batch_first=True)
  (dense): Linear(in_features=64, out_features=1, bias=True)
)",lstm_woattn_ohlcv_HCLTECH.NS,3554.894257,0.059489116,0.948182009,,
07:44.6,"LSTMBaseline(
  (lstm): LSTM(5, 64, batch_first=True)
  (dense): Linear(in_features=64, out_features=1, bias=True)
)",lstm_woattn_ohlcv_INFY.NS,6321.136273,0.068805898,0.963936931,,
09:08.6,"LSTMBaseline(
  (lstm): LSTM(5, 64, batch_first=True)
  (dense): Linear(in_features=64, out_features=1, bias=True)
)",lstm_woattn_ohlcv_LTTS.NS,100138.3045,0.100719215,0.932047834,,
10:30.4,"LSTMBaseline(
  (lstm): LSTM(5, 64, batch_first=True)
  (dense): Linear(in_features=64, out_features=1, bias=True)
)",lstm_woattn_ohlcv_LTI.NS,158764.1384,0.102883133,0.945430086,,
11:52.7,"LSTMBaseline(
  (lstm): LSTM(5, 64, batch_first=True)
  (dense): Linear(in_features=64, out_features=1, bias=True)
)",lstm_woattn_ohlcv_MINDTREE.NS,113143.4685,0.120352739,0.91624515,,
13:14.9,"LSTMBaseline(
  (lstm): LSTM(5, 64, batch_first=True)
  (dense): Linear(in_features=64, out_features=1, bias=True)
)",lstm_woattn_ohlcv_MPHASIS.NS,27487.29485,0.085785478,0.954582947,,
14:37.0,"LSTMBaseline(
  (lstm): LSTM(5, 64, batch_first=True)
  (dense): Linear(in_features=64, out_features=1, bias=True)
)",lstm_woattn_ohlcv_TCS.NS,39312.81444,0.068999661,0.93250205,,
15:58.7,"LSTMBaseline(
  (lstm): LSTM(5, 64, batch_first=True)
  (dense): Linear(in_features=64, out_features=1, bias=True)
)",lstm_woattn_ohlcv_TECHM.NS,7926.392978,0.084060392,0.922073689,,
17:32.6,"LSTMBaseline(
  (lstm): LSTM(5, 64, batch_first=True)
  (dense): Linear(in_features=64, out_features=1, bias=True)
)",lstm_woattn_ohlcv_WIPRO.NS,1041.561885,0.0710442,0.953163973,,
18:54.5,"LSTMBaseline(
  (lstm): LSTM(5, 64, batch_first=True)
  (dense): Linear(in_features=64, out_features=1, bias=True)
)",lstm_woattn_ohlcv_DISHTV.NS,34.87706106,0.182228927,0.956720485,,
20:17.0,"LSTMBaseline(
  (lstm): LSTM(5, 64, batch_first=True)
  (dense): Linear(in_features=64, out_features=1, bias=True)
)",lstm_woattn_ohlcv_HATHWAY.NS,21.54511657,0.132609674,0.578012107,,
21:53.6,"LSTMBaseline(
  (lstm): LSTM(5, 64, batch_first=True)
  (dense): Linear(in_features=64, out_features=1, bias=True)
)",lstm_woattn_ohlcv_INOXLEISUR.NS,1687.98718,0.099082967,0.499648794,,
35:20.6,"LSTMBaseline(
  (lstm): LSTM(5, 64, batch_first=True)
  (dense): Linear(in_features=64, out_features=1, bias=True)
)",lstm_woattn_ohlcv_UCOBANK.NS,5.392445568,0.103714253,0.90140067,,
36:42.4,"LSTMBaseline(
  (lstm): LSTM(5, 64, batch_first=True)
  (dense): Linear(in_features=64, out_features=1, bias=True)
)",lstm_woattn_ohlcv_UNIONBANK.NS,131.1497401,0.117632241,0.92700926,,
38:09.7,"LSTMBaseline(
  (lstm): LSTM(5, 64, batch_first=True)
  (dense): Linear(in_features=64, out_features=1, bias=True)
)",lstm_woattn_ohlcv_APLLTD.NS,7519.339514,0.075649727,0.780195714,,
39:32.7,"LSTMBaseline(
  (lstm): LSTM(5, 64, batch_first=True)
  (dense): Linear(in_features=64, out_features=1, bias=True)
)",lstm_woattn_ohlcv_ALKEM.NS,133608.0045,0.097003797,0.654804064,,
40:54.9,"LSTMBaseline(
  (lstm): LSTM(5, 64, batch_first=True)
  (dense): Linear(in_features=64, out_features=1, bias=True)
)",lstm_woattn_ohlcv_APOLLOHOSP.NS,104983.6936,0.110424087,0.931842233,,
42:16.7,"LSTMBaseline(
  (lstm): LSTM(5, 64, batch_first=True)
  (dense): Linear(in_features=64, out_features=1, bias=True)
)",lstm_woattn_ohlcv_AUROPHARMA.NS,7448.584209,0.093480845,0.616751287,,
43:38.2,"LSTMBaseline(
  (lstm): LSTM(5, 64, batch_first=True)
  (dense): Linear(in_features=64, out_features=1, bias=True)
)",lstm_woattn_ohlcv_BIOCON.NS,660.9732762,0.066522387,0.889545091,,
44:59.6,"LSTMBaseline(
  (lstm): LSTM(5, 64, batch_first=True)
  (dense): Linear(in_features=64, out_features=1, bias=True)
)",lstm_woattn_ohlcv_CADILAHC.NS,2067.330706,0.080032037,0.808510615,,
46:21.9,"LSTMBaseline(
  (lstm): LSTM(5, 64, batch_first=True)
  (dense): Linear(in_features=64, out_features=1, bias=True)
)",lstm_woattn_ohlcv_CIPLA.NS,4002.138363,0.06434539,0.8499409,,
47:44.9,"LSTMBaseline(
  (lstm): LSTM(5, 64, batch_first=True)
  (dense): Linear(in_features=64, out_features=1, bias=True)
)",lstm_woattn_ohlcv_DIVISLAB.NS,53137.8235,0.079545924,0.971678027,,
49:06.6,"LSTMBaseline(
  (lstm): LSTM(5, 64, batch_first=True)
  (dense): Linear(in_features=64, out_features=1, bias=True)
)",lstm_woattn_ohlcv_LALPATHLAB.NS,51679.31694,0.082671558,0.943083634,,
50:28.7,"LSTMBaseline(
  (lstm): LSTM(5, 64, batch_first=True)
  (dense): Linear(in_features=64, out_features=1, bias=True)
)",lstm_woattn_ohlcv_DRREDDY.NS,304369.0828,0.10652435,0.752753588,,
51:50.6,"LSTMBaseline(
  (lstm): LSTM(5, 64, batch_first=True)
  (dense): Linear(in_features=64, out_features=1, bias=True)
)",lstm_woattn_ohlcv_GLENMARK.NS,9115.592566,0.098220337,0.369095383,,
53:12.8,"LSTMBaseline(
  (lstm): LSTM(5, 64, batch_first=True)
  (dense): Linear(in_features=64, out_features=1, bias=True)
)",lstm_woattn_ohlcv_GRANULES.NS,626.2785381,0.093276431,0.945026804,,
54:34.9,"LSTMBaseline(
  (lstm): LSTM(5, 64, batch_first=True)
  (dense): Linear(in_features=64, out_features=1, bias=True)
)",lstm_woattn_ohlcv_IPCALAB.NS,3809.618488,0.07328893,0.96489555,,
55:57.1,"LSTMBaseline(
  (lstm): LSTM(5, 64, batch_first=True)
  (dense): Linear(in_features=64, out_features=1, bias=True)
)",lstm_woattn_ohlcv_LAURUSLABS.NS,1734.645422,0.090745948,0.952820654,,
57:19.6,"LSTMBaseline(
  (lstm): LSTM(5, 64, batch_first=True)
  (dense): Linear(in_features=64, out_features=1, bias=True)
)",lstm_woattn_ohlcv_LUPIN.NS,30715.89824,0.086541032,-0.431959089,,
58:05.1,"LSTMBaseline(
  (lstm): LSTM(5, 64, batch_first=True)
  (dense): Linear(in_features=64, out_features=1, bias=True)
)",lstm_woattn_ohlcv_METROPOLIS.NS,101588.9038,0.141180609,0.757095823,,
59:28.8,"LSTMBaseline(
  (lstm): LSTM(5, 64, batch_first=True)
  (dense): Linear(in_features=64, out_features=1, bias=True)
)",lstm_woattn_ohlcv_PFIZER.NS,180265.4824,0.106153434,0.887389849,,
00:51.4,"LSTMBaseline(
  (lstm): LSTM(5, 64, batch_first=True)
  (dense): Linear(in_features=64, out_features=1, bias=True)
)",lstm_woattn_ohlcv_STAR.NS,15026.67071,0.123528428,0.613943764,,
02:14.9,"LSTMBaseline(
  (lstm): LSTM(5, 64, batch_first=True)
  (dense): Linear(in_features=64, out_features=1, bias=True)
)",lstm_woattn_ohlcv_SUNPHARMA.NS,4075.51656,0.076400432,0.742554668,,
03:37.8,"LSTMBaseline(
  (lstm): LSTM(5, 64, batch_first=True)
  (dense): Linear(in_features=64, out_features=1, bias=True)
)",lstm_woattn_ohlcv_TORNTPHARM.NS,52235.22146,0.080340937,0.867575168,,
04:59.9,"LSTMBaseline(
  (lstm): LSTM(5, 64, batch_first=True)
  (dense): Linear(in_features=64, out_features=1, bias=True)
)",lstm_woattn_ohlcv_COFORGE.NS,155311.0349,0.121512406,0.928134509,,
06:22.0,"LSTMBaseline(
  (lstm): LSTM(5, 64, batch_first=True)
  (dense): Linear(in_features=64, out_features=1, bias=True)
)",lstm_woattn_ohlcv_HCLTECH.NS,3554.894257,0.059489116,0.948182009,,
07:44.6,"LSTMBaseline(
  (lstm): LSTM(5, 64, batch_first=True)
  (dense): Linear(in_features=64, out_features=1, bias=True)
)",lstm_woattn_ohlcv_INFY.NS,6321.136273,0.068805898,0.963936931,,
09:08.6,"LSTMBaseline(
  (lstm): LSTM(5, 64, batch_first=True)
  (dense): Linear(in_features=64, out_features=1, bias=True)
)",lstm_woattn_ohlcv_LTTS.NS,100138.3045,0.100719215,0.932047834,,
10:30.4,"LSTMBaseline(
  (lstm): LSTM(5, 64, batch_first=True)
  (dense): Linear(in_features=64, out_features=1, bias=True)
)",lstm_woattn_ohlcv_LTI.NS,158764.1384,0.102883133,0.945430086,,
11:52.7,"LSTMBaseline(
  (lstm): LSTM(5, 64, batch_first=True)
  (dense): Linear(in_features=64, out_features=1, bias=True)
)",lstm_woattn_ohlcv_MINDTREE.NS,113143.4685,0.120352739,0.91624515,,
13:14.9,"LSTMBaseline(
  (lstm): LSTM(5, 64, batch_first=True)
  (dense): Linear(in_features=64, out_features=1, bias=True)
)",lstm_woattn_ohlcv_MPHASIS.NS,27487.29485,0.085785478,0.954582947,,
14:37.0,"LSTMBaseline(
  (lstm): LSTM(5, 64, batch_first=True)
  (dense): Linear(in_features=64, out_features=1, bias=True)
)",lstm_woattn_ohlcv_TCS.NS,39312.81444,0.068999661,0.93250205,,
15:58.7,"LSTMBaseline(
  (lstm): LSTM(5, 64, batch_first=True)
  (dense): Linear(in_features=64, out_features=1, bias=True)
)",lstm_woattn_ohlcv_TECHM.NS,7926.392978,0.084060392,0.922073689,,
17:32.6,"LSTMBaseline(
  (lstm): LSTM(5, 64, batch_first=True)
  (dense): Linear(in_features=64, out_features=1, bias=True)
)",lstm_woattn_ohlcv_WIPRO.NS,1041.561885,0.0710442,0.953163973,,
18:54.5,"LSTMBaseline(
  (lstm): LSTM(5, 64, batch_first=True)
  (dense): Linear(in_features=64, out_features=1, bias=True)
)",lstm_woattn_ohlcv_DISHTV.NS,34.87706106,0.182228927,0.956720485,,
20:17.0,"LSTMBaseline(
  (lstm): LSTM(5, 64, batch_first=True)
  (dense): Linear(in_features=64, out_features=1, bias=True)
)",lstm_woattn_ohlcv_HATHWAY.NS,21.54511657,0.132609674,0.578012107,,
21:53.6,"LSTMBaseline(
  (lstm): LSTM(5, 64, batch_first=True)
  (dense): Linear(in_features=64, out_features=1, bias=True)
)",lstm_woattn_ohlcv_INOXLEISUR.NS,1687.98718,0.099082967,0.499648794,,
22:05.9,"LSTMBaseline(
  (lstm): LSTM(5, 64, batch_first=True)
  (dense): Linear(in_features=64, out_features=1, bias=True)
)",lstm_woattn_ohlcv_NAZARA.NS,1452674.975,0.499382113,-11.42148422,,
35:20.6,"LSTMBaseline(
  (lstm): LSTM(5, 64, batch_first=True)
  (dense): Linear(in_features=64, out_features=1, bias=True)
)",lstm_woattn_ohlcv_UCOBANK.NS,5.392445568,0.103714253,0.90140067,,
36:42.4,"LSTMBaseline(
  (lstm): LSTM(5, 64, batch_first=True)
  (dense): Linear(in_features=64, out_features=1, bias=True)
)",lstm_woattn_ohlcv_UNIONBANK.NS,131.1497401,0.117632241,0.92700926,,
38:09.7,"LSTMBaseline(
  (lstm): LSTM(5, 64, batch_first=True)
  (dense): Linear(in_features=64, out_features=1, bias=True)
)",lstm_woattn_ohlcv_APLLTD.NS,7519.339514,0.075649727,0.780195714,,
39:32.7,"LSTMBaseline(
  (lstm): LSTM(5, 64, batch_first=True)
  (dense): Linear(in_features=64, out_features=1, bias=True)
)",lstm_woattn_ohlcv_ALKEM.NS,133608.0045,0.097003797,0.654804064,,
40:54.9,"LSTMBaseline(
  (lstm): LSTM(5, 64, batch_first=True)
  (dense): Linear(in_features=64, out_features=1, bias=True)
)",lstm_woattn_ohlcv_APOLLOHOSP.NS,104983.6936,0.110424087,0.931842233,,
42:16.7,"LSTMBaseline(
  (lstm): LSTM(5, 64, batch_first=True)
  (dense): Linear(in_features=64, out_features=1, bias=True)
)",lstm_woattn_ohlcv_AUROPHARMA.NS,7448.584209,0.093480845,0.616751287,,
43:38.2,"LSTMBaseline(
  (lstm): LSTM(5, 64, batch_first=True)
  (dense): Linear(in_features=64, out_features=1, bias=True)
)",lstm_woattn_ohlcv_BIOCON.NS,660.9732762,0.066522387,0.889545091,,
44:59.6,"LSTMBaseline(
  (lstm): LSTM(5, 64, batch_first=True)
  (dense): Linear(in_features=64, out_features=1, bias=True)
)",lstm_woattn_ohlcv_CADILAHC.NS,2067.330706,0.080032037,0.808510615,,
46:21.9,"LSTMBaseline(
  (lstm): LSTM(5, 64, batch_first=True)
  (dense): Linear(in_features=64, out_features=1, bias=True)
)",lstm_woattn_ohlcv_CIPLA.NS,4002.138363,0.06434539,0.8499409,,
47:44.9,"LSTMBaseline(
  (lstm): LSTM(5, 64, batch_first=True)
  (dense): Linear(in_features=64, out_features=1, bias=True)
)",lstm_woattn_ohlcv_DIVISLAB.NS,53137.8235,0.079545924,0.971678027,,
49:06.6,"LSTMBaseline(
  (lstm): LSTM(5, 64, batch_first=True)
  (dense): Linear(in_features=64, out_features=1, bias=True)
)",lstm_woattn_ohlcv_LALPATHLAB.NS,51679.31694,0.082671558,0.943083634,,
50:28.7,"LSTMBaseline(
  (lstm): LSTM(5, 64, batch_first=True)
  (dense): Linear(in_features=64, out_features=1, bias=True)
)",lstm_woattn_ohlcv_DRREDDY.NS,304369.0828,0.10652435,0.752753588,,
51:50.6,"LSTMBaseline(
  (lstm): LSTM(5, 64, batch_first=True)
  (dense): Linear(in_features=64, out_features=1, bias=True)
)",lstm_woattn_ohlcv_GLENMARK.NS,9115.592566,0.098220337,0.369095383,,
53:12.8,"LSTMBaseline(
  (lstm): LSTM(5, 64, batch_first=True)
  (dense): Linear(in_features=64, out_features=1, bias=True)
)",lstm_woattn_ohlcv_GRANULES.NS,626.2785381,0.093276431,0.945026804,,
54:34.9,"LSTMBaseline(
  (lstm): LSTM(5, 64, batch_first=True)
  (dense): Linear(in_features=64, out_features=1, bias=True)
)",lstm_woattn_ohlcv_IPCALAB.NS,3809.618488,0.07328893,0.96489555,,
55:57.1,"LSTMBaseline(
  (lstm): LSTM(5, 64, batch_first=True)
  (dense): Linear(in_features=64, out_features=1, bias=True)
)",lstm_woattn_ohlcv_LAURUSLABS.NS,1734.645422,0.090745948,0.952820654,,
57:19.6,"LSTMBaseline(
  (lstm): LSTM(5, 64, batch_first=True)
  (dense): Linear(in_features=64, out_features=1, bias=True)
)",lstm_woattn_ohlcv_LUPIN.NS,30715.89824,0.086541032,-0.431959089,,
58:05.1,"LSTMBaseline(
  (lstm): LSTM(5, 64, batch_first=True)
  (dense): Linear(in_features=64, out_features=1, bias=True)
)",lstm_woattn_ohlcv_METROPOLIS.NS,101588.9038,0.141180609,0.757095823,,
59:28.8,"LSTMBaseline(
  (lstm): LSTM(5, 64, batch_first=True)
  (dense): Linear(in_features=64, out_features=1, bias=True)
)",lstm_woattn_ohlcv_PFIZER.NS,180265.4824,0.106153434,0.887389849,,
00:51.4,"LSTMBaseline(
  (lstm): LSTM(5, 64, batch_first=True)
  (dense): Linear(in_features=64, out_features=1, bias=True)
)",lstm_woattn_ohlcv_STAR.NS,15026.67071,0.123528428,0.613943764,,
02:14.9,"LSTMBaseline(
  (lstm): LSTM(5, 64, batch_first=True)
  (dense): Linear(in_features=64, out_features=1, bias=True)
)",lstm_woattn_ohlcv_SUNPHARMA.NS,4075.51656,0.076400432,0.742554668,,
03:37.8,"LSTMBaseline(
  (lstm): LSTM(5, 64, batch_first=True)
  (dense): Linear(in_features=64, out_features=1, bias=True)
)",lstm_woattn_ohlcv_TORNTPHARM.NS,52235.22146,0.080340937,0.867575168,,
04:59.9,"LSTMBaseline(
  (lstm): LSTM(5, 64, batch_first=True)
  (dense): Linear(in_features=64, out_features=1, bias=True)
)",lstm_woattn_ohlcv_COFORGE.NS,155311.0349,0.121512406,0.928134509,,
06:22.0,"LSTMBaseline(
  (lstm): LSTM(5, 64, batch_first=True)
  (dense): Linear(in_features=64, out_features=1, bias=True)
)",lstm_woattn_ohlcv_HCLTECH.NS,3554.894257,0.059489116,0.948182009,,
07:44.6,"LSTMBaseline(
  (lstm): LSTM(5, 64, batch_first=True)
  (dense): Linear(in_features=64, out_features=1, bias=True)
)",lstm_woattn_ohlcv_INFY.NS,6321.136273,0.068805898,0.963936931,,
09:08.6,"LSTMBaseline(
  (lstm): LSTM(5, 64, batch_first=True)
  (dense): Linear(in_features=64, out_features=1, bias=True)
)",lstm_woattn_ohlcv_LTTS.NS,100138.3045,0.100719215,0.932047834,,
10:30.4,"LSTMBaseline(
  (lstm): LSTM(5, 64, batch_first=True)
  (dense): Linear(in_features=64, out_features=1, bias=True)
)",lstm_woattn_ohlcv_LTI.NS,158764.1384,0.102883133,0.945430086,,
11:52.7,"LSTMBaseline(
  (lstm): LSTM(5, 64, batch_first=True)
  (dense): Linear(in_features=64, out_features=1, bias=True)
)",lstm_woattn_ohlcv_MINDTREE.NS,113143.4685,0.120352739,0.91624515,,
13:14.9,"LSTMBaseline(
  (lstm): LSTM(5, 64, batch_first=True)
  (dense): Linear(in_features=64, out_features=1, bias=True)
)",lstm_woattn_ohlcv_MPHASIS.NS,27487.29485,0.085785478,0.954582947,,
14:37.0,"LSTMBaseline(
  (lstm): LSTM(5, 64, batch_first=True)
  (dense): Linear(in_features=64, out_features=1, bias=True)
)",lstm_woattn_ohlcv_TCS.NS,39312.81444,0.068999661,0.93250205,,
15:58.7,"LSTMBaseline(
  (lstm): LSTM(5, 64, batch_first=True)
  (dense): Linear(in_features=64, out_features=1, bias=True)
)",lstm_woattn_ohlcv_TECHM.NS,7926.392978,0.084060392,0.922073689,,
17:32.6,"LSTMBaseline(
  (lstm): LSTM(5, 64, batch_first=True)
  (dense): Linear(in_features=64, out_features=1, bias=True)
)",lstm_woattn_ohlcv_WIPRO.NS,1041.561885,0.0710442,0.953163973,,
18:54.5,"LSTMBaseline(
  (lstm): LSTM(5, 64, batch_first=True)
  (dense): Linear(in_features=64, out_features=1, bias=True)
)",lstm_woattn_ohlcv_DISHTV.NS,34.87706106,0.182228927,0.956720485,,
20:17.0,"LSTMBaseline(
  (lstm): LSTM(5, 64, batch_first=True)
  (dense): Linear(in_features=64, out_features=1, bias=True)
)",lstm_woattn_ohlcv_HATHWAY.NS,21.54511657,0.132609674,0.578012107,,
21:53.6,"LSTMBaseline(
  (lstm): LSTM(5, 64, batch_first=True)
  (dense): Linear(in_features=64, out_features=1, bias=True)
)",lstm_woattn_ohlcv_INOXLEISUR.NS,1687.98718,0.099082967,0.499648794,,
22:05.9,"LSTMBaseline(
  (lstm): LSTM(5, 64, batch_first=True)
  (dense): Linear(in_features=64, out_features=1, bias=True)
)",lstm_woattn_ohlcv_NAZARA.NS,1452674.975,0.499382113,-11.42148422,,
23:30.3,"LSTMBaseline(
  (lstm): LSTM(5, 64, batch_first=True)
  (dense): Linear(in_features=64, out_features=1, bias=True)
)",lstm_woattn_ohlcv_NETWORK18.NS,48.25584687,0.112960387,0.820947835,,
35:20.6,"LSTMBaseline(
  (lstm): LSTM(5, 64, batch_first=True)
  (dense): Linear(in_features=64, out_features=1, bias=True)
)",lstm_woattn_ohlcv_UCOBANK.NS,5.392445568,0.103714253,0.90140067,,
36:42.4,"LSTMBaseline(
  (lstm): LSTM(5, 64, batch_first=True)
  (dense): Linear(in_features=64, out_features=1, bias=True)
)",lstm_woattn_ohlcv_UNIONBANK.NS,131.1497401,0.117632241,0.92700926,,
38:09.7,"LSTMBaseline(
  (lstm): LSTM(5, 64, batch_first=True)
  (dense): Linear(in_features=64, out_features=1, bias=True)
)",lstm_woattn_ohlcv_APLLTD.NS,7519.339514,0.075649727,0.780195714,,
39:32.7,"LSTMBaseline(
  (lstm): LSTM(5, 64, batch_first=True)
  (dense): Linear(in_features=64, out_features=1, bias=True)
)",lstm_woattn_ohlcv_ALKEM.NS,133608.0045,0.097003797,0.654804064,,
40:54.9,"LSTMBaseline(
  (lstm): LSTM(5, 64, batch_first=True)
  (dense): Linear(in_features=64, out_features=1, bias=True)
)",lstm_woattn_ohlcv_APOLLOHOSP.NS,104983.6936,0.110424087,0.931842233,,
42:16.7,"LSTMBaseline(
  (lstm): LSTM(5, 64, batch_first=True)
  (dense): Linear(in_features=64, out_features=1, bias=True)
)",lstm_woattn_ohlcv_AUROPHARMA.NS,7448.584209,0.093480845,0.616751287,,
43:38.2,"LSTMBaseline(
  (lstm): LSTM(5, 64, batch_first=True)
  (dense): Linear(in_features=64, out_features=1, bias=True)
)",lstm_woattn_ohlcv_BIOCON.NS,660.9732762,0.066522387,0.889545091,,
44:59.6,"LSTMBaseline(
  (lstm): LSTM(5, 64, batch_first=True)
  (dense): Linear(in_features=64, out_features=1, bias=True)
)",lstm_woattn_ohlcv_CADILAHC.NS,2067.330706,0.080032037,0.808510615,,
46:21.9,"LSTMBaseline(
  (lstm): LSTM(5, 64, batch_first=True)
  (dense): Linear(in_features=64, out_features=1, bias=True)
)",lstm_woattn_ohlcv_CIPLA.NS,4002.138363,0.06434539,0.8499409,,
47:44.9,"LSTMBaseline(
  (lstm): LSTM(5, 64, batch_first=True)
  (dense): Linear(in_features=64, out_features=1, bias=True)
)",lstm_woattn_ohlcv_DIVISLAB.NS,53137.8235,0.079545924,0.971678027,,
49:06.6,"LSTMBaseline(
  (lstm): LSTM(5, 64, batch_first=True)
  (dense): Linear(in_features=64, out_features=1, bias=True)
)",lstm_woattn_ohlcv_LALPATHLAB.NS,51679.31694,0.082671558,0.943083634,,
50:28.7,"LSTMBaseline(
  (lstm): LSTM(5, 64, batch_first=True)
  (dense): Linear(in_features=64, out_features=1, bias=True)
)",lstm_woattn_ohlcv_DRREDDY.NS,304369.0828,0.10652435,0.752753588,,
51:50.6,"LSTMBaseline(
  (lstm): LSTM(5, 64, batch_first=True)
  (dense): Linear(in_features=64, out_features=1, bias=True)
)",lstm_woattn_ohlcv_GLENMARK.NS,9115.592566,0.098220337,0.369095383,,
53:12.8,"LSTMBaseline(
  (lstm): LSTM(5, 64, batch_first=True)
  (dense): Linear(in_features=64, out_features=1, bias=True)
)",lstm_woattn_ohlcv_GRANULES.NS,626.2785381,0.093276431,0.945026804,,
54:34.9,"LSTMBaseline(
  (lstm): LSTM(5, 64, batch_first=True)
  (dense): Linear(in_features=64, out_features=1, bias=True)
)",lstm_woattn_ohlcv_IPCALAB.NS,3809.618488,0.07328893,0.96489555,,
55:57.1,"LSTMBaseline(
  (lstm): LSTM(5, 64, batch_first=True)
  (dense): Linear(in_features=64, out_features=1, bias=True)
)",lstm_woattn_ohlcv_LAURUSLABS.NS,1734.645422,0.090745948,0.952820654,,
57:19.6,"LSTMBaseline(
  (lstm): LSTM(5, 64, batch_first=True)
  (dense): Linear(in_features=64, out_features=1, bias=True)
)",lstm_woattn_ohlcv_LUPIN.NS,30715.89824,0.086541032,-0.431959089,,
58:05.1,"LSTMBaseline(
  (lstm): LSTM(5, 64, batch_first=True)
  (dense): Linear(in_features=64, out_features=1, bias=True)
)",lstm_woattn_ohlcv_METROPOLIS.NS,101588.9038,0.141180609,0.757095823,,
59:28.8,"LSTMBaseline(
  (lstm): LSTM(5, 64, batch_first=True)
  (dense): Linear(in_features=64, out_features=1, bias=True)
)",lstm_woattn_ohlcv_PFIZER.NS,180265.4824,0.106153434,0.887389849,,
00:51.4,"LSTMBaseline(
  (lstm): LSTM(5, 64, batch_first=True)
  (dense): Linear(in_features=64, out_features=1, bias=True)
)",lstm_woattn_ohlcv_STAR.NS,15026.67071,0.123528428,0.613943764,,
02:14.9,"LSTMBaseline(
  (lstm): LSTM(5, 64, batch_first=True)
  (dense): Linear(in_features=64, out_features=1, bias=True)
)",lstm_woattn_ohlcv_SUNPHARMA.NS,4075.51656,0.076400432,0.742554668,,
03:37.8,"LSTMBaseline(
  (lstm): LSTM(5, 64, batch_first=True)
  (dense): Linear(in_features=64, out_features=1, bias=True)
)",lstm_woattn_ohlcv_TORNTPHARM.NS,52235.22146,0.080340937,0.867575168,,
04:59.9,"LSTMBaseline(
  (lstm): LSTM(5, 64, batch_first=True)
  (dense): Linear(in_features=64, out_features=1, bias=True)
)",lstm_woattn_ohlcv_COFORGE.NS,155311.0349,0.121512406,0.928134509,,
06:22.0,"LSTMBaseline(
  (lstm): LSTM(5, 64, batch_first=True)
  (dense): Linear(in_features=64, out_features=1, bias=True)
)",lstm_woattn_ohlcv_HCLTECH.NS,3554.894257,0.059489116,0.948182009,,
07:44.6,"LSTMBaseline(
  (lstm): LSTM(5, 64, batch_first=True)
  (dense): Linear(in_features=64, out_features=1, bias=True)
)",lstm_woattn_ohlcv_INFY.NS,6321.136273,0.068805898,0.963936931,,
09:08.6,"LSTMBaseline(
  (lstm): LSTM(5, 64, batch_first=True)
  (dense): Linear(in_features=64, out_features=1, bias=True)
)",lstm_woattn_ohlcv_LTTS.NS,100138.3045,0.100719215,0.932047834,,
10:30.4,"LSTMBaseline(
  (lstm): LSTM(5, 64, batch_first=True)
  (dense): Linear(in_features=64, out_features=1, bias=True)
)",lstm_woattn_ohlcv_LTI.NS,158764.1384,0.102883133,0.945430086,,
11:52.7,"LSTMBaseline(
  (lstm): LSTM(5, 64, batch_first=True)
  (dense): Linear(in_features=64, out_features=1, bias=True)
)",lstm_woattn_ohlcv_MINDTREE.NS,113143.4685,0.120352739,0.91624515,,
13:14.9,"LSTMBaseline(
  (lstm): LSTM(5, 64, batch_first=True)
  (dense): Linear(in_features=64, out_features=1, bias=True)
)",lstm_woattn_ohlcv_MPHASIS.NS,27487.29485,0.085785478,0.954582947,,
14:37.0,"LSTMBaseline(
  (lstm): LSTM(5, 64, batch_first=True)
  (dense): Linear(in_features=64, out_features=1, bias=True)
)",lstm_woattn_ohlcv_TCS.NS,39312.81444,0.068999661,0.93250205,,
15:58.7,"LSTMBaseline(
  (lstm): LSTM(5, 64, batch_first=True)
  (dense): Linear(in_features=64, out_features=1, bias=True)
)",lstm_woattn_ohlcv_TECHM.NS,7926.392978,0.084060392,0.922073689,,
17:32.6,"LSTMBaseline(
  (lstm): LSTM(5, 64, batch_first=True)
  (dense): Linear(in_features=64, out_features=1, bias=True)
)",lstm_woattn_ohlcv_WIPRO.NS,1041.561885,0.0710442,0.953163973,,
18:54.5,"LSTMBaseline(
  (lstm): LSTM(5, 64, batch_first=True)
  (dense): Linear(in_features=64, out_features=1, bias=True)
)",lstm_woattn_ohlcv_DISHTV.NS,34.87706106,0.182228927,0.956720485,,
20:17.0,"LSTMBaseline(
  (lstm): LSTM(5, 64, batch_first=True)
  (dense): Linear(in_features=64, out_features=1, bias=True)
)",lstm_woattn_ohlcv_HATHWAY.NS,21.54511657,0.132609674,0.578012107,,
21:53.6,"LSTMBaseline(
  (lstm): LSTM(5, 64, batch_first=True)
  (dense): Linear(in_features=64, out_features=1, bias=True)
)",lstm_woattn_ohlcv_INOXLEISUR.NS,1687.98718,0.099082967,0.499648794,,
22:05.9,"LSTMBaseline(
  (lstm): LSTM(5, 64, batch_first=True)
  (dense): Linear(in_features=64, out_features=1, bias=True)
)",lstm_woattn_ohlcv_NAZARA.NS,1452674.975,0.499382113,-11.42148422,,
23:30.3,"LSTMBaseline(
  (lstm): LSTM(5, 64, batch_first=True)
  (dense): Linear(in_features=64, out_features=1, bias=True)
)",lstm_woattn_ohlcv_NETWORK18.NS,48.25584687,0.112960387,0.820947835,,
24:56.7,"LSTMBaseline(
  (lstm): LSTM(5, 64, batch_first=True)
  (dense): Linear(in_features=64, out_features=1, bias=True)
)",lstm_woattn_ohlcv_PVR.NS,70399.74638,0.117804052,-0.319826023,,
35:20.6,"LSTMBaseline(
  (lstm): LSTM(5, 64, batch_first=True)
  (dense): Linear(in_features=64, out_features=1, bias=True)
)",lstm_woattn_ohlcv_UCOBANK.NS,5.392445568,0.103714253,0.90140067,,
36:42.4,"LSTMBaseline(
  (lstm): LSTM(5, 64, batch_first=True)
  (dense): Linear(in_features=64, out_features=1, bias=True)
)",lstm_woattn_ohlcv_UNIONBANK.NS,131.1497401,0.117632241,0.92700926,,
38:09.7,"LSTMBaseline(
  (lstm): LSTM(5, 64, batch_first=True)
  (dense): Linear(in_features=64, out_features=1, bias=True)
)",lstm_woattn_ohlcv_APLLTD.NS,7519.339514,0.075649727,0.780195714,,
39:32.7,"LSTMBaseline(
  (lstm): LSTM(5, 64, batch_first=True)
  (dense): Linear(in_features=64, out_features=1, bias=True)
)",lstm_woattn_ohlcv_ALKEM.NS,133608.0045,0.097003797,0.654804064,,
…
  (dense): Linear(in_features=64, out_features=1, bias=True)
)",lstm_woattn_ohlcv_STAR.NS,18779.8111,0.130447436,0.517520326,,
55:40.4,"LSTMBaseline(
  (lstm): LSTM(5, 64, batch_first=True)
  (dense): Linear(in_features=64, out_features=1, bias=True)
)",lstm_woattn_ohlcv_SUNPHARMA.NS,5625.814868,0.078800623,0.644624245,,
57:13.0,"LSTMBaseline(
  (lstm): LSTM(5, 64, batch_first=True)
  (dense): Linear(in_features=64, out_features=1, bias=True)
)",lstm_woattn_ohlcv_TORNTPHARM.NS,51762.38932,0.080395748,0.868773875,,
58:36.6,"LSTMBaseline(
  (lstm): LSTM(5, 64, batch_first=True)
  (dense): Linear(in_features=64, out_features=1, bias=True)
)",lstm_woattn_ohlcv_AUBANK.NS,18103.59529,0.129920702,0.690431949,,
00:00.2,"LSTMBaseline(
  (lstm): LSTM(5, 64, batch_first=True)
  (dense): Linear(in_features=64, out_features=1, bias=True)
)",lstm_woattn_ohlcv_AXISBANK.NS,4896.781745,0.082087735,0.659594668,,
01:06.8,"LSTMBaseline(
  (lstm): LSTM(5, 64, batch_first=True)
  (dense): Linear(in_features=64, out_features=1, bias=True)
)",lstm_woattn_ohlcv_BANDHANBNK.NS,7471.981622,0.145353047,0.506469411,,
02:35.0,"LSTMBaseline(
  (lstm): LSTM(5, 64, batch_first=True)
  (dense): Linear(in_features=64, out_features=1, bias=True)
)",lstm_woattn_ohlcv_FEDERALBNK.NS,95.27588862,0.09580248,0.735683699,,
04:07.1,"LSTMBaseline(
  (lstm): LSTM(5, 64, batch_first=True)
  (dense): Linear(in_features=64, out_features=1, bias=True)
)",lstm_woattn_ohlcv_HDFCBANK.NS,12638.63084,0.070109308,0.774602085,,
05:29.7,"LSTMBaseline(
  (lstm): LSTM(5, 64, batch_first=True)
  (dense): Linear(in_features=64, out_features=1, bias=True)
)",lstm_woattn_ohlcv_ICICIBANK.NS,2022.722862,0.077702278,0.91634048,,
06:58.2,"LSTMBaseline(
  (lstm): LSTM(5, 64, batch_first=True)
  (dense): Linear(in_features=64, out_features=1, bias=True)
)",lstm_woattn_ohlcv_IDFCFIRSTB.NS,29.41681112,0.100268952,0.729718652,,
08:28.6,"LSTMBaseline(
  (lstm): LSTM(5, 64, batch_first=True)
  (dense): Linear(in_features=64, out_features=1, bias=True)
)",lstm_woattn_ohlcv_INDUSINDBK.NS,79530.55206,0.161603031,0.583728455,,
09:50.9,"LSTMBaseline(
  (lstm): LSTM(5, 64, batch_first=True)
  (dense): Linear(in_features=64, out_features=1, bias=True)
)",lstm_woattn_ohlcv_KOTAKBANK.NS,26871.99915,0.081233961,0.743988269,,
11:13.7,"LSTMBaseline(
  (lstm): LSTM(5, 64, batch_first=True)
  (dense): Linear(in_features=64, out_features=1, bias=True)
)",lstm_woattn_ohlcv_PNB.NS,213.499847,0.115458514,0.893075434,,
12:46.1,"LSTMBaseline(
  (lstm): LSTM(5, 64, batch_first=True)
  (dense): Linear(in_features=64, out_features=1, bias=True)
)",lstm_woattn_ohlcv_RBLBANK.NS,4059.977059,0.136257206,0.87182611,,
14:11.5,"LSTMBaseline(
  (lstm): LSTM(5, 64, batch_first=True)
  (dense): Linear(in_features=64, out_features=1, bias=True)
)",lstm_woattn_ohlcv_SBIN.NS,1380.709507,0.095234617,0.809135039,,
15:09.7,"LSTMBaseline(
  (lstm): LSTM(5, 64, batch_first=True)
  (dense): Linear(in_features=64, out_features=1, bias=True)
)",lstm_woattn_ohlcv_ATGL.NS,30496.62748,0.179318612,0.914977177,,
16:32.5,"LSTMBaseline(
  (lstm): LSTM(5, 64, batch_first=True)
  (dense): Linear(in_features=64, out_features=1, bias=True)
)",lstm_woattn_ohlcv_BPCL.NS,2934.734917,0.08471028,0.206563539,,
17:56.6,"LSTMBaseline(
  (lstm): LSTM(5, 64, batch_first=True)
  (dense): Linear(in_features=64, out_features=1, bias=True)
)",lstm_woattn_ohlcv_CASTROLIND.NS,187.4519221,0.063450428,0.797628834,,
19:19.3,"LSTMBaseline(
  (lstm): LSTM(5, 64, batch_first=True)
  (dense): Linear(in_features=64, out_features=1, bias=True)
)",lstm_woattn_ohlcv_GAIL.NS,168.2353874,0.073915557,0.800299958,,
20:42.0,"LSTMBaseline(
  (lstm): LSTM(5, 64, batch_first=True)
  (dense): Linear(in_features=64, out_features=1, bias=True)
)",lstm_woattn_ohlcv_GUJGASLTD.NS,1523.526521,0.078764847,0.956454068,,
22:04.3,"LSTMBaseline(
  (lstm): LSTM(5, 64, batch_first=True)
  (dense): Linear(in_features=64, out_features=1, bias=True)
)",lstm_woattn_ohlcv_GSPL.NS,368.5732285,0.062965213,0.847072942,,
23:26.6,"LSTMBaseline(
  (lstm): LSTM(5, 64, batch_first=True)
  (dense): Linear(in_features=64, out_features=1, bias=True)
)",lstm_woattn_ohlcv_HINDPETRO.NS,1230.158123,0.087378273,0.75236835,,
24:47.7,"LSTMBaseline(
  (lstm): LSTM(5, 64, batch_first=True)
  (dense): Linear(in_features=64, out_features=1, bias=True)
)",lstm_woattn_ohlcv_IOC.NS,196.5922585,0.075364561,0.881428853,,
26:09.3,"LSTMBaseline(
  (lstm): LSTM(5, 64, batch_first=True)
  (dense): Linear(in_features=64, out_features=1, bias=True)
)",lstm_woattn_ohlcv_IGL.NS,1205.209048,0.071780802,0.888873666,,
27:31.1,"LSTMBaseline(
  (lstm): LSTM(5, 64, batch_first=True)
  (dense): Linear(in_features=64, out_features=1, bias=True)
)",lstm_woattn_ohlcv_MGL.NS,13395.931,0.081563438,0.115521352,,
28:52.4,"LSTMBaseline(
  (lstm): LSTM(5, 64, batch_first=True)
  (dense): Linear(in_features=64, out_features=1, bias=True)
)",lstm_woattn_ohlcv_MRPL.NS,54.67397119,0.095593089,0.953509275,,
30:14.0,"LSTMBaseline(
  (lstm): LSTM(5, 64, batch_first=True)
  (dense): Linear(in_features=64, out_features=1, bias=True)
)",lstm_woattn_ohlcv_ONGC.NS,203.9955414,0.085613708,0.85087786,,
31:36.5,"LSTMBaseline(
  (lstm): LSTM(5, 64, batch_first=True)
  (dense): Linear(in_features=64, out_features=1, bias=True)
)",lstm_woattn_ohlcv_OIL.NS,352.7101299,0.085219103,0.855312856,,
32:59.2,"LSTMBaseline(
  (lstm): LSTM(5, 64, batch_first=True)
  (dense): Linear(in_features=64, out_features=1, bias=True)
)",lstm_woattn_ohlcv_PETRONET.NS,286.1619538,0.050513187,0.197552885,,
34:21.0,"LSTMBaseline(
  (lstm): LSTM(5, 64, batch_first=True)
  (dense): Linear(in_features=64, out_features=1, bias=True)
)",lstm_woattn_ohlcv_RELIANCE.NS,22067.15777,0.077588007,0.929988677,,
35:42.8,"LSTMBaseline(
  (lstm): LSTM(5, 64, batch_first=True)
  (dense): Linear(in_features=64, out_features=1, bias=True)
)",lstm_woattn_ohlcv_AXISBANK.NS,5178.575471,0.084023339,0.640005457,,
36:43.8,"LSTMBaseline(
  (lstm): LSTM(5, 64, batch_first=True)
  (dense): Linear(in_features=64, out_features=1, bias=True)
)",lstm_woattn_ohlcv_BANDHANBNK.NS,7016.232702,0.143957558,0.536572005,,
38:05.4,"LSTMBaseline(
  (lstm): LSTM(5, 64, batch_first=True)
  (dense): Linear(in_features=64, out_features=1, bias=True)
)",lstm_woattn_ohlcv_CUB.NS,275.6526479,0.070711166,0.655475107,,
39:26.9,"LSTMBaseline(
  (lstm): LSTM(5, 64, batch_first=True)
  (dense): Linear(in_features=64, out_features=1, bias=True)
)",lstm_woattn_ohlcv_FEDERALBNK.NS,95.16395878,0.095965964,0.735994217,,
40:48.9,"LSTMBaseline(
  (lstm): LSTM(5, 64, batch_first=True)
  (dense): Linear(in_features=64, out_features=1, bias=True)
)",lstm_woattn_ohlcv_HDFCBANK.NS,11420.87392,0.067174971,0.796319617,,
42:09.9,"LSTMBaseline(
  (lstm): LSTM(5, 64, batch_first=True)
  (dense): Linear(in_features=64, out_features=1, bias=True)
)",lstm_woattn_ohlcv_ICICIBANK.NS,1922.429003,0.074800597,0.92048862,,
43:31.4,"LSTMBaseline(
  (lstm): LSTM(5, 64, batch_first=True)
  (dense): Linear(in_features=64, out_features=1, bias=True)
)",lstm_woattn_ohlcv_IDFCFIRSTB.NS,27.66618689,0.097604858,0.745803368,,
44:52.8,"LSTMBaseline(
  (lstm): LSTM(5, 64, batch_first=True)
  (dense): Linear(in_features=64, out_features=1, bias=True)
)",lstm_woattn_ohlcv_INDUSINDBK.NS,79580.6453,0.161626041,0.583466261,,
46:14.9,"LSTMBaseline(
  (lstm): LSTM(5, 64, batch_first=True)
  (dense): Linear(in_features=64, out_features=1, bias=True)
)",lstm_woattn_ohlcv_KOTAKBANK.NS,24723.71317,0.077617065,0.764455165,,
47:37.3,"LSTMBaseline(
  (lstm): LSTM(5, 64, batch_first=True)
  (dense): Linear(in_features=64, out_features=1, bias=True)
)",lstm_woattn_ohlcv_RBLBANK.NS,4239.37753,0.137088793,0.866162419,,
48:58.4,"LSTMBaseline(
  (lstm): LSTM(5, 64, batch_first=True)
  (dense): Linear(in_features=64, out_features=1, bias=True)
)",lstm_woattn_ohlcv_AXISBANK.NS,6138.028634,0.090300042,0.573307983,,
50:20.0,"LSTMBaseline(
  (lstm): LSTM(5, 64, batch_first=True)
  (dense): Linear(in_features=64, out_features=1, bias=True)
)",lstm_woattn_ohlcv_BAJFINANCE.NS,349092.8281,0.149768278,0.896627189,,
51:41.3,"LSTMBaseline(
  (lstm): LSTM(5, 64, batch_first=True)
  (dense): Linear(in_features=64, out_features=1, bias=True)
)",lstm_woattn_ohlcv_BAJAJFINSV.NS,7920543.611,0.281270373,0.457757545,,
53:02.6,"LSTMBaseline(
  (lstm): LSTM(5, 64, batch_first=True)
  (dense): Linear(in_features=64, out_features=1, bias=True)
)",lstm_woattn_ohlcv_CHOLAFIN.NS,1851.33715,0.10500849,0.901047067,,
53:57.3,"LSTMBaseline(
  (lstm): LSTM(5, 64, batch_first=True)
  (dense): Linear(in_features=64, out_features=1, bias=True)
)",lstm_woattn_ohlcv_HDFCAMC.NS,181210.9823,0.150223623,0.418680942,,
55:18.7,"LSTMBaseline(
  (lstm): LSTM(5, 64, batch_first=True)
  (dense): Linear(in_features=64, out_features=1, bias=True)
)",lstm_woattn_ohlcv_HDFCBANK.NS,12098.06569,0.068813941,0.784242548,,
56:25.6,"LSTMBaseline(
  (lstm): LSTM(5, 64, batch_first=True)
  (dense): Linear(in_features=64, out_features=1, bias=True)
)",lstm_woattn_ohlcv_HDFCLIFE.NS,2565.413946,0.069860502,0.795932542,,
57:48.6,"LSTMBaseline(
  (lstm): LSTM(5, 64, batch_first=True)
  (dense): Linear(in_features=64, out_features=1, bias=True)
)",lstm_woattn_ohlcv_HDFC.NS,75291.04763,0.089714139,0.450219064,,
59:14.5,"LSTMBaseline(
  (lstm): LSTM(5, 64, batch_first=True)
  (dense): Linear(in_features=64, out_features=1, bias=True)
)",lstm_woattn_ohlcv_ICICIBANK.NS,1983.558694,0.076645528,0.917960305,,
00:24.4,"LSTMBaseline(
  (lstm): LSTM(5, 64, batch_first=True)
  (dense): Linear(in_features=64, out_features=1, bias=True)
)",lstm_woattn_ohlcv_ICICIGI.NS,13683.18469,0.070153194,0.813120795,,
01:47.8,"LSTMBaseline(
  (lstm): LSTM(5, 64, batch_first=True)
  (dense): Linear(in_features=64, out_features=1, bias=True)
)",lstm_woattn_ohlcv_ICICIPRULI.NS,2789.526631,0.08592154,0.667609454,,
03:11.1,"LSTMBaseline(
  (lstm): LSTM(5, 64, batch_first=True)
  (dense): Linear(in_features=64, out_features=1, bias=True)
)",lstm_woattn_ohlcv_KOTAKBANK.NS,25333.28377,0.078630334,0.758647737,,
04:33.4,"LSTMBaseline(
  (lstm): LSTM(5, 64, batch_first=True)
  (dense): Linear(in_features=64, out_features=1, bias=True)
)",lstm_woattn_ohlcv_M&MFIN.NS,1967.586812,0.137368213,0.891277474,,
05:54.8,"LSTMBaseline(
  (lstm): LSTM(5, 64, batch_first=True)
  (dense): Linear(in_features=64, out_features=1, bias=True)
)",lstm_woattn_ohlcv_MUTHOOTFIN.NS,7488.800826,0.075308442,0.954718848,,
07:22.5,"LSTMBaseline(
  (lstm): LSTM(5, 64, batch_first=True)
  (dense): Linear(in_features=64, out_features=1, bias=True)
)",lstm_woattn_ohlcv_PEL.NS,341302.4632,0.159349225,-0.105147389,,
08:44.5,"LSTMBaseline(
  (lstm): LSTM(5, 64, batch_first=True)
  (dense): Linear(in_features=64, out_features=1, bias=True)
)",lstm_woattn_ohlcv_PFC.NS,153.7287797,0.087267171,0.59300074,,
10:05.8,"LSTMBaseline(
  (lstm): LSTM(5, 64, batch_first=True)
  (dense): Linear(in_features=64, out_features=1, bias=True)
)",lstm_woattn_ohlcv_RECLTD.NS,251.8132986,0.084703172,0.610091946,,
11:15.8,"LSTMBaseline(
  (lstm): LSTM(5, 64, batch_first=True)
  (dense): Linear(in_features=64, out_features=1, bias=True)
)",lstm_woattn_ohlcv_SBILIFE.NS,8875.238871,0.076360182,0.754501772,,
12:37.2,"LSTMBaseline(
  (lstm): LSTM(5, 64, batch_first=True)
  (dense): Linear(in_features=64, out_features=1, bias=True)
)",lstm_woattn_ohlcv_SRTRANSFIN.NS,28284.9951,0.110552312,0.557048571,,
13:59.6,"LSTMBaseline(
  (lstm): LSTM(5, 64, batch_first=True)
  (dense): Linear(in_features=64, out_features=1, bias=True)
)",lstm_woattn_ohlcv_SBIN.NS,1344.45533,0.09450178,0.814146703,,
15:21.5,"LSTMBaseline(
  (lstm): LSTM(5, 64, batch_first=True)
  (dense): Linear(in_features=64, out_features=1, bias=True)
)",lstm_woattn_ohlcv_BRIGADE.NS,866.771253,0.104235522,0.913885227,,
16:43.5,"LSTMBaseline(
  (lstm): LSTM(5, 64, batch_first=True)
  (dense): Linear(in_features=64, out_features=1, bias=True)
)",lstm_woattn_ohlcv_DLF.NS,962.2705151,0.107034834,0.825113397,,
18:05.5,"LSTMBaseline(
  (lstm): LSTM(5, 64, batch_first=True)
  (dense): Linear(in_features=64, out_features=1, bias=True)
)",lstm_woattn_ohlcv_GODREJPROP.NS,26532.5063,0.108819465,0.860028817,,
19:26.8,"LSTMBaseline(
  (lstm): LSTM(5, 64, batch_first=True)
  (dense): Linear(in_features=64, out_features=1, bias=True)
)",lstm_woattn_ohlcv_IBREALEST.NS,572.300717,0.179576697,0.834433195,,
19:37.3,"LSTMBaseline(
  (lstm): LSTM(5, 64, batch_first=True)
  (dense): Linear(in_features=64, out_features=1, bias=True)
)",lstm_woattn_ohlcv_LODHA.NS,83010.23855,0.21344741,-1.998488211,,
20:59.0,"LSTMBaseline(
  (lstm): LSTM(5, 64, batch_first=True)
  (dense): Linear(in_features=64, out_features=1, bias=True)
)",lstm_woattn_ohlcv_OBEROIRLTY.NS,3225.367363,0.07682802,0.859647065,,
22:22.4,"LSTMBaseline(
  (lstm): LSTM(5, 64, batch_first=True)
  (dense): Linear(in_features=64, out_features=1, bias=True)
)",lstm_woattn_ohlcv_PHOENIXLTD.NS,4882.049897,0.077530632,0.783882968,,
23:44.7,"LSTMBaseline(
  (lstm): LSTM(5, 64, batch_first=True)
  (dense): Linear(in_features=64, out_features=1, bias=True)
)",lstm_woattn_ohlcv_PRESTIGE.NS,1542.452645,0.104603558,0.729320377,,
25:05.7,"LSTMBaseline(
  (lstm): LSTM(5, 64, batch_first=True)
  (dense): Linear(in_features=64, out_features=1, bias=True)
)",lstm_woattn_ohlcv_SOBHA.NS,4160.034852,0.111436845,0.843916313,,
26:29.3,"LSTMBaseline(
  (lstm): LSTM(5, 64, batch_first=True)
  (dense): Linear(in_features=64, out_features=1, bias=True)
)",lstm_woattn_ohlcv_SUNTECK.NS,2620.731872,0.122966668,0.692094806,,
27:51.0,"LSTMBaseline(
  (lstm): LSTM(5, 64, batch_first=True)
  (dense): Linear(in_features=64, out_features=1, bias=True)
)",lstm_woattn_ohlcv_AMARAJABAT.NS,11290.86663,0.084561175,-0.162993012,,
29:12.9,"LSTMBaseline(
  (lstm): LSTM(5, 64, batch_first=True)
  (dense): Linear(in_features=64, out_features=1, bias=True)
)",lstm_woattn_ohlcv_ASHOKLEY.NS,141.1996639,0.104310929,0.825658756,,
30:34.7,"LSTMBaseline(
  (lstm): LSTM(5, 64, batch_first=True)
  (dense): Linear(in_features=64, out_features=1, bias=True)
)",lstm_woattn_ohlcv_BAJAJ-AUTO.NS,351169.2248,0.113642451,-0.824006358,,
31:57.3,"LSTMBaseline(
  (lstm): LSTM(5, 64, batch_first=True)
  (dense): Linear(in_features=64, out_features=1, bias=True)
)",lstm_woattn_ohlcv_BALKRISIND.NS,26240.78271,0.104164014,0.907990008,,
33:19.0,"LSTMBaseline(
  (lstm): LSTM(5, 64, batch_first=True)
  (dense): Linear(in_features=64, out_features=1, bias=True)
)",lstm_woattn_ohlcv_BHARATFORG.NS,4433.560711,0.093161504,0.753534777,,
34:40.8,"LSTMBaseline(
  (lstm): LSTM(5, 64, batch_first=True)
  (dense): Linear(in_features=64, out_features=1, bias=True)
)",lstm_woattn_ohlcv_BOSCHLTD.NS,126918001.2,0.44296879,-9.596124575,,
36:02.5,"LSTMBaseline(
  (lstm): LSTM(5, 64, batch_first=True)
  (dense): Linear(in_features=64, out_features=1, bias=True)
)",lstm_woattn_ohlcv_EICHERMOT.NS,489402.386,0.151921346,-1.292649466,,
37:23.8,"LSTMBaseline(
  (lstm): LSTM(5, 64, batch_first=True)
  (dense): Linear(in_features=64, out_features=1, bias=True)
)",lstm_woattn_ohlcv_EXIDEIND.NS,280.5223597,0.059685336,0.770258007,,
38:44.8,"LSTMBaseline(
  (lstm): LSTM(5, 64, batch_first=True)
  (dense): Linear(in_features=64, out_features=1, bias=True)
)",lstm_woattn_ohlcv_HEROMOTOCO.NS,870627.9885,0.149337148,-2.311492161,,
40:06.6,"LSTMBaseline(
  (lstm): LSTM(5, 64, batch_first=True)
  (dense): Linear(in_features=64, out_features=1, bias=True)
)",lstm_woattn_ohlcv_MRF.NS,3436422114,0.841519498,-42.74419454,,
41:28.3,"LSTMBaseline(
  (lstm): LSTM(5, 64, batch_first=True)
  (dense): Linear(in_features=64, out_features=1, bias=True)
)",lstm_woattn_ohlcv_M&M.NS,6588.465793,0.087030818,0.649965566,,
42:50.0,"LSTMBaseline(
  (lstm): LSTM(5, 64, batch_first=True)
  (dense): Linear(in_features=64, out_features=1, bias=True)
)",lstm_woattn_ohlcv_MARUTI.NS,7553814.45,0.223464521,-5.996916491,,
44:11.1,"LSTMBaseline(
  (lstm): LSTM(5, 64, batch_first=True)
  (dense): Linear(in_features=64, out_features=1, bias=True)
)",lstm_woattn_ohlcv_TVSMOTOR.NS,3769.624169,0.087906922,0.66122837,,
45:32.1,"LSTMBaseline(
  (lstm): LSTM(5, 64, batch_first=True)
  (dense): Linear(in_features=64, out_features=1, bias=True)
)",lstm_woattn_ohlcv_TATAMOTORS.NS,2713.235407,0.147272634,0.832399948,,
46:41.3,"LSTMBaseline(
  (lstm): LSTM(5, 64, batch_first=True)
  (dense): Linear(in_features=64, out_features=1, bias=True)
)",lstm_woattn_ohlcv_TIINDIA.NS,9264.759268,0.103760696,0.957095672,,
48:03.4,"LSTMBaseline(
  (lstm): LSTM(5, 64, batch_first=True)
  (dense): Linear(in_features=64, out_features=1, bias=True)
)",lstm_woattn_ohlcv_APLAPOLLO.NS,2516.665887,0.118663568,0.965318692,,
49:24.8,"LSTMBaseline(
  (lstm): LSTM(5, 64, batch_first=True)
  (dense): Linear(in_features=64, out_features=1, bias=True)
)",lstm_woattn_ohlcv_ADANIENT.NS,9542.594603,0.139256476,0.969299974,,
50:46.3,"LSTMBaseline(
  (lstm): LSTM(5, 64, batch_first=True)
  (dense): Linear(in_features=64, out_features=1, bias=True)
)",lstm_woattn_ohlcv_COALINDIA.NS,347.5611919,0.071089374,0.90143028,,
52:07.9,"LSTMBaseline(
  (lstm): LSTM(5, 64, batch_first=True)
  (dense): Linear(in_features=64, out_features=1, bias=True)
)",lstm_woattn_ohlcv_HINDALCO.NS,868.6493333,0.091144802,0.919587007,,
53:29.4,"LSTMBaseline(
  (lstm): LSTM(5, 64, batch_first=True)
  (dense): Linear(in_features=64, out_features=1, bias=True)
)",lstm_woattn_ohlcv_HINDCOPPER.NS,198.0702212,0.126769842,0.864744922,,
54:50.6,"LSTMBaseline(
  (lstm): LSTM(5, 64, batch_first=True)
  (dense): Linear(in_features=64, out_features=1, bias=True)
)",lstm_woattn_ohlcv_HINDZINC.NS,481.2779478,0.063462292,0.805769738,,
56:11.8,"LSTMBaseline(
  (lstm): LSTM(5, 64, batch_first=True)
  (dense): Linear(in_features=64, out_features=1, bias=True)
)",lstm_woattn_ohlcv_JSWSTEEL.NS,2160.020189,0.093418339,0.92297619,,
57:33.4,"LSTMBaseline(
  (lstm): LSTM(5, 64, batch_first=True)
  (dense): Linear(in_features=64, out_features=1, bias=True)
)",lstm_woattn_ohlcv_JINDALSTEL.NS,1092.188757,0.13628353,0.898388295,,
58:54.7,"LSTMBaseline(
  (lstm): LSTM(5, 64, batch_first=True)
  (dense): Linear(in_features=64, out_features=1, bias=True)
)",lstm_woattn_ohlcv_NMDC.NS,190.4564536,0.093502689,0.710151651,,
00:17.5,"LSTMBaseline(
  (lstm): LSTM(5, 64, batch_first=True)
  (dense): Linear(in_features=64, out_features=1, bias=True)
)",lstm_woattn_ohlcv_NATIONALUM.NS,52.50154781,0.093894288,0.892749785,,
01:55.5,"LSTMBaseline(
  (lstm): LSTM(5, 64, batch_first=True)
  (dense): Linear(in_features=64, out_features=1, bias=True)
)",lstm_woattn_ohlcv_RATNAMANI.NS,17753.74851,0.082325714,0.919733332,,
03:29.1,"LSTMBaseline(
  (lstm): LSTM(5, 64, batch_first=True)
  (dense): Linear(in_features=64, out_features=1, bias=True)
)",lstm_woattn_ohlcv_SAIL.NS,113.7511698,0.122774595,0.865661745,,
05:03.2,"LSTMBaseline(
  (lstm): LSTM(5, 64, batch_first=True)
  (dense): Linear(in_features=64, out_features=1, bias=True)
)",lstm_woattn_ohlcv_TATASTEEL.NS,8460.214267,0.114573132,0.908514337,,
06:36.4,"LSTMBaseline(
  (lstm): LSTM(5, 64, batch_first=True)
  (dense): Linear(in_features=64, out_features=1, bias=True)
)",lstm_woattn_ohlcv_VEDL.NS,640.8208897,0.109633965,0.901088513,,
35:20.6,"LSTMBaseline(
  (lstm): LSTM(5, 64, batch_first=True)
  (dense): Linear(in_features=64, out_features=1, bias=True)
)",lstm_woattn_ohlcv_UCOBANK.NS,5.392445568,0.103714253,0.90140067,,
36:42.4,"LSTMBaseline(
  (lstm): LSTM(5, 64, batch_first=True)
  (dense): Linear(in_features=64, out_features=1, bias=True)
)",lstm_woattn_ohlcv_UNIONBANK.NS,131.1497401,0.117632241,0.92700926,,
38:09.7,"LSTMBaseline(
  (lstm): LSTM(5, 64, batch_first=True)
  (dense): Linear(in_features=64, out_features=1, bias=True)
)",lstm_woattn_ohlcv_APLLTD.NS,7519.339514,0.075649727,0.780195714,,
39:32.7,"LSTMBaseline(
  (lstm): LSTM(5, 64, batch_first=True)
  (dense): Linear(in_features=64, out_features=1, bias=True)
)",lstm_woattn_ohlcv_ALKEM.NS,133608.0045,0.097003797,0.654804064,,
40:54.9,"LSTMBaseline(
  (lstm): LSTM(5, 64, batch_first=True)
  (dense): Linear(in_features=64, out_features=1, bias=True)
)",lstm_woattn_ohlcv_APOLLOHOSP.NS,104983.6936,0.110424087,0.931842233,,
42:16.7,"LSTMBaseline(
  (lstm): LSTM(5, 64, batch_first=True)
  (dense): Linear(in_features=64, out_features=1, bias=True)
)",lstm_woattn_ohlcv_AUROPHARMA.NS,7448.584209,0.093480845,0.616751287,,
43:38.2,"LSTMBaseline(
  (lstm): LSTM(5, 64, batch_first=True)
  (dense): Linear(in_features=64, out_features=1, bias=True)
)",lstm_woattn_ohlcv_BIOCON.NS,660.9732762,0.066522387,0.889545091,,
44:59.6,"LSTMBaseline(
  (lstm): LSTM(5, 64, batch_first=True)
  (dense): Linear(in_features=64, out_features=1, bias=True)
)",lstm_woattn_ohlcv_CADILAHC.NS,2067.330706,0.080032037,0.808510615,,
46:21.9,"LSTMBaseline(
  (lstm): LSTM(5, 64, batch_first=True)
  (dense): Linear(in_features=64, out_features=1, bias=True)
)",lstm_woattn_ohlcv_CIPLA.NS,4002.138363,0.06434539,0.8499409,,
47:44.9,"LSTMBaseline(
  (lstm): LSTM(5, 64, batch_first=True)
  (dense): Linear(in_features=64, out_features=1, bias=True)
)",lstm_woattn_ohlcv_DIVISLAB.NS,53137.8235,0.079545924,0.971678027,,
49:06.6,"LSTMBaseline(
  (lstm): LSTM(5, 64, batch_first=True)
  (dense): Linear(in_features=64, out_features=1, bias=True)
)",lstm_woattn_ohlcv_LALPATHLAB.NS,51679.31694,0.082671558,0.943083634,,
50:28.7,"LSTMBaseline(
  (lstm): LSTM(5, 64, batch_first=True)
  (dense): Linear(in_features=64, out_features=1, bias=True)
)",lstm_woattn_ohlcv_DRREDDY.NS,304369.0828,0.10652435,0.752753588,,
51:50.6,"LSTMBaseline(
  (lstm): LSTM(5, 64, batch_first=True)
  (dense): Linear(in_features=64, out_features=1, bias=True)
)",lstm_woattn_ohlcv_GLENMARK.NS,9115.592566,0.098220337,0.369095383,,
53:12.8,"LSTMBaseline(
  (lstm): LSTM(5, 64, batch_first=True)
  (dense): Linear(in_features=64, out_features=1, bias=True)
)",lstm_woattn_ohlcv_GRANULES.NS,626.2785381,0.093276431,0.945026804,,
54:34.9,"LSTMBaseline(
  (lstm): LSTM(5, 64, batch_first=True)
  (dense): Linear(in_features=64, out_features=1, bias=True)
)",lstm_woattn_ohlcv_IPCALAB.NS,3809.618488,0.07328893,0.96489555,,
55:57.1,"LSTMBaseline(
  (lstm): LSTM(5, 64, batch_first=True)
  (dense): Linear(in_features=64, out_features=1, bias=True)
)",lstm_woattn_ohlcv_LAURUSLABS.NS,1734.645422,0.090745948,0.952820654,,
57:19.6,"LSTMBaseline(
  (lstm): LSTM(5, 64, batch_first=True)
  (dense): Linear(in_features=64, out_features=1, bias=True)
)",lstm_woattn_ohlcv_LUPIN.NS,30715.89824,0.086541032,-0.431959089,,
58:05.1,"LSTMBaseline(
  (lstm): LSTM(5, 64, batch_first=True)
  (dense): Linear(in_features=64, out_features=1, bias=True)
)",lstm_woattn_ohlcv_METROPOLIS.NS,101588.9038,0.141180609,0.757095823,,
59:28.8,"LSTMBaseline(
  (lstm): LSTM(5, 64, batch_first=True)
  (dense): Linear(in_features=64, out_features=1, bias=True)
)",lstm_woattn_ohlcv_PFIZER.NS,180265.4824,0.106153434,0.887389849,,
00:51.4,"LSTMBaseline(
  (lstm): LSTM(5, 64, batch_first=True)
  (dense): Linear(in_features=64, out_features=1, bias=True)
)",lstm_woattn_ohlcv_STAR.NS,15026.67071,0.123528428,0.613943764,,
02:14.9,"LSTMBaseline(
  (lstm): LSTM(5, 64, batch_first=True)
  (dense): Linear(in_features=64, out_features=1, bias=True)
)",lstm_woattn_ohlcv_SUNPHARMA.NS,4075.51656,0.076400432,0.742554668,,
03:37.8,"LSTMBaseline(
  (lstm): LSTM(5, 64, batch_first=True)
  (dense): Linear(in_features=64, out_features=1, bias=True)
)",lstm_woattn_ohlcv_TORNTPHARM.NS,52235.22146,0.080340937,0.867575168,,
04:59.9,"LSTMBaseline(
  (lstm): LSTM(5, 64, batch_first=True)
  (dense): Linear(in_features=64, out_features=1, bias=True)
)",lstm_woattn_ohlcv_COFORGE.NS,155311.0349,0.121512406,0.928134509,,
06:22.0,"LSTMBaseline(
  (lstm): LSTM(5, 64, batch_first=True)
  (dense): Linear(in_features=64, out_features=1, bias=True)
)",lstm_woattn_ohlcv_HCLTECH.NS,3554.894257,0.059489116,0.948182009,,
07:44.6,"LSTMBaseline(
  (lstm): LSTM(5, 64, batch_first=True)
  (dense): Linear(in_features=64, out_features=1, bias=True)
)",lstm_woattn_ohlcv_INFY.NS,6321.136273,0.068805898,0.963936931,,
09:08.6,"LSTMBaseline(
  (lstm): LSTM(5, 64, batch_first=True)
  (dense): Linear(in_features=64, out_features=1, bias=True)
)",lstm_woattn_ohlcv_LTTS.NS,100138.3045,0.100719215,0.932047834,,
10:30.4,"LSTMBaseline(
  (lstm): LSTM(5, 64, batch_first=True)
  (dense): Linear(in_features=64, out_features=1, bias=True)
)",lstm_woattn_ohlcv_LTI.NS,158764.1384,0.102883133,0.945430086,,
11:52.7,"LSTMBaseline(
  (lstm): LSTM(5, 64, batch_first=True)
  (dense): Linear(in_features=64, out_features=1, bias=True)
)",lstm_woattn_ohlcv_MINDTREE.NS,113143.4685,0.120352739,0.91624515,,
13:14.9,"LSTMBaseline(
  (lstm): LSTM(5, 64, batch_first=True)
  (dense): Linear(in_features=64, out_features=1, bias=True)
)",lstm_woattn_ohlcv_MPHASIS.NS,27487.29485,0.085785478,0.954582947,,
14:37.0,"LSTMBaseline(
  (lstm): LSTM(5, 64, batch_first=True)
  (dense): Linear(in_features=64, out_features=1, bias=True)
)",lstm_woattn_ohlcv_TCS.NS,39312.81444,0.068999661,0.93250205,,
15:58.7,"LSTMBaseline(
  (lstm): LSTM(5, 64, batch_first=True)
  (dense): Linear(in_features=64, out_features=1, bias=True)
)",lstm_woattn_ohlcv_TECHM.NS,7926.392978,0.084060392,0.922073689,,
17:32.6,"LSTMBaseline(
  (lstm): LSTM(5, 64, batch_first=True)
  (dense): Linear(in_features=64, out_features=1, bias=True)
)",lstm_woattn_ohlcv_WIPRO.NS,1041.561885,0.0710442,0.953163973,,
18:54.5,"LSTMBaseline(
  (lstm): LSTM(5, 64, batch_first=True)
  (dense): Linear(in_features=64, out_features=1, bias=True)
)",lstm_woattn_ohlcv_DISHTV.NS,34.87706106,0.182228927,0.956720485,,
20:17.0,"LSTMBaseline(
  (lstm): LSTM(5, 64, batch_first=True)
  (dense): Linear(in_features=64, out_features=1, bias=True)
)",lstm_woattn_ohlcv_HATHWAY.NS,21.54511657,0.132609674,0.578012107,,
21:53.6,"LSTMBaseline(
  (lstm): LSTM(5, 64, batch_first=True)
  (dense): Linear(in_features=64, out_features=1, bias=True)
)",lstm_woattn_ohlcv_INOXLEISUR.NS,1687.98718,0.099082967,0.499648794,,
22:05.9,"LSTMBaseline(
  (lstm): LSTM(5, 64, batch_first=True)
  (dense): Linear(in_features=64, out_features=1, bias=True)
)",lstm_woattn_ohlcv_NAZARA.NS,1452674.975,0.499382113,-11.42148422,,
23:30.3,"LSTMBaseline(
  (lstm): LSTM(5, 64, batch_first=True)
  (dense): Linear(in_features=64, out_features=1, bias=True)
)",lstm_woattn_ohlcv_NETWORK18.NS,48.25584687,0.112960387,0.820947835,,
24:56.7,"LSTMBaseline(
  (lstm): LSTM(5, 64, batch_first=True)
  (dense): Linear(in_features=64, out_features=1, bias=True)
)",lstm_woattn_ohlcv_PVR.NS,70399.74638,0.117804052,-0.319826023,,
26:21.3,"LSTMBaseline(
  (lstm): LSTM(5, 64, batch_first=True)
  (dense): Linear(in_features=64, out_features=1, bias=True)
)",lstm_woattn_ohlcv_SAREGAMA.NS,82476.69432,0.152446191,0.953394272,,
27:44.1,"LSTMBaseline(
  (lstm): LSTM(5, 64, batch_first=True)
  (dense): Linear(in_features=64, out_features=1, bias=True)
)",lstm_woattn_ohlcv_SUNTV.NS,9868.099386,0.089445799,0.694022779,,
29:06.5,"LSTMBaseline(
  (lstm): LSTM(5, 64, batch_first=True)
  (dense): Linear(in_features=64, out_features=1, bias=True)
)",lstm_woattn_ohlcv_TV18BRDCST.NS,32.02888819,0.119048566,0.790770462,,
30:30.1,"LSTMBaseline(
  (lstm): LSTM(5, 64, batch_first=True)
  (dense): Linear(in_features=64, out_features=1, bias=True)
)",lstm_woattn_ohlcv_ZEEL.NS,2757.517783,0.108286883,0.871122255,,
31:54.9,"LSTMBaseline(
  (lstm): LSTM(5, 64, batch_first=True)
  (dense): Linear(in_features=64, out_features=1, bias=True)
)",lstm_woattn_ohlcv_ABBOTINDIA.NS,4123586.993,0.194633113,0.84710556,,
33:18.4,"LSTMBaseline(
  (lstm): LSTM(5, 64, batch_first=True)
  (dense): Linear(in_features=64, out_features=1, bias=True)
)",lstm_woattn_ohlcv_APLLTD.NS,5946.030705,0.070199317,0.826186458,,
34:42.2,"LSTMBaseline(
  (lstm): LSTM(5, 64, batch_first=True)
  (dense): Linear(in_features=64, out_features=1, bias=True)
)",lstm_woattn_ohlcv_ALKEM.NS,104889.3198,0.083956979,0.729003011,,
36:05.1,"LSTMBaseline(
  (lstm): LSTM(5, 64, batch_first=True)
  (dense): Linear(in_features=64, out_features=1, bias=True)
)",lstm_woattn_ohlcv_AUROPHARMA.NS,6956.862942,0.091222217,0.642051604,,
37:27.0,"LSTMBaseline(
  (lstm): LSTM(5, 64, batch_first=True)
  (dense): Linear(in_features=64, out_features=1, bias=True)
)",lstm_woattn_ohlcv_BIOCON.NS,678.8922812,0.067508263,0.886550655,,
38:49.2,"LSTMBaseline(
  (lstm): LSTM(5, 64, batch_first=True)
  (dense): Linear(in_features=64, out_features=1, bias=True)
)",lstm_woattn_ohlcv_CADILAHC.NS,2379.904918,0.082311415,0.779557993,,
40:12.7,"LSTMBaseline(
  (lstm): LSTM(5, 64, batch_first=True)
  (dense): Linear(in_features=64, out_features=1, bias=True)
)",lstm_woattn_ohlcv_CIPLA.NS,3780.586583,0.063102243,0.858247924,,
41:36.3,"LSTMBaseline(
  (lstm): LSTM(5, 64, batch_first=True)
  (dense): Linear(in_features=64, out_features=1, bias=True)
)",lstm_woattn_ohlcv_DIVISLAB.NS,52937.53859,0.079068599,0.971784777,,
42:58.6,"LSTMBaseline(
  (lstm): LSTM(5, 64, batch_first=True)
  (dense): Linear(in_features=64, out_features=1, bias=True)
)",lstm_woattn_ohlcv_DRREDDY.NS,377637.8609,0.124358761,0.693235577,,
43:16.4,"LSTMBaseline(
  (lstm): LSTM(5, 64, batch_first=True)
  (dense): Linear(in_features=64, out_features=1, bias=True)
)",lstm_woattn_ohlcv_GLAND.NS,3462839.083,0.514741789,-13.95191874,,
44:39.1,"LSTMBaseline(
  (lstm): LSTM(5, 64, batch_first=True)
  (dense): Linear(in_features=64, out_features=1, bias=True)
)",lstm_woattn_ohlcv_GLENMARK.NS,12011.59392,0.107202778,0.168658537,,
46:01.8,"LSTMBaseline(
  (lstm): LSTM(5, 64, batch_first=True)
  (dense): Linear(in_features=64, out_features=1, bias=True)
)",lstm_woattn_ohlcv_GRANULES.NS,635.7205316,0.093905811,0.944198009,,
47:24.3,"LSTMBaseline(
  (lstm): LSTM(5, 64, batch_first=True)
  (dense): Linear(in_features=64, out_features=1, bias=True)
)",lstm_woattn_ohlcv_IPCALAB.NS,3798.359976,0.073182175,0.964999294,,
48:46.6,"LSTMBaseline(
  (lstm): LSTM(5, 64, batch_first=True)
  (dense): Linear(in_features=64, out_features=1, bias=True)
)",lstm_woattn_ohlcv_LAURUSLABS.NS,1734.552845,0.090498967,0.952823172,,
50:08.2,"LSTMBaseline(
  (lstm): LSTM(5, 64, batch_first=True)
  (dense): Linear(in_features=64, out_features=1, bias=True)
)",lstm_woattn_ohlcv_LUPIN.NS,28767.88348,0.084848947,-0.341143661,,
51:31.6,"LSTMBaseline(
  (lstm): LSTM(5, 64, batch_first=True)
  (dense): Linear(in_features=64, out_features=1, bias=True)
)",lstm_woattn_ohlcv_NATCOPHARM.NS,20824.11679,0.098408659,0.188179478,,
52:55.9,"LSTMBaseline(
  (lstm): LSTM(5, 64, batch_first=True)
  (dense): Linear(in_features=64, out_features=1, bias=True)
)",lstm_woattn_ohlcv_PFIZER.NS,168693.382,0.100924399,0.894618831,,
54:18.9,"LSTMBaseline(
  (lstm): LSTM(5, 64, batch_first=True)
  (dense): Linear(in_features=64, out_features=1, bias=True)
)",lstm_woattn_ohlcv_STAR.NS,18779.8111,0.130447436,0.517520326,,
55:40.4,"LSTMBaseline(
  (lstm): LSTM(5, 64, batch_first=True)
  (dense): Linear(in_features=64, out_features=1, bias=True)
)",lstm_woattn_ohlcv_SUNPHARMA.NS,5625.814868,0.078800623,0.644624245,,
57:13.0,"LSTMBaseline(
  (lstm): LSTM(5, 64, batch_first=True)
  (dense): Linear(in_features=64, out_features=1, bias=True)
)",lstm_woattn_ohlcv_TORNTPHARM.NS,51762.38932,0.080395748,0.868773875,,
58:36.6,"LSTMBaseline(
  (lstm): LSTM(5, 64, batch_first=True)
  (dense): Linear(in_features=64, out_features=1, bias=True)
)",lstm_woattn_ohlcv_AUBANK.NS,18103.59529,0.129920702,0.690431949,,
00:00.2,"LSTMBaseline(
  (lstm): LSTM(5, 64, batch_first=True)
  (dense): Linear(in_features=64, out_features=1, bias=True)
)",lstm_woattn_ohlcv_AXISBANK.NS,4896.781745,0.082087735,0.659594668,,
01:06.8,"LSTMBaseline(
  (lstm): LSTM(5, 64, batch_first=True)
  (dense): Linear(in_features=64, out_features=1, bias=True)
)",lstm_woattn_ohlcv_BANDHANBNK.NS,7471.981622,0.145353047,0.506469411,,
02:35.0,"LSTMBaseline(
  (lstm): LSTM(5, 64, batch_first=True)
  (dense): Linear(in_features=64, out_features=1, bias=True)
)",lstm_woattn_ohlcv_FEDERALBNK.NS,95.27588862,0.09580248,0.735683699,,
04:07.1,"LSTMBaseline(
  (lstm): LSTM(5, 64, batch_first=True)
  (dense): Linear(in_features=64, out_features=1, bias=True)
)",lstm_woattn_ohlcv_HDFCBANK.NS,12638.63084,0.070109308,0.774602085,,
05:29.7,"LSTMBaseline(
  (lstm): LSTM(5, 64, batch_first=True)
  (dense): Linear(in_features=64, out_features=1, bias=True)
)",lstm_woattn_ohlcv_ICICIBANK.NS,2022.722862,0.077702278,0.91634048,,
06:58.2,"LSTMBaseline(
  (lstm): LSTM(5, 64, batch_first=True)
  (dense): Linear(in_features=64, out_features=1, bias=True)
)",lstm_woattn_ohlcv_IDFCFIRSTB.NS,29.41681112,0.100268952,0.729718652,,
08:28.6,"LSTMBaseline(
  (lstm): LSTM(5, 64, batch_first=True)
  (dense): Linear(in_features=64, out_features=1, bias=True)
)",lstm_woattn_ohlcv_INDUSINDBK.NS,79530.55206,0.161603031,0.583728455,,
09:50.9,"LSTMBaseline(
  (lstm): LSTM(5, 64, batch_first=True)
  (dense): Linear(in_features=64, out_features=1, bias=True)
)",lstm_woattn_ohlcv_KOTAKBANK.NS,26871.99915,0.081233961,0.743988269,,
11:13.7,"LSTMBaseline(
  (lstm): LSTM(5, 64, batch_first=True)
  (dense): Linear(in_features=64, out_features=1, bias=True)
)",lstm_woattn_ohlcv_PNB.NS,213.499847,0.115458514,0.893075434,,
12:46.1,"LSTMBaseline(
  (lstm): LSTM(5, 64, batch_first=True)
  (dense): Linear(in_features=64, out_features=1, bias=True)
)",lstm_woattn_ohlcv_RBLBANK.NS,4059.977059,0.136257206,0.87182611,,
14:11.5,"LSTMBaseline(
  (lstm): LSTM(5, 64, batch_first=True)
  (dense): Linear(in_features=64, out_features=1, bias=True)
)",lstm_woattn_ohlcv_SBIN.NS,1380.709507,0.095234617,0.809135039,,
15:09.7,"LSTMBaseline(
  (lstm): LSTM(5, 64, batch_first=True)
  (dense): Linear(in_features=64, out_features=1, bias=True)
)",lstm_woattn_ohlcv_ATGL.NS,30496.62748,0.179318612,0.914977177,,
16:32.5,"LSTMBaseline(
  (lstm): LSTM(5, 64, batch_first=True)
  (dense): Linear(in_features=64, out_features=1, bias=True)
)",lstm_woattn_ohlcv_BPCL.NS,2934.734917,0.08471028,0.206563539,,
17:56.6,"LSTMBaseline(
  (lstm): LSTM(5, 64, batch_first=True)
  (dense): Linear(in_features=64, out_features=1, bias=True)
)",lstm_woattn_ohlcv_CASTROLIND.NS,187.4519221,0.063450428,0.797628834,,
19:19.3,"LSTMBaseline(
  (lstm): LSTM(5, 64, batch_first=True)
  (dense): Linear(in_features=64, out_features=1, bias=True)
)",lstm_woattn_ohlcv_GAIL.NS,168.2353874,0.073915557,0.800299958,,
20:42.0,"LSTMBaseline(
  (lstm): LSTM(5, 64, batch_first=True)
  (dense): Linear(in_features=64, out_features=1, bias=True)
)",lstm_woattn_ohlcv_GUJGASLTD.NS,1523.526521,0.078764847,0.956454068,,
22:04.3,"LSTMBaseline(
  (lstm): LSTM(5, 64, batch_first=True)
  (dense): Linear(in_features=64, out_features=1, bias=True)
)",lstm_woattn_ohlcv_GSPL.NS,368.5732285,0.062965213,0.847072942,,
23:26.6,"LSTMBaseline(
  (lstm): LSTM(5, 64, batch_first=True)
  (dense): Linear(in_features=64, out_features=1, bias=True)
)",lstm_woattn_ohlcv_HINDPETRO.NS,1230.158123,0.087378273,0.75236835,,
24:47.7,"LSTMBaseline(
  (lstm): LSTM(5, 64, batch_first=True)
  (dense): Linear(in_features=64, out_features=1, bias=True)
)",lstm_woattn_ohlcv_IOC.NS,196.5922585,0.075364561,0.881428853,,
26:09.3,"LSTMBaseline(
  (lstm): LSTM(5, 64, batch_first=True)
  (dense): Linear(in_features=64, out_features=1, bias=True)
)",lstm_woattn_ohlcv_IGL.NS,1205.209048,0.071780802,0.888873666,,
27:31.1,"LSTMBaseline(
  (lstm): LSTM(5, 64, batch_first=True)
  (dense): Linear(in_features=64, out_features=1, bias=True)
)",lstm_woattn_ohlcv_MGL.NS,13395.931,0.081563438,0.115521352,,
28:52.4,"LSTMBaseline(
  (lstm): LSTM(5, 64, batch_first=True)
  (dense): Linear(in_features=64, out_features=1, bias=True)
)",lstm_woattn_ohlcv_MRPL.NS,54.67397119,0.095593089,0.953509275,,
30:14.0,"LSTMBaseline(
  (lstm): LSTM(5, 64, batch_first=True)
  (dense): Linear(in_features=64, out_features=1, bias=True)
)",lstm_woattn_ohlcv_ONGC.NS,203.9955414,0.085613708,0.85087786,,
31:36.5,"LSTMBaseline(
  (lstm): LSTM(5, 64, batch_first=True)
  (dense): Linear(in_features=64, out_features=1, bias=True)
)",lstm_woattn_ohlcv_OIL.NS,352.7101299,0.085219103,0.855312856,,
32:59.2,"LSTMBaseline(
  (lstm): LSTM(5, 64, batch_first=True)
  (dense): Linear(in_features=64, out_features=1, bias=True)
)",lstm_woattn_ohlcv_PETRONET.NS,286.1619538,0.050513187,0.197552885,,
34:21.0,"LSTMBaseline(
  (lstm): LSTM(5, 64, batch_first=True)
  (dense): Linear(in_features=64, out_features=1, bias=True)
)",lstm_woattn_ohlcv_RELIANCE.NS,22067.15777,0.077588007,0.929988677,,
35:42.8,"LSTMBaseline(
  (lstm): LSTM(5, 64, batch_first=True)
  (dense): Linear(in_features=64, out_features=1, bias=True)
)",lstm_woattn_ohlcv_AXISBANK.NS,5178.575471,0.084023339,0.640005457,,
36:43.8,"LSTMBaseline(
  (lstm): LSTM(5, 64, batch_first=True)
  (dense): Linear(in_features=64, out_features=1, bias=True)
)",lstm_woattn_ohlcv_BANDHANBNK.NS,7016.232702,0.143957558,0.536572005,,
38:05.4,"LSTMBaseline(
  (lstm): LSTM(5, 64, batch_first=True)
  (dense): Linear(in_features=64, out_features=1, bias=True)
)",lstm_woattn_ohlcv_CUB.NS,275.6526479,0.070711166,0.655475107,,
39:26.9,"LSTMBaseline(
  (lstm): LSTM(5, 64, batch_first=True)
  (dense): Linear(in_features=64, out_features=1, bias=True)
)",lstm_woattn_ohlcv_FEDERALBNK.NS,95.16395878,0.095965964,0.735994217,,
40:48.9,"LSTMBaseline(
  (lstm): LSTM(5, 64, batch_first=True)
  (dense): Linear(in_features=64, out_features=1, bias=True)
)",lstm_woattn_ohlcv_HDFCBANK.NS,11420.87392,0.067174971,0.796319617,,
42:09.9,"LSTMBaseline(
  (lstm): LSTM(5, 64, batch_first=True)
  (dense): Linear(in_features=64, out_features=1, bias=True)
)",lstm_woattn_ohlcv_ICICIBANK.NS,1922.429003,0.074800597,0.92048862,,
43:31.4,"LSTMBaseline(
  (lstm): LSTM(5, 64, batch_first=True)
  (dense): Linear(in_features=64, out_features=1, bias=True)
)",lstm_woattn_ohlcv_IDFCFIRSTB.NS,27.66618689,0.097604858,0.745803368,,
44:52.8,"LSTMBaseline(
  (lstm): LSTM(5, 64, batch_first=True)
  (dense): Linear(in_features=64, out_features=1, bias=True)
)",lstm_woattn_ohlcv_INDUSINDBK.NS,79580.6453,0.161626041,0.583466261,,
46:14.9,"LSTMBaseline(
  (lstm): LSTM(5, 64, batch_first=True)
  (dense): Linear(in_features=64, out_features=1, bias=True)
)",lstm_woattn_ohlcv_KOTAKBANK.NS,24723.71317,0.077617065,0.764455165,,
47:37.3,"LSTMBaseline(
  (lstm): LSTM(5, 64, batch_first=True)
  (dense): Linear(in_features=64, out_features=1, bias=True)
)",lstm_woattn_ohlcv_RBLBANK.NS,4239.37753,0.137088793,0.866162419,,
48:58.4,"LSTMBaseline(
  (lstm): LSTM(5, 64, batch_first=True)
  (dense): Linear(in_features=64, out_features=1, bias=True)
)",lstm_woattn_ohlcv_AXISBANK.NS,6138.028634,0.090300042,0.573307983,,
50:20.0,"LSTMBaseline(
  (lstm): LSTM(5, 64, batch_first=True)
  (dense): Linear(in_features=64, out_features=1, bias=True)
)",lstm_woattn_ohlcv_BAJFINANCE.NS,349092.8281,0.149768278,0.896627189,,
51:41.3,"LSTMBaseline(
  (lstm): LSTM(5, 64, batch_first=True)
  (dense): Linear(in_features=64, out_features=1, bias=True)
)",lstm_woattn_ohlcv_BAJAJFINSV.NS,7920543.611,0.281270373,0.457757545,,
53:02.6,"LSTMBaseline(
  (lstm): LSTM(5, 64, batch_first=True)
  (dense): Linear(in_features=64, out_features=1, bias=True)
)",lstm_woattn_ohlcv_CHOLAFIN.NS,1851.33715,0.10500849,0.901047067,,
53:57.3,"LSTMBaseline(
  (lstm): LSTM(5, 64, batch_first=True)
  (dense): Linear(in_features=64, out_features=1, bias=True)
)",lstm_woattn_ohlcv_HDFCAMC.NS,181210.9823,0.150223623,0.418680942,,
55:18.7,"LSTMBaseline(
  (lstm): LSTM(5, 64, batch_first=True)
  (dense): Linear(in_features=64, out_features=1, bias=True)
)",lstm_woattn_ohlcv_HDFCBANK.NS,12098.06569,0.068813941,0.784242548,,
56:25.6,"LSTMBaseline(
  (lstm): LSTM(5, 64, batch_first=True)
  (dense): Linear(in_features=64, out_features=1, bias=True)
)",lstm_woattn_ohlcv_HDFCLIFE.NS,2565.413946,0.069860502,0.795932542,,
57:48.6,"LSTMBaseline(
  (lstm): LSTM(5, 64, batch_first=True)
  (dense): Linear(in_features=64, out_features=1, bias=True)
)",lstm_woattn_ohlcv_HDFC.NS,75291.04763,0.089714139,0.450219064,,
59:14.5,"LSTMBaseline(
  (lstm): LSTM(5, 64, batch_first=True)
  (dense): Linear(in_features=64, out_features=1, bias=True)
)",lstm_woattn_ohlcv_ICICIBANK.NS,1983.558694,0.076645528,0.917960305,,
00:24.4,"LSTMBaseline(
  (lstm): LSTM(5, 64, batch_first=True)
  (dense): Linear(in_features=64, out_features=1, bias=True)
)",lstm_woattn_ohlcv_ICICIGI.NS,13683.18469,0.070153194,0.813120795,,
01:47.8,"LSTMBaseline(
  (lstm): LSTM(5, 64, batch_first=True)
  (dense): Linear(in_features=64, out_features=1, bias=True)
)",lstm_woattn_ohlcv_ICICIPRULI.NS,2789.526631,0.08592154,0.667609454,,
03:11.1,"LSTMBaseline(
  (lstm): LSTM(5, 64, batch_first=True)
  (dense): Linear(in_features=64, out_features=1, bias=True)
)",lstm_woattn_ohlcv_KOTAKBANK.NS,25333.28377,0.078630334,0.758647737,,
04:33.4,"LSTMBaseline(
  (lstm): LSTM(5, 64, batch_first=True)
  (dense): Linear(in_features=64, out_features=1, bias=True)
)",lstm_woattn_ohlcv_M&MFIN.NS,1967.586812,0.137368213,0.891277474,,
05:54.8,"LSTMBaseline(
  (lstm): LSTM(5, 64, batch_first=True)
  (dense): Linear(in_features=64, out_features=1, bias=True)
)",lstm_woattn_ohlcv_MUTHOOTFIN.NS,7488.800826,0.075308442,0.954718848,,
07:22.5,"LSTMBaseline(
  (lstm): LSTM(5, 64, batch_first=True)
  (dense): Linear(in_features=64, out_features=1, bias=True)
)",lstm_woattn_ohlcv_PEL.NS,341302.4632,0.159349225,-0.105147389,,
08:44.5,"LSTMBaseline(
  (lstm): LSTM(5, 64, batch_first=True)
  (dense): Linear(in_features=64, out_features=1, bias=True)
)",lstm_woattn_ohlcv_PFC.NS,153.7287797,0.087267171,0.59300074,,
10:05.8,"LSTMBaseline(
  (lstm): LSTM(5, 64, batch_first=True)
  (dense): Linear(in_features=64, out_features=1, bias=True)
)",lstm_woattn_ohlcv_RECLTD.NS,251.8132986,0.084703172,0.610091946,,
11:15.8,"LSTMBaseline(
  (lstm): LSTM(5, 64, batch_first=True)
  (dense): Linear(in_features=64, out_features=1, bias=True)
)",lstm_woattn_ohlcv_SBILIFE.NS,8875.238871,0.076360182,0.754501772,,
12:37.2,"LSTMBaseline(
  (lstm): LSTM(5, 64, batch_first=True)
  (dense): Linear(in_features=64, out_features=1, bias=True)
)",lstm_woattn_ohlcv_SRTRANSFIN.NS,28284.9951,0.110552312,0.557048571,,
13:59.6,"LSTMBaseline(
  (lstm): LSTM(5, 64, batch_first=True)
  (dense): Linear(in_features=64, out_features=1, bias=True)
)",lstm_woattn_ohlcv_SBIN.NS,1344.45533,0.09450178,0.814146703,,
15:21.5,"LSTMBaseline(
  (lstm): LSTM(5, 64, batch_first=True)
  (dense): Linear(in_features=64, out_features=1, bias=True)
)",lstm_woattn_ohlcv_BRIGADE.NS,866.771253,0.104235522,0.913885227,,
16:43.5,"LSTMBaseline(
  (lstm): LSTM(5, 64, batch_first=True)
  (dense): Linear(in_features=64, out_features=1, bias=True)
)",lstm_woattn_ohlcv_DLF.NS,962.2705151,0.107034834,0.825113397,,
18:05.5,"LSTMBaseline(
  (lstm): LSTM(5, 64, batch_first=True)
  (dense): Linear(in_features=64, out_features=1, bias=True)
)",lstm_woattn_ohlcv_GODREJPROP.NS,26532.5063,0.108819465,0.860028817,,
19:26.8,"LSTMBaseline(
  (lstm): LSTM(5, 64, batch_first=True)
  (dense): Linear(in_features=64, out_features=1, bias=True)
)",lstm_woattn_ohlcv_IBREALEST.NS,572.300717,0.179576697,0.834433195,,
19:37.3,"LSTMBaseline(
  (lstm): LSTM(5, 64, batch_first=True)
  (dense): Linear(in_features=64, out_features=1, bias=True)
)",lstm_woattn_ohlcv_LODHA.NS,83010.23855,0.21344741,-1.998488211,,
20:59.0,"LSTMBaseline(
  (lstm): LSTM(5, 64, batch_first=True)
  (dense): Linear(in_features=64, out_features=1, bias=True)
)",lstm_woattn_ohlcv_OBEROIRLTY.NS,3225.367363,0.07682802,0.859647065,,
22:22.4,"LSTMBaseline(
  (lstm): LSTM(5, 64, batch_first=True)
  (dense): Linear(in_features=64, out_features=1, bias=True)
)",lstm_woattn_ohlcv_PHOENIXLTD.NS,4882.049897,0.077530632,0.783882968,,
23:44.7,"LSTMBaseline(
  (lstm): LSTM(5, 64, batch_first=True)
  (dense): Linear(in_features=64, out_features=1, bias=True)
)",lstm_woattn_ohlcv_PRESTIGE.NS,1542.452645,0.104603558,0.729320377,,
25:05.7,"LSTMBaseline(
  (lstm): LSTM(5, 64, batch_first=True)
  (dense): Linear(in_features=64, out_features=1, bias=True)
)",lstm_woattn_ohlcv_SOBHA.NS,4160.034852,0.111436845,0.843916313,,
26:29.3,"LSTMBaseline(
  (lstm): LSTM(5, 64, batch_first=True)
  (dense): Linear(in_features=64, out_features=1, bias=True)
)",lstm_woattn_ohlcv_SUNTECK.NS,2620.731872,0.122966668,0.692094806,,
27:51.0,"LSTMBaseline(
  (lstm): LSTM(5, 64, batch_first=True)
  (dense): Linear(in_features=64, out_features=1, bias=True)
)",lstm_woattn_ohlcv_AMARAJABAT.NS,11290.86663,0.084561175,-0.162993012,,
29:12.9,"LSTMBaseline(
  (lstm): LSTM(5, 64, batch_first=True)
  (dense): Linear(in_features=64, out_features=1, bias=True)
)",lstm_woattn_ohlcv_ASHOKLEY.NS,141.1996639,0.104310929,0.825658756,,
30:34.7,"LSTMBaseline(
  (lstm): LSTM(5, 64, batch_first=True)
  (dense): Linear(in_features=64, out_features=1, bias=True)
)",lstm_woattn_ohlcv_BAJAJ-AUTO.NS,351169.2248,0.113642451,-0.824006358,,
31:57.3,"LSTMBaseline(
  (lstm): LSTM(5, 64, batch_first=True)
  (dense): Linear(in_features=64, out_features=1, bias=True)
)",lstm_woattn_ohlcv_BALKRISIND.NS,26240.78271,0.104164014,0.907990008,,
33:19.0,"LSTMBaseline(
  (lstm): LSTM(5, 64, batch_first=True)
  (dense): Linear(in_features=64, out_features=1, bias=True)
)",lstm_woattn_ohlcv_BHARATFORG.NS,4433.560711,0.093161504,0.753534777,,
34:40.8,"LSTMBaseline(
  (lstm): LSTM(5, 64, batch_first=True)
  (dense): Linear(in_features=64, out_features=1, bias=True)
)",lstm_woattn_ohlcv_BOSCHLTD.NS,126918001.2,0.44296879,-9.596124575,,
36:02.5,"LSTMBaseline(
  (lstm): LSTM(5, 64, batch_first=True)
  (dense): Linear(in_features=64, out_features=1, bias=True)
)",lstm_woattn_ohlcv_EICHERMOT.NS,489402.386,0.151921346,-1.292649466,,
37:23.8,"LSTMBaseline(
  (lstm): LSTM(5, 64, batch_first=True)
  (dense): Linear(in_features=64, out_features=1, bias=True)
)",lstm_woattn_ohlcv_EXIDEIND.NS,280.5223597,0.059685336,0.770258007,,
38:44.8,"LSTMBaseline(
  (lstm): LSTM(5, 64, batch_first=True)
  (dense): Linear(in_features=64, out_features=1, bias=True)
)",lstm_woattn_ohlcv_HEROMOTOCO.NS,870627.9885,0.149337148,-2.311492161,,
40:06.6,"LSTMBaseline(
  (lstm): LSTM(5, 64, batch_first=True)
  (dense): Linear(in_features=64, out_features=1, bias=True)
)",lstm_woattn_ohlcv_MRF.NS,3436422114,0.841519498,-42.74419454,,
41:28.3,"LSTMBaseline(
  (lstm): LSTM(5, 64, batch_first=True)
  (dense): Linear(in_features=64, out_features=1, bias=True)
)",lstm_woattn_ohlcv_M&M.NS,6588.465793,0.087030818,0.649965566,,
42:50.0,"LSTMBaseline(
  (lstm): LSTM(5, 64, batch_first=True)
  (dense): Linear(in_features=64, out_features=1, bias=True)
)",lstm_woattn_ohlcv_MARUTI.NS,7553814.45,0.223464521,-5.996916491,,
44:11.1,"LSTMBaseline(
  (lstm): LSTM(5, 64, batch_first=True)
  (dense): Linear(in_features=64, out_features=1, bias=True)
)",lstm_woattn_ohlcv_TVSMOTOR.NS,3769.624169,0.087906922,0.66122837,,
45:32.1,"LSTMBaseline(
  (lstm): LSTM(5, 64, batch_first=True)
  (dense): Linear(in_features=64, out_features=1, bias=True)
)",lstm_woattn_ohlcv_TATAMOTORS.NS,2713.235407,0.147272634,0.832399948,,
46:41.3,"LSTMBaseline(
  (lstm): LSTM(5, 64, batch_first=True)
  (dense): Linear(in_features=64, out_features=1, bias=True)
)",lstm_woattn_ohlcv_TIINDIA.NS,9264.759268,0.103760696,0.957095672,,
48:03.4,"LSTMBaseline(
  (lstm): LSTM(5, 64, batch_first=True)
  (dense): Linear(in_features=64, out_features=1, bias=True)
)",lstm_woattn_ohlcv_APLAPOLLO.NS,2516.665887,0.118663568,0.965318692,,
49:24.8,"LSTMBaseline(
  (lstm): LSTM(5, 64, batch_first=True)
  (dense): Linear(in_features=64, out_features=1, bias=True)
)",lstm_woattn_ohlcv_ADANIENT.NS,9542.594603,0.139256476,0.969299974,,
50:46.3,"LSTMBaseline(
  (lstm): LSTM(5, 64, batch_first=True)
  (dense): Linear(in_features=64, out_features=1, bias=True)
)",lstm_woattn_ohlcv_COALINDIA.NS,347.5611919,0.071089374,0.90143028,,
52:07.9,"LSTMBaseline(
  (lstm): LSTM(5, 64, batch_first=True)
  (dense): Linear(in_features=64, out_features=1, bias=True)
)",lstm_woattn_ohlcv_HINDALCO.NS,868.6493333,0.091144802,0.919587007,,
53:29.4,"LSTMBaseline(
  (lstm): LSTM(5, 64, batch_first=True)
  (dense): Linear(in_features=64, out_features=1, bias=True)
)",lstm_woattn_ohlcv_HINDCOPPER.NS,198.0702212,0.126769842,0.864744922,,
54:50.6,"LSTMBaseline(
  (lstm): LSTM(5, 64, batch_first=True)
  (dense): Linear(in_features=64, out_features=1, bias=True)
)",lstm_woattn_ohlcv_HINDZINC.NS,481.2779478,0.063462292,0.805769738,,
56:11.8,"LSTMBaseline(
  (lstm): LSTM(5, 64, batch_first=True)
  (dense): Linear(in_features=64, out_features=1, bias=True)
)",lstm_woattn_ohlcv_JSWSTEEL.NS,2160.020189,0.093418339,0.92297619,,
57:33.4,"LSTMBaseline(
  (lstm): LSTM(5, 64, batch_first=True)
  (dense): Linear(in_features=64, out_features=1, bias=True)
)",lstm_woattn_ohlcv_JINDALSTEL.NS,1092.188757,0.13628353,0.898388295,,
58:54.7,"LSTMBaseline(
  (lstm): LSTM(5, 64, batch_first=True)
  (dense): Linear(in_features=64, out_features=1, bias=True)
)",lstm_woattn_ohlcv_NMDC.NS,190.4564536,0.093502689,0.710151651,,
00:17.5,"LSTMBaseline(
  (lstm): LSTM(5, 64, batch_first=True)
  (dense): Linear(in_features=64, out_features=1, bias=True)
)",lstm_woattn_ohlcv_NATIONALUM.NS,52.50154781,0.093894288,0.892749785,,
01:55.5,"LSTMBaseline(
  (lstm): LSTM(5, 64, batch_first=True)
  (dense): Linear(in_features=64, out_features=1, bias=True)
)",lstm_woattn_ohlcv_RATNAMANI.NS,17753.74851,0.082325714,0.919733332,,
03:29.1,"LSTMBaseline(
  (lstm): LSTM(5, 64, batch_first=True)
  (dense): Linear(in_features=64, out_features=1, bias=True)
)",lstm_woattn_ohlcv_SAIL.NS,113.7511698,0.122774595,0.865661745,,
05:03.2,"LSTMBaseline(
  (lstm): LSTM(5, 64, batch_first=True)
  (dense): Linear(in_features=64, out_features=1, bias=True)
)",lstm_woattn_ohlcv_TATASTEEL.NS,8460.214267,0.114573132,0.908514337,,
06:36.4,"LSTMBaseline(
  (lstm): LSTM(5, 64, batch_first=True)
  (dense): Linear(in_features=64, out_features=1, bias=True)
)",lstm_woattn_ohlcv_VEDL.NS,640.8208897,0.109633965,0.901088513,,
08:13.4,"LSTMBaseline(
  (lstm): LSTM(5, 64, batch_first=True)
  (dense): Linear(in_features=64, out_features=1, bias=True)
)",lstm_woattn_ohlcv_WELCORP.NS,521.1369713,0.142422454,0.344300006,,
